model/maddpg/20240809/agent_0_target_actor.pth (torch, 12746 bytes, 5 tensors)

fc1.weight f4 [64, 5]
0	0x3d6059af	0.05477303
1	0x3dc18f12	0.094511166
2	0xbd5a1848	-0.053245813
3	0x3e90bb6a	0.28267986
4	0x3e53a1d5	0.20667203
5	0xbeaacff8	-0.33361793
6	0xbed8939b	-0.42300114
7	0x3f41401f	0.75488466
8	0x3e9914e7	0.2989876
9	0xbfa12f85	-1.2592627
10	0xbe419d7b	-0.1890773
11	0x3f911cab	1.1336874
12	0x3da86b14	0.082235485
13	0x3f396466	0.7241882
14	0xbebc8a41	-0.3682423
15	0x3e614ec5	0.22002704
16	0x3e35ca86	0.17753038
17	0xbdabdeac	-0.08392081
18	0xbe07b08f	-0.13250946
19	0xbce20919	-0.027592229
20	0xbd9a5c40	-0.075371265
21	0x3fa7aecc	1.3100219
22	0xbdc8e013	-0.09808364
23	0x3f8296b3	1.020224
24	0xbf8217be	-1.0163496
25	0x3e6cfaa9	0.23142494
26	0x3e296321	0.16541721
27	0x3f24ca91	0.6437159
28	0xbdef4561	-0.11683155
29	0x3f82a45e	1.0206411
30	0x3c92b79b	0.017909816
31	0x3f86bc06	1.052613
32	0xbe5c8d94	-0.21538383
33	0x3f870aef	1.0550212
34	0xbfa14758	-1.2599897
35	0x3ebb7fae	0.3662085
36	0xbe0fc3bf	-0.14039515
37	0x3e9e740c	0.30947912
38	0xbedd4937	-0.4321992
39	0x3d9ff996	0.078112766
40	0x3e94f576	0.29093522
41	0x3ec82082	0.39087301
42	0xbd8fbde8	-0.070186436
43	0xbd551adc	-0.05202757
44	0xbe819b62	-0.2531386
45	0x3e51601a	0.20446816
46	0xbe2251a6	-0.15851459
47	0x3d6e71ce	0.058214
48	0x3e735225	0.23761804
49	0xbe92b9a1	-0.2865725
50	0xbe2608a3	-0.16214232
51	0xbf908612	-1.1290915
52	0x3f24beb2	0.6435348
53	0xbf6f5f16	-0.93504465
54	0xbf39ad8c	-0.72530437
55	0xbeaccfb1	-0.33752206
56	0x3f97d947	1.1863183
57	0x3e482366	0.19544753
58	0x3f22d94d	0.63612825
59	0xbf0251f2	-0.5090629
60	0x3efe020a	0.4961093
61	0xbdd13033	-0.102142714
62	0xbe5c4e4b	-0.21514241
63	0xbf08944b	-0.5335128
64	0xbe1602f7	-0.14649568
65	0x3e7b3a52	0.24533966
66	0x3d5f4804	0.05451204
67	0xbf3b1d05	-0.73091155
68	0x3eab71b0	0.33485174
69	0xbf1f5b28	-0.6224847
70	0x3c57a8d7	0.013162813
71	0x3f84200e	1.0322282
72	0xbe6519dd	-0.22373147
73	0x3f581188	0.8440175
74	0xbf94fd3f	-1.1639785
75	0xbcce548f	-0.025186805
76	0x3f5e17b7	0.86754936
77	0xbe222f61	-0.15838386
78	0x3e8097dc	0.2511586
79	0xbf95d34f	-1.1705111
80	0x3ed65efe	0.41869348
81	0xbe0d385b	-0.13791029
82	0x3ded8429	0.11597473
83	0x3e6525c3	0.22377686
84	0x3ea76178	0.3269155
85	0xbd63807c	-0.055542454
86	0xbea870f0	-0.32898664
87	0x3f2d6809	0.6773687
88	0xbed04318	-0.40676188
89	0x3f409d9e	0.75240505
90	0x3ed99956	0.424998
91	0xbab7b6c5	-0.0014016262
92	0x3ecc3b3d	0.39888945
93	0xbe03c9bb	-0.12869923
94	0x3df7e285	0.12103752
95	0x3ea44277	0.3208196
96	0xbd8990ed	-0.067170955
97	0x3d863c4b	0.06554469
98	0xbea23b98	-0.3168609
99	0xbeb83abe	-0.35982317
100	0xbed5dcb0	-0.41769934
101	0x3f6717a0	0.90270424
102	0x3e792969	0.24332203
103	0x3eddacb0	0.43295813
104	0xbf9b8f47	-1.21531
105	0x3ed9e07c	0.4255408
106	0x3ea88d11	0.32920125
107	0x3df17b89	0.117911406
108	0x3d14282f	0.036171135
109	0xbe5dedee	-0.21672794
110	0x3f0489eb	0.51772946
111	0xbf281d58	-0.65669775
112	0x3f145a5c	0.5795038
113	0xbfa8b742	-1.3180926
114	0x3f210dec	0.6291187
115	0x3edf87b8	0.43658233
116	0xbe116cf0	-0.14201713
117	0xbbf2cf1c	-0.0074099433
118	0xbed9e4b8	-0.4255731
119	0xbe8d1447	-0.27554533
120	0x3e21c841	0.15799047
121	0x3ed32ad8	0.41243625
122	0xbdcf44ca	-0.10120542
123	0xbd358d32	-0.044324107
124	0xbe1d26b4	-0.15346795
125	0xbeacbdb9	-0.33738497
126	0x3ed7c8df	0.4214544
127	0x3e310e69	0.17290653
128	0x3f8794d3	1.0592293
129	0xbf3f5edd	-0.74754125
130	0x3d4b2633	0.049596976
131	0xbf15ffa5	-0.5859321
132	0x3eec9e6f	0.46214625
133	0xbf6ab371	-0.91680056
134	0x3e776aca	0.2416183
135	0x3ee2c968	0.44294286
136	0x3e539f8a	0.20666328
137	0x3e2b28db	0.16714804
138	0x3da34d8e	0.07973777
139	0x3d8fc21a	0.07019444
140	0x3ea97771	0.3309894
141	0xbd80825f	-0.06274866
142	0xbe95244f	-0.29129264
143	0x3db3dd8d	0.08782492
144	0x3e3652d9	0.17805041
145	0xbec365bb	-0.38163552
146	0x3edc066b	0.42973647
147	0x3e6c2e5c	0.2306456
148	0x3f32e3f2	0.69879067
149	0xbf856c16	-1.042361
150	0x3cba2496	0.022722524
151	0x3e944800	0.28961182
152	0x3f030e3b	0.5119359
153	0x3f4015ae	0.7503308
154	0x3efceb21	0.4939814
155	0xbe4ecb4a	-0.20194736
156	0xbe891ab8	-0.26778197
157	0x3dcc0e0b	0.09963616
158	0xbf229f78	-0.6352458
159	0xbf773a57	-0.96573395
160	0xbec6ea1e	-0.38850492
161	0x3de6a019	0.11261005
162	0x3ecf31a7	0.4046757
163	0xbee9c145	-0.45655265
164	0xbcd402dc	-0.02588027
165	0x3ee31449	0.44351414
166	0x3d0eefa3	0.034896504
167	0xbd92fa67	-0.07176667
168	0x3e9f767f	0.31145093
169	0xbe21b0d1	-0.15790106
170	0x3ee7e131	0.45288995
171	0xbcea2030	-0.028579801
172	0xbd9c43bf	-0.07630109
173	0xbdfaf916	-0.122545406
174	0xbebcdcad	-0.36887112
175	0xbe30d0b2	-0.17267111
176	0x3f53016f	0.8242406
177	0xbc36e812	-0.011163728
178	0x3f358cce	0.70917976
179	0xbfa58868	-1.2932253
180	0x3ea104f0	0.3144908
181	0xbeeff71d	-0.4686822
182	0x3ec3c316	0.38234776
183	0xbf955203	-1.1665653
184	0x3ce80afd	0.028325552
185	0xbd425833	-0.047447395
186	0x3eb86489	0.36014202
187	0xbd8fde4f	-0.07024824
188	0x3f272741	0.6529427
189	0xbf849a52	-1.0359595
190	0x3e259fd9	0.16174258
191	0x3e2b0a91	0.1670325
192	0xbdbd374d	-0.092390634
193	0xbea45115	-0.3209311
194	0x3e0a97ea	0.13534513
195	0xba5ce063	-0.000842577
196	0x3d31939e	0.04335367
197	0x3ea065f6	0.3132779
198	0x3f14ff32	0.582019
199	0x3eb85615	0.36003175
200	0xbdb1c8be	-0.08680867
201	0x3f7e12d5	0.99247485
202	0xbc43a503	-0.011941197
203	0x3ed563fc	0.41677845
204	0xbe950da7	-0.29111978
205	0x3e849e25	0.25901905
206	0xbd04f79b	-0.032462697
207	0xbd4a09c3	-0.049325716
208	0xbe5f75ea	-0.21822324
209	0x3e33b215	0.17548402
210	0x3ebf3321	0.37343696
211	0xbc9e6181	-0.019333603
212	0xbdc54827	-0.096329026
213	0xbe5eb433	-0.21748428
214	0xbe0f7ea8	-0.1401316
215	0x3ebea06a	0.3723176
216	0xbecfdc50	-0.40597773
217	0x3eac4e5a	0.33653527
218	0xbe395c9b	-0.18101732
219	0xbdee5dae	-0.11638962
220	0x3eae64c5	0.34061256
221	0x3e24dd51	0.1610005
222	0xbe2dadf4	-0.16960889
223	0x3e0169ea	0.1263806
224	0xbf8802fb	-1.062591
225	0x3e915b90	0.2839017
226	0x3eac6571	0.33671144
227	0xbe58cbdb	-0.21171515
228	0xbf092343	-0.5356943
229	0x3e1444df	0.14479397
230	0x3d958010	0.072998166
231	0xbd729b4a	-0.059230126
232	0x3e48b987	0.19602023
233	0xbe3ac98b	-0.18240945
234	0xbdbbaf1e	-0.0916426
235	0xbcce3761	-0.025172891
236	0xbf7c8e9c	-0.98655105
237	0x3e5cd1c9	0.21564402
238	0xbf8293f8	-1.0201406
239	0xbef973a3	-0.48721036
240	0x3e9835fe	0.29728693
241	0x3e2a7ab2	0.16648367
242	0x3ebae85e	0.36505407
243	0xbe00f7d6	-0.12594542
244	0xbe46528f	-0.19367431
245	0x3e33f30d	0.17573185
246	0xbe51c3dc	-0.2048487
247	0xbd8bd8c3	-0.068284534
248	0xbd1db5e2	-0.038503535
249	0xbe12f818	-0.14352453
250	0xbee8401c	-0.45361412
251	0xbd47620a	-0.04867748
252	0x3eea13b1	0.45718148
253	0x3fa0fde8	1.2577486
254	0xbfab377d	-1.3376309
255	0x3eaae150	0.33375025

fc1.bias f4 [64]
0	0xbe9d1894	-0.30682814
1	0x3e75a889	0.23990072
2	0xbec1d8da	-0.37860757
3	0x3e26f090	0.16302705
4	0xbf66bef4	-0.9013512
5	0xbe013f0c	-0.12621707
6	0xbf98c46f	-1.1934947
7	0xbe96d1a2	-0.29456812
8	0xbd967523	-0.07346561
9	0x3e05dac7	0.13071738
10	0x3f999b23	1.2000469
11	0xbf191b27	-0.59807056
12	0x3ec2757e	0.37980264
13	0xbf00d9e0	-0.5033245
14	0xbf079bda	-0.52972186
15	0xbf6bae3c	-0.92062736
16	0xbecc51e1	-0.3990622
17	0xbdaa2289	-0.08307368
18	0xbd0571c0	-0.032579184
19	0x3e5855f4	0.21126539
20	0xbeb40759	-0.35161856
21	0xbea7c0a3	-0.32764158
22	0x3f208340	0.6270027
23	0xbe706992	-0.23477772
24	0xbecdd59b	-0.4020203
25	0xbf677f24	-0.90428376
26	0x3f781d24	0.96919465
27	0x3d86674d	0.06562672
28	0xbe3f7cf2	-0.18700007
29	0xbf1c99af	-0.61172
30	0xbe80c018	-0.25146556
31	0x3f3dfc94	0.7421353
32	0xbe8353c3	-0.25649843
33	0x3dc23ffa	0.09484859
34	0x3ec37f1e	0.3818292
35	0xbf58d3ab	-0.8469798
36	0x3f5b30c0	0.8562126
37	0xbe97df87	-0.29662725
38	0xbecb44f7	-0.39701054
39	0xbe92138c	-0.28530538
40	0xbeb3e23d	-0.35133544
41	0xbe0ae82d	-0.1356513
42	0x3e11d3a5	0.14240892
43	0x3cbd1d55	0.023085276
44	0x3eae5e84	0.34056485
45	0x3db8a115	0.09015099
46	0xbea137d0	-0.31487894
47	0x3f631e2c	0.88717914
48	0xbb8269d6	-0.003979902
49	0xbe8c4e1d	-0.27403346
50	0xbeca51ff	-0.39515683
51	0xbe331bb3	-0.17491035
52	0x3dab51d1	0.083652146
53	0x3da04cf4	0.07827178
54	0xbd974d81	-0.073878296
55	0xbf233388	-0.63750505
56	0xbf9b6bbb	-1.2142252
57	0xbe93c4e5	-0.28861156
58	0xbe2d7d21	-0.16942264
59	0xbecb2eb3	-0.39684066
60	0xbf8c05ae	-1.0939233
61	0xbcc5e494	-0.024156846
62	0xbe381363	-0.17976145
63	0xbe95d36a	-0.2926286

fc2.weight f4 [32, 64]
0	0xbd8f23fb	-0.069892846
1	0xbd3c0468	-0.04590264
2	0xbdbc5392	-0.09195627
3	0xbc51ba18	-0.012800716
4	0x3d46d3da	0.04854188
5	0x3d95071e	0.07276748
6	0xbd890bd3	-0.066917084
7	0xbd97d40c	-0.074134916
8	0x3cc7e0d8	0.024399206
9	0xbb362c80	-0.002779752
10	0xbd7caca2	-0.061688073
11	0xbc3417c2	-0.010991992
12	0xbd362554	-0.044469193
13	0xbe17eadc	-0.14835685
14	0xbc44c997	-0.012010953
15	0x3d651b6c	0.055934355
16	0x3be1dfe0	0.006893143
17	0x3bc1bea0	0.005912617
18	0xbdabc2d2	-0.083867684
19	0xbd4407f0	-0.047859132
20	0x3c70c431	0.014695213
21	0x3d0e5358	0.03474745
22	0x3ce2bfc0	0.027679324
23	0xbdddbcf6	-0.10827057
24	0xbcb62cf6	-0.022238236
25	0x3d8a7333	0.06760254
26	0xbdeccb1a	-0.11562176
27	0x3dd61ba2	0.10454489
28	0x3d9b273e	0.07575844
29	0x3d40ed4f	0.047101315
30	0x3d98ee1e	0.07467292
31	0xbd1537d8	-0.03643021
32	0x3dc3962b	0.09550127
33	0xbdd28ed6	-0.1028115
34	0x3d9d4466	0.076790616
35	0xbd65fadd	-0.056147445
36	0x3d159130	0.036515415
37	0xbced0021	-0.028930726
38	0xbc29ea49	-0.010370799
39	0x3d2140b5	0.03936835
40	0xbc8e5813	-0.017375981
41	0xbcf28aa8	-0.029607132
42	0x3d929ad0	0.071584344
43	0x3d61c20c	0.0551167
44	0xbca2ebd0	-0.019887835
45	0x3d002b75	0.031291444
46	0xbdd53ac0	-0.10411596
47	0x3da49614	0.08036438
48	0xbc858870	-0.01630041
49	0x3dccef14	0.10006538
50	0x3dc35310	0.09537327
51	0x3db7a9d6	0.089679405
52	0x3bbeb960	0.0058204383
53	0xbd292d39	-0.041302893
54	0xbd9d715c	-0.07687637
55	0xbd2ead09	-0.042645488
56	0xbe10af4c	-0.1412937
57	0xbdcffd66	-0.10155754
58	0x3d434d1e	0.047680967
59	0xbd055187	-0.032548454
60	0xbe087187	-0.13324557
61	0x3b0868c0	0.002081439
62	0xbd0b5730	-0.034018695
63	0x3dbe0dd8	0.09279984
64	0xbcd12018	-0.025527999
65	0x3ebf412d	0.37354413
66	0xbdb47262	-0.08810879
67	0x3ddbf2e4	0.10739687
68	0xbdbfac7c	-0.09359071
69	0xbf2dbf24	-0.6786978
70	0xbdc8a976	-0.09797947
71	0xbd13ad80	-0.036054134
72	0xb9940200	-0.0002823025
73	0xbded8170	-0.11596954
74	0x40669ae7	3.6032045
75	0x3dfbad62	0.122889295
76	0x3e6dfbb0	0.23240542
77	0x3ffe7351	1.9878942
78	0xbdc13ca8	-0.094353974
79	0xbdd22d54	-0.10262552
80	0x3dc2fc5e	0.095207915
81	0x3f1e010f	0.61720365
82	0xbd9600a6	-0.073243424
83	0x3c4b7010	0.0124168545
84	0x3d8e52ca	0.069493845
85	0x3b04ee40	0.002028361
86	0x3fa8b679	1.3180686
87	0xbd94f09e	-0.072724566
88	0xbd9f55d0	-0.07780039
89	0x3cca5750	0.024699837
90	0x400b471f	2.176216
91	0xbcb6f478	-0.022333369
92	0xbdacd26d	-0.08438573
93	0xbcd3d8ac	-0.025860153
94	0xbe64937c	-0.22321886
95	0x3f3b35e0	0.7312908
96	0x3dde9084	0.10867408
97	0xbd1478d4	-0.036248043
98	0x3e29fa4c	0.16599387
99	0xbd97ae3e	-0.07406281
100	0x4073b2fa	3.8077989
101	0x3d8837fa	0.06651302
102	0xbda122ea	-0.078679875
103	0x3eaba6d0	0.33525705
104	0xbdc2b864	-0.09507826
105	0x3cfc66f8	0.030810818
106	0x3bbf3382	0.0058349976
107	0xbdf36816	-0.11885087
108	0xbfe8d3c4	-1.8189626
109	0xbd1c3f54	-0.038146332
110	0xbdc886be	-0.09791325
111	0x402bf3bf	2.686752
112	0x3d80497c	0.06264016
113	0x3d49cf70	0.049270093
114	0x3f828b5e	1.0198781
115	0xbf6eb7f2	-0.9324943
116	0x3d8da26f	0.069157474
117	0xbdf46b26	-0.119344994
118	0xbc9f6270	-0.019456118
119	0x3d0955f8	0.03352925
120	0x3d0e11e8	0.034685045
121	0x3c98c5c8	0.018648997
122	0x3debb1d6	0.11508529
123	0xbcaecb80	-0.02133727
124	0xbf18086f	-0.5938787
125	0x3d16c80c	0.036811873
126	0x3ce61218	0.0280848
127	0x3de3c4a6	0.11121492
128	0x3d4c3e93	0.049864363
129	0xbcf968b2	-0.03044543
130	0xbc0236a0	-0.007947594
131	0xbd85e01b	-0.06536885
132	0xbd9c0dac	-0.07619795
133	0x3d546d7f	0.051862236
134	0xbc1b2550	-0.009469345
135	0xbda6ae66	-0.081387326
136	0xbdb068d4	-0.086137444
137	0x3ddf8edc	0.1091592
138	0xbe08912b	-0.13336627
139	0x3d3c0020	0.045898557
140	0x3db19145	0.08670286
141	0xbda88415	-0.08228318
142	0xbdb3f63a	-0.08787198
143	0xbde2f121	-0.11081148
144	0xbd3e3acc	-0.04644279
145	0xbdedba75	-0.116078295
146	0xbd1ade44	-0.037809625
147	0xbda846fe	-0.08216666
148	0xbc392ff0	-0.011302933
149	0x3d8eaec0	0.06966925
150	0x3c5d30db	0.013500418
151	0xbdcaa106	-0.09893994
152	0xbcc90828	-0.024540022
153	0x3963f000	0.00021737814
154	0xbdc686e7	-0.09693699
155	0x3cbfc280	0.023408175
156	0x3dacecfc	0.08443639
157	0x3d373808	0.04473117
158	0x3caa5d20	0.020796359
159	0xbe0d890b	-0.13821809
160	0xbdb53458	-0.088478744
161	0x3dc49f66	0.09600715
162	0xbdad53b9	-0.084632345
163	0x3d02fda0	0.031980157
164	0x3b0f7602	0.0021890406
165	0xbde44290	-0.11145508
166	0x3c8b9228	0.017037466
167	0xbd502504	-0.05081655
168	0xbd6496b0	-0.05580777
169	0xbd485e68	-0.048918158
170	0xbcab7d98	-0.020933911
171	0xbd9f2608	-0.07770926
172	0x3d414164	0.047181502
173	0xbd9e5948	-0.07731873
174	0x3bdf874c	0.0068215486
175	0x3c2593bc	0.010106023
176	0x3d20c934	0.039254382
177	0xbd9f79f2	-0.07786931
178	0x3cce736a	0.025201518
179	0xbd880e4f	-0.06643354
180	0xbda3d5b6	-0.079997465
181	0xbd6bfb58	-0.057612747
182	0x3dd5efe0	0.10446143
183	0x3ccbfd90	0.024901181
184	0x3d0058a0	0.03133452
185	0xbd920edc	-0.071317405
186	0x3ddd7908	0.108141005
187	0x3d1d1c8b	0.0383573
188	0xbe00e7be	-0.12588403
189	0xbd1e2cf0	-0.038617074
190	0xbdcc935a	-0.099890426
191	0xbd85a01a	-0.065246776
192	0x3c640ed0	0.013919547
193	0xbeab345d	-0.33438388
194	0xbde5fec5	-0.11230234
195	0xbcaf5c09	-0.02140619
196	0x3df72c4a	0.12068994
197	0x3d151707	0.036398914
198	0xbd80e2ac	-0.06293234
199	0x3df42412	0.11920942
200	0xbceb57b0	-0.028728336
201	0xbd47cc2c	-0.048778698
202	0xbe2d4e41	-0.16924383
203	0x3de11bca	0.109916285
204	0x3b7f7c8d	0.003898415
205	0xbdf05dda	-0.11736651
206	0x3c024930	0.00795202
207	0x3dc1a5c8	0.094554484
208	0x3d8e99ca	0.06962927
209	0xbd36daca	-0.044642247
210	0x3b562940	0.0032678396
211	0x3d03b2b0	0.03215283
212	0xbd8ce850	-0.068802476
213	0xbdb30eea	-0.08743079
214	0xbc36f3ca	-0.011166522
215	0xbc415a10	-0.011801258
216	0xbddd3bfc	-0.10802457
217	0x3cdc0b98	0.026860997
218	0x3de2e310	0.11078465
219	0xbdf9909c	-0.12185785
220	0xbe00b140	-0.12567616
221	0xbd2dd318	-0.042437643
222	0xbad3c204	-0.0016155844
223	0x3b8a3e76	0.0042188717
224	0x3a624700	0.00086317956
225	0xbde6cdcd	-0.11269722
226	0xbd8bfc2b	-0.068352066
227	0x3dc919ca	0.09819372
228	0xbdf033aa	-0.11728604
229	0xbc064630	-0.008195445
230	0x3dbe8aaa	0.09303792
231	0x3da1aa2d	0.078937866
232	0x3d465cb7	0.048428264
233	0x3dd17190	0.102267385
234	0x3cd3e728	0.02586706
235	0x3df955ce	0.12174569
236	0x3b887500	0.004164338
237	0x3d8586ac	0.06519827
238	0xbdafecdc	-0.08590099
239	0x3cb0b685	0.021571407
240	0x3c11df98	0.008903407
241	0xbd44011c	-0.04785262
242	0xbe739996	-0.23789057
243	0x3d7fed0d	0.06248193
244	0x3d90435a	0.07044096
245	0xbd95f53c	-0.07322165
246	0x3c568c50	0.013094977
247	0xbc8f4148	-0.017487183
248	0xbde90760	-0.1137836
249	0x3c68ae80	0.01420176
250	0x3da1d102	0.07901193
251	0xbdd3a51c	-0.103342265
252	0xbe5b5190	-0.21417832
253	0xbb16fd40	-0.0023039132
254	0x3d9b0e60	0.07571101
255	0xbdac37cc	-0.0840908

fc2.bias f4 [32]
0	0xbe0138cc	-0.12619323
1	0x3ec918ec	0.39276826
2	0x3da9ac2c	0.08284792
3	0xbda7d065	-0.08194045
4	0xbd84c4e7	-0.06482869
5	0xbe14b240	-0.14521122
6	0xbe238c35	-0.15971453
7	0xbd84aea3	-0.06478622
8	0xbdebb2bf	-0.115087025
9	0x3ef7aa0f	0.48371932
10	0x3f00e758	0.50353
11	0xbdcbdc87	-0.09954172
12	0x3e4f9d88	0.20274937
13	0xbe937679	-0.28801325
14	0xbcacc331	-0.021089168
15	0x3bdfb117	0.0068265307
16	0xbf2dfe08	-0.67965746
17	0xbe1097dc	-0.1412043
18	0xbdaaa638	-0.08332485
19	0xbe0a5a33	-0.13510971
20	0xbb2cb73e	-0.0026354338
21	0xbeaa24bb	-0.33231148
22	0x3f0e6a94	0.55631375
23	0xbda47181	-0.08029462
24	0x3d038df9	0.032117818
25	0x3ef0bd1c	0.4701928
26	0xbf0e41ce	-0.5556916
27	0xbd73314a	-0.059373178
28	0x3f164bf1	0.5870963
29	0xbd37f022	-0.044906743
30	0x3a869f82	0.0010270926
31	0x3ee37555	0.44425455

pi.weight f4 [1, 32]
0	0xbb44af6a	-0.0030011781
1	0x4046bff0	3.105465
2	0xbd85d976	-0.06535618
3	0xbe37f230	-0.17963481
4	0xbc9428bf	-0.018085836
5	0xbdf9c5a9	-0.12195904
6	0xbd65120c	-0.055925414
7	0x3d9eb717	0.07749765
8	0xc10d2055	-8.820394
9	0x407608b0	3.8442802
10	0x4048e96a	3.1392465
11	0xbcdf3ea3	-0.027251547
12	0xc0bd15bf	-5.9089046
13	0x4056487a	3.3481736
14	0xbb03881a	-0.0020070137
15	0x3c70cebe	0.014697729
16	0x3f3b8872	0.73255074
17	0xbde4b258	-0.11166829
18	0xbc9ae8b7	-0.018909795
19	0x3fbab51d	1.4586521
20	0xc0cd8032	-6.421899
21	0xc0ed392e	-7.41323
22	0x403c3404	2.9406748
23	0x3da9bd5c	0.082880706
24	0xc0da5d7c	-6.8239117
25	0x4042f376	3.0461097
26	0x3f3f27ca	0.7467009
27	0xbde295b8	-0.11063713
28	0x40240f08	2.5634174
29	0xbdf832ed	-0.12119088
30	0xbdbdcfa5	-0.09268121
31	0x4052ded9	3.2948515
