model/maddpg/20240809/agent_0_target_critic.pth (torch, 16084 bytes, 5 tensors)

fc1.weight f4 [64, 18]
000000 43 92 63 3e de 9b f9 ba b8 eb 2f 3d b8 5c fa bd
       0.22223763 -0.0019043644 0.04294941 -0.12224716
000010 80 6f 33 be 09 29 ce 3c 78 b5 53 3e b6 97 31 3e
       -0.17523003 0.025166051 0.20674694 0.1734303
000020 75 c8 4d be 9e 4b 3d be d6 d9 28 be cb 00 30 3e
       -0.20096 -0.18485877 -0.16489348 0.17187802
000030 e5 5c c2 3d 3e 00 96 bd bd 0a f3 3d f4 2c 1d be
       0.094903745 -0.07324265 0.118672825 -0.1534918
000040 28 0c 52 be 4d 87 01 be c1 a7 15 bf 25 e5 e0 be
       -0.2051245 -0.1264927 -0.584591 -0.43924823
000050 d4 8d 5d 3e 60 3c 76 bf 0e 3e 93 3e d5 e1 8b 3e
       0.21636134 -0.96185875 0.2875828 0.27320734
000060 6a 3b a2 bf 95 5f cb bf 72 d5 00 c0 bb 94 36 3d
       -1.2674382 -1.5888544 -2.0130277 0.044575434
000070 24 e9 81 3f cd 18 5b bf 14 b5 fd 3b d9 c1 86 bf
       1.0149274 -0.8558472 0.0077425335 -1.0527908
000080 d2 0d 13 bd c4 2b 8e 3d 6c 8b a3 3c 7d 6e 41 bc
       -0.035901852 0.069419414 0.019963942 -0.011806128
000090 7c cb 85 3e 40 75 ef 3d 55 26 63 be ef 97 3e 3f
       0.2613181 0.116922855 -0.22182591 0.7445058
0000a0 78 ae b9 3e 74 58 ba be 43 5d fe 3e f5 f2 c8 be
       0.36265922 -0.3639561 0.49680528 -0.39247862
0000b0 54 44 c3 3f 38 f2 27 3e c4 c7 a6 be c9 79 40 40
       1.5255227 0.16400993 -0.32574284 3.0074332
0000c0 9a 98 9d be 15 66 51 3f 11 6e 98 3d f4 19 32 3e
       -0.30780488 0.8179639 0.074428685 0.17392713
0000d0 27 cf 54 3d c8 19 eb 3e ac f9 9a 3d 6c 53 64 bd
       0.05195537 0.45918107 0.075671524 -0.05574362
0000e0 63 6a df bb c6 d6 74 bd 13 a2 8a bc 4c 5b 45 3e
       -0.006818102 -0.059775136 -0.016922986 0.19273108
0000f0 41 c7 b6 3d 97 77 9a 3d 32 24 ba 3c 76 db 74 be
       0.089247234 0.07542341 0.022722337 -0.23911843
000100 97 51 98 bd 55 f7 f3 3c bb bd 45 3e 0f 42 8f be
       -0.07437437 0.029781023 0.19310658 -0.27980086
000110 22 47 36 bc 12 c5 40 3d 58 13 19 be 93 17 86 bc
       -0.011125358 0.04706294 -0.14948785 -0.016368663
000120 23 cd b6 3e 75 83 b5 be d6 5b 21 be d0 aa 5f bf
       0.35703382 -0.35451856 -0.15757689 -0.87370014
000130 b2 50 50 3f 27 b6 ca be a5 cd 36 bf 11 a0 76 bf
       0.8137313 -0.39592096 -0.7140754 -0.9633799
000140 aa 64 b9 c0 c3 b9 0e bd 69 45 99 bf 20 a5 bc bf
       -5.793538 -0.034845125 -1.1974307 -1.4737892
000150 46 8f 27 be 3d 22 8a bf 4e 18 4e 3d 83 96 e7 3e
       -0.16363248 -1.0791699 0.050316148 0.4523202
000160 a4 74 96 bd 41 16 26 3d 26 c8 34 3e 44 a5 51 3e
       -0.07346466 0.040548567 0.17654476 0.204732
000170 d2 43 d6 be 24 c9 84 3e cf cf c2 3d c8 dc 06 bf
       -0.41848618 0.25934708 0.095122926 -0.52680635
000180 f2 d4 72 3e ab 47 81 be f0 0c 8e c0 95 cd 8c be
       0.23714045 -0.2524999 -4.4390793 -0.27500597
000190 ba 9b bf bf 63 c9 94 3c f8 85 8b be 6f 39 cd 3d
       -1.4969399 0.018162435 -0.27250648 0.1002072
0001a0 56 b5 9b 3c c8 6a ee 3d 24 23 ee 3c 24 c3 ea bd
       0.019007366 0.11641461 0.02906949 -0.11463001
0001b0 3e b8 3a 3e 92 33 79 3e 7f 48 96 bd ba c0 78 be
       0.18234345 0.24336079 -0.07338046 -0.2429227
0001c0 27 34 c0 bd 44 b7 1a 3e a5 00 61 be ba 09 b1 bc
       -0.09384947 0.15108973 -0.21972902 -0.021611083
0001d0 a6 ce 79 3c de 1f fd bd ac a4 a4 bb 39 51 23 bd
       0.015247023 -0.12359594 -0.005024513 -0.03987238
0001e0 fa 3d ba 3b 95 1b 6f be 1d 86 ad bc a8 bf 21 3e
       0.0056836577 -0.23350365 -0.021182114 0.15795767
0001f0 23 f6 0f be 11 af 33 3e 2e 92 fe 3d 51 34 fc 3d
       -0.14058737 0.17547251 0.12430225 0.12314666
000200 67 ff cd bd 63 a0 16 bf c1 4b bc be d7 5a 0b be
       -0.1005848 -0.5883848 -0.36776546 -0.13608871
000210 4b 97 d4 be d6 dc c6 3c d4 65 53 c0 69 9c aa 3d
       -0.41521677 0.024275225 -3.30309 0.08330614
000220 7c ff 12 be 1d 94 b3 bf b3 98 0a bc 2b b5 1b bf
       -0.14355272 -1.4029576 -0.008459258 -0.60823315
000230 12 7e 90 3d a8 bc 55 be 0b ea 1a bf 47 19 de bf
       0.07055296 -0.20872748 -0.6051337 -1.7351464
000240 e8 99 16 bf e5 21 75 bf a6 99 54 3f 55 3a 15 be
       -0.5882859 -0.95754844 0.8304695 -0.14573033
000250 0d 88 06 3f e2 95 c3 3e 6f 22 6b be 06 0f f7 3e
       0.52551347 0.3820029 -0.22962354 0.4825365
000260 d4 0d bf 3f 40 b9 5f 3e a6 7a 33 3e 82 f1 a2 3f
       1.4926095 0.21848011 0.17527255 1.2729952
000270 58 e5 f2 3e 72 1e 40 be 65 f7 41 bb 38 90 0a be
       0.474406 -0.18761614 -0.0029596922 -0.13531578
000280 9a 36 82 be da 52 a8 3e 5a 22 32 be b2 ad 26 3f
       -0.25432283 0.3287571 -0.17395917 0.6510879
000290 01 74 10 bf cc 9e 26 3f 63 fc 77 3e 77 4a 53 be
       -0.5642701 0.65086055 0.24217372 -0.20633875
0002a0 e9 9a 41 3f 9b f0 c6 be ae 4d ad 3f ab 8c 8e 3d
       0.75627 -0.38855442 1.3539331 0.06960424
0002b0 80 a8 88 3f 88 9b d0 be d2 4b e2 be 0e d9 51 3f
       1.0676422 -0.4074366 -0.4419847 0.81971824
0002c0 c5 54 33 be c0 0d cc 3e 79 d3 b8 3d f0 ed 91 bc
       -0.17512806 0.3985424 0.0902471 -0.017813653
0002d0 94 a5 f2 be 15 6a 92 3e 15 7d 46 be 58 b1 4e 3f
       -0.4739195 0.2859656 -0.19383653 0.80739355
0002e0 40 68 6f be 93 ad 89 be 0b 20 2e 3f 6f c8 49 c0
       -0.23379612 -0.2689024 0.68017644 -3.1528585
0002f0 8a 64 c4 40 24 f9 a8 3d 1b 2f 22 be 54 4a bd 3e
       6.137273 0.08250645 -0.15838282 0.3697077
000300 4a 48 05 be 3c 64 53 3f c9 58 51 3c 53 b9 59 bd
       -0.13015857 0.8257482 0.012777516 -0.053155255
000310 e9 48 21 be 32 10 fd 3d a6 f8 84 be ce f6 77 bf
       -0.1575047 0.12356605 -0.25970954 -0.9686097
000320 f0 3d c4 be 5e 88 c2 bf 1a dd b3 3d d5 24 04 bf
       -0.38328505 -1.5197866 0.08782406 -0.516187
000330 21 2f df bf 80 66 a8 be bf 0a 01 c0 86 a1 50 3e
       -1.7436258 -0.328907 -2.016281 0.20374116
000340 03 f4 2f be 86 dc 3b bf 19 74 a9 be e6 eb d9 bf
       -0.17182927 -0.7338337 -0.33096388 -1.7025115
000350 1e 67 94 3c 76 14 50 3d 74 23 50 bc 4a 89 d3 bc
       0.018115576 0.050800763 -0.012703765 -0.0258223
000360 9b 12 c8 3d 4c 0d 92 bd 73 b6 1d be 9a 91 77 bf
       0.09769174 -0.071314424 -0.1540163 -0.96706545
000370 59 5b 66 3e c4 3e 53 3e 38 34 93 bf 0d 4c 2c 3d
       0.22495784 0.20629412 -1.1500311 0.042064715
000380 79 43 b7 bf 9f a1 10 3e 63 9c 9f 3c 7f 9b 04 c0
       -1.4317466 0.14124154 0.01948375 -2.0719907
000390 80 3d 1c 3e 06 2e 74 bf 79 d9 b7 bd 6f d1 c1 bd
       0.15257835 -0.95382726 -0.089770265 -0.094637744
0003a0 e1 7e 74 be 8d 25 a8 bf 5a e7 20 be e3 56 85 3f
       -0.23876525 -1.313646 -0.15713254 1.0417141
0003b0 ea 99 91 be 91 0c 8a 3f 50 e6 e7 3e 6d 74 7a bd
       -0.2843774 1.0785085 0.45292902 -0.06114619
0003c0 2a 20 7d 3f e0 4e 51 be a9 a2 51 bf 09 bc 75 3e
       0.98877203 -0.20440245 -0.81888825 0.23997511
0003d0 78 be f4 3d ba 80 96 be df b2 40 be 29 21 84 3f
       0.119503915 -0.29395086 -0.18818234 1.032262
0003e0 f5 98 8d be fd e5 d8 be 97 2d 05 be 10 7e 99 bf
       -0.2765576 -0.42362967 -0.13005672 -1.1991596
0003f0 f1 0b 64 3d b2 c3 47 be 91 8c 66 3e 93 6d d9 3d
       0.05567545 -0.19508246 0.2251456 0.10616603

fc1.bias f4 [64]
000000 e8 4b 64 3c d4 df 15 3f 34 2b a6 be a3 f2 1a 3e
       0.013934113 0.5854466 -0.32454836 0.15131621
000010 11 c0 ed 3d 9b 5f c0 bc 0d 94 f9 3d b6 a0 83 be
       0.116088994 -0.023483088 0.121864416 -0.2570855
000020 fe 28 80 3f dd 9e 28 bf 6b 5b d0 be 86 12 81 3f
       1.001251 -0.65867406 -0.40694746 1.0083778
000030 6f 0d 81 3e e7 f8 52 bf 13 88 86 be d1 e7 29 3f
       0.25205562 -0.82411045 -0.2627569 0.6636935
000040 5d ae 57 3f 6f 14 54 3e ce c9 8f 3e 8d bc ac bc
       0.8425043 0.2071092 0.28083652 -0.021086002
000050 49 b0 22 be e3 b9 3e 3f 28 20 54 be 9a 14 37 be
       -0.1588756 0.7450239 -0.20715392 -0.17878953
000060 8c fb 50 3f a3 64 c8 be d8 ef 71 3f 39 8b 6a be
       0.8163383 -0.3913928 0.945066 -0.22904672
000070 7b b9 bb be a4 ff aa 3c 1e d6 4d bb c1 0d c3 bd
       -0.36664948 0.020873852 -0.0031408141 -0.09524108
000080 55 61 a1 bd f0 73 9b bd 54 fc d2 3e df ce 63 3e
       -0.07879893 -0.07590473 0.41208136 0.22246884
000090 4a b7 31 be 25 45 fb 3e 3a de a2 bc 02 8d 00 be
       -0.17355075 0.4907619 -0.019881357 -0.1255379
0000a0 f4 9e 23 3e fe 8d 69 3e 22 ec 34 3f de 41 2f 3f
       0.15978605 0.22808072 0.7067281 0.6845988
0000b0 79 6b 2b be 74 f5 0a bf 06 d6 e7 3e 6d e7 51 be
       -0.16740216 -0.5428078 0.45280474 -0.20498438
0000c0 4a 25 88 3d d6 4d 80 be 18 34 59 3f e0 d6 17 bf
       0.06647737 -0.25059384 0.84845114 -0.5931225
0000d0 43 86 05 be 1c 21 07 be 01 65 2c 3f ed 7f 27 bd
       -0.13039498 -0.13196224 0.6734162 -0.040893484
0000e0 da 80 94 be 20 3a 5b bd 60 de 92 3f 34 c1 52 bf
       -0.29004556 -0.05352223 1.1474113 -0.82326055
0000f0 ec 66 67 39 db e1 4c be cb e3 c1 bd ef 57 9c be
       0.00022068218 -0.20008032 -0.09467276 -0.30535838

fc2.weight f4 [32, 64]
000000 c0 33 89 bb e6 7f c3 3e af 6a 8f be 4d 0d ab bd
       -0.0041870773 0.38183516 -0.2801108 -0.08352146
000010 ba 28 30 3e 57 77 19 bf a2 4c b6 3d 57 12 15 bd
       0.17203036 -0.59947723 0.08901335 -0.036394443
000020 fb a8 56 3e 6f 8c 40 bf 32 b2 8c c0 ef 30 09 be
       0.20962898 -0.75214285 -4.3967524 -0.13397573
000030 fe 7b 03 3d a7 ec 8d bf 60 09 bd 3c ce d7 ce 3e
       0.03210067 -1.1087846 0.02307576 0.4039902
000040 38 cd 9f bd 38 41 e7 3d 79 68 f5 3f 40 02 ca bd
       -0.07802814 0.11291736 1.9172508 -0.098637104
000050 28 55 fc 3c 5a d9 03 3f c8 ec 1f 3d 74 e6 2e 3e
       0.030802324 0.5150353 0.03904417 0.17080098
000060 1a 04 40 3d a5 c6 f2 be d6 84 84 3f 2a e2 c7 be
       0.04687891 -0.4741718 1.0353038 -0.39039737
000070 fb 59 86 3d 13 a0 82 bf ac 4f 15 bf 4b c9 94 bf
       0.06560131 -1.0205101 -0.58324695 -1.162393
000080 a0 c6 62 bd 51 e9 bb be 91 e3 7d 3e a6 fd 86 3f
       -0.055365205 -0.36701444 0.24793841 1.0546157
000090 41 0f ab be 9b 1b 13 bf 71 1a 6c bf 20 02 5c be
       -0.33410075 -0.57464 -0.92227846 -0.21485186
0000a0 54 dd 2f 3c 79 95 e1 bf 66 e9 c0 3c c8 3c 6f 3e
       0.010733921 -1.762374 0.023548793 0.2336303
0000b0 dd bd ab bf 17 eb 4d be 48 fa 1e 3f 01 3b ab be
       -1.3417317 -0.20109211 0.6210065 -0.33443454
0000c0 8a 63 4d 3b 6f db 90 3e 71 97 ec be bb 0c d6 3a
       0.0031339847 0.28292415 -0.4620929 0.0016330698
0000d0 f0 e1 eb 3c b8 d0 94 bf bd 7f 60 be e1 47 b9 3b
       0.028794259 -1.1626196 -0.21923728 0.0056543206
0000e0 0d 85 2f be a5 32 e1 bb de 3f 40 3e 7d 10 a5 bd
       -0.17140599 -0.0068724924 0.18774363 -0.080597855
0000f0 79 44 a2 3e 39 39 67 3e ac 6b e1 3e e9 0c ab be
       0.31692865 0.22580422 0.4402746 -0.33408287
000100 b2 15 91 bd 4e 3e 2d bf 72 7f ad be 4d c7 e5 3c
       -0.07084216 -0.67673194 -0.33886296 0.028049136
000110 7d 3f f2 bf 48 22 63 3f 7b 15 87 bd b3 6b de bc
       -1.8925625 0.88724184 -0.06595894 -0.027150964
000120 7d 2a 09 bf 56 a5 2d 3e 0e ef 86 bd 46 ed f9 c0
       -0.53580457 0.16957602 -0.06588565 -7.810214
000130 35 23 28 3f 6f 1c 1b be 0e 86 33 3c 0b 2d 49 bf
       0.6567872 -0.15147565 0.010957254 -0.78584355
000140 c4 14 a9 be 40 f7 50 bd 45 4b 8f 3f 7b 40 5d bd
       -0.33023655 -0.051017046 1.1194845 -0.05401657
000150 64 b6 e3 3c 94 23 9e bf 30 3c 2f bc 73 67 8d bf
       0.027796932 -1.2354608 -0.010695502 -1.1047195
000160 15 ab 82 bd 01 29 6e 3e 9a e9 2c bf 8a 4a cd bd
       -0.063802876 0.23257829 -0.6754395 -0.10023983
000170 22 4c 24 3e 5f ff 12 be 8b 46 86 3f 75 1a 96 bf
       0.16044667 -0.14355229 1.0490278 -1.1726824
000180 a1 5d ac bc 2e 18 4a be 0e 13 42 c0 86 ef 20 c0
       -0.02104074 -0.19735786 -3.032413 -2.5146194
000190 a0 ae 11 3f ce b5 44 bf 7c 92 3a be db ac ad be
       0.5690708 -0.7683991 -0.18219942 -0.3392094
0001a0 99 fa 32 bd 5c 23 d9 bf 83 95 50 40 c3 7d 57 c0
       -0.04369602 -1.6963916 3.2591255 -3.367051
0001b0 8d 1b 1c be 57 19 57 be 24 e2 64 3f c1 a9 b9 3e
       -0.15244885 -0.2100576 0.89407563 0.36262324
0001c0 a3 90 d9 be e8 7c d0 be 60 fc a4 bd 32 bf a4 3d
       -0.42493162 -0.40720296 -0.08055949 0.0804428
0001d0 68 96 b5 3d 03 4f 09 c0 2b 70 06 40 84 a8 ea bd
       0.08866578 -2.1454475 2.1005962 -0.11457923
0001e0 49 20 e1 3b 9c df 9c 3e 42 50 d2 3f 7d 35 d5 bd
       0.006870304 0.3063935 1.6430743 -0.10410593
0001f0 1e 07 fe bf 39 0c 3b be 56 81 f6 bf ce e9 72 bd
       -1.9845922 -0.18266381 -1.925822 -0.059305005
000200 14 0f e0 3d 21 d9 26 bd 9a 0f 3c be 80 ee 04 3b
       0.10940376 -0.040734414 -0.18365327 0.0020283759
000210 eb 98 ce bd 2d e0 b1 3c 1c be df bd dc e0 61 bd
       -0.100877605 0.02171334 -0.10924932 -0.055146083
000220 47 c3 0a be 28 19 2a 3d ef 04 c8 bd 57 0e 05 be
       -0.13551055 0.041527897 -0.09766566 -0.12993751
000230 8e f9 ff bd 02 df b1 bd ec ad 99 bd 1d ab ab bc
       -0.12498771 -0.086851135 -0.07503876 -0.020955617
000240 d0 a4 a3 3d ca e1 d1 bd f1 3f ac bd 7c 55 e5 3d
       0.0799042 -0.10248144 -0.08410633 0.111979455
000250 50 22 11 3d a2 8e c1 3c 98 6f a2 3c bc f4 d9 bc
       0.035433114 0.023627583 0.019828603 -0.026605956
000260 e7 76 91 3b 28 82 25 3d 53 ba 87 bd dc 6a b7 bd
       0.004439223 0.04040733 -0.066273354 -0.08955929
000270 01 13 61 bd 32 b8 8b bd d7 ee 9c 3c 3b 9c d5 3b
       -0.054949764 -0.06822242 0.019156856 0.0065188683
000280 a4 9f 7d bd d7 03 8d bd b3 5f c7 bd 3e 2e f8 bc
       -0.061919823 -0.06885498 -0.0973505 -0.030295487
000290 2a 86 f5 bc 7b fc 86 bd cf 49 15 3d 22 48 3a be
       -0.029971201 -0.065911256 0.036447342 -0.18191579
0002a0 3d cd ea bd 3e e6 99 3d 2e a4 a3 bd ec 61 d6 bd
       -0.11464927 0.07514618 -0.07990299 -0.10467896
0002b0 ae 29 85 3d bf 70 88 bd 60 dc 1a be 73 99 0d bd
       0.065020904 -0.066621296 -0.15123129 -0.03457017
0002c0 70 ea 5a bd 78 46 01 be db c1 49 bd 7a 06 bd bb
       -0.053446233 -0.12624538 -0.04925714 -0.0057685943
0002d0 a6 35 bf 3d bb 01 03 be e1 37 2b bd ff 7f d3 3d
       0.093364045 -0.12793629 -0.041801337 0.10327148
0002e0 c2 f7 80 bc 20 bf 61 bc e4 7f 2a 3d 05 ff 26 be
       -0.01574314 -0.013778478 0.041625872 -0.1630822
0002f0 9c bb 7b 3d d8 f1 68 3d 37 55 01 be b3 b6 05 be
       0.061458215 0.056871265 -0.12630163 -0.13057975
000300 a8 66 ee bc bc f5 03 40 fd 9d ad 3d 49 ef bd 3d
       -0.029101685 2.0618734 0.084773995 0.09274156
000310 98 43 82 3f 1a 12 2f 3e 4d 95 be 3d e7 4a 10 3e
       1.0176878 0.17096749 0.093058206 0.14091073
000320 a6 6c 4b bf d3 2c 61 3e c9 f5 ab bf 55 ea 33 3e
       -0.7946266 0.21989755 -1.3434383 0.1756986
000330 77 9c 4b 3e 29 da 14 3f 20 a9 95 3d f4 ea da 3d
       0.19883905 0.58145386 0.07307649 0.10689345
000340 80 1c a2 3f 88 a5 29 bd fd c2 6f c0 d3 19 4f 3d
       1.2664948 -0.04141763 -3.7462761 0.050561737
000350 d8 23 69 3d 0f 75 c3 3f d3 27 95 3d a9 47 35 c0
       0.05691895 1.5270098 0.072829865 -2.8324988
000360 a6 bc c0 be 61 c1 2b bd fc 2b 98 3a 88 1c eb bd
       -0.37643927 -0.041932467 0.0011609788 -0.11480051
000370 0f af 18 3f 22 ff ab 3d 06 95 40 bf 03 9c d8 3f
       0.5964212 0.08398272 -0.7522739 1.6922611
000380 c0 c3 92 bc a1 72 35 be 0d ca 27 3e c1 ad b4 bf
       -0.017915606 -0.17719509 0.1638567 -1.4115525
000390 e0 5b af be 47 90 30 bd b4 0e 9d be 47 bc 0d bf
       -0.34249783 -0.043106344 -0.3067528 -0.55365413
0003a0 0a a9 b7 3d 61 11 30 c0 fa 80 ff bd e0 da 0a 40
       0.089677885 -2.7510607 -0.12475772 2.169609
0003b0 96 b6 36 bf c0 9c 66 3e 31 4f 77 bf 78 c7 8a 3d
       -0.71372354 0.22520733 -0.9660521 0.06776327
0003c0 70 21 a0 3f 74 62 eb 3e 93 de 79 be 2e 19 10 bf
       1.2510204 0.4597355 -0.24401312 -0.5628842
0003d0 c9 08 a7 3d 27 9d 93 c0 b3 1b 98 bf d0 db de 3c
       0.081559725 -4.6129336 -1.1883453 0.027204424
0003e0 d1 65 94 be 52 83 8c 3e 8b b6 d4 bf 10 a4 67 3e
       -0.2898393 0.2744394 -1.6618208 0.22621179
0003f0 8d 38 69 3f 9a d6 b8 3d 4b ee 12 bf 6a 4e 00 bf
       0.91101915 0.09025307 -0.57394856 -0.5011965

fc2.bias f4 [32]
000000 48 cb aa 3e 53 f1 fa be 3f 69 03 bc 5f dd 9a 3e
       0.33358216 -0.4901224 -0.008020698 0.30247018
000010 e0 0c 2e 3d db bb 8a bd 81 fb 3f 3e 33 0e 38 3f
       0.042492747 -0.06774112 0.18748285 0.71896666
000020 17 9d 5a 3e 3d 58 83 3f e4 73 93 bd 12 cf b6 bd
       0.21348988 1.0261303 -0.07199839 -0.08926214
000030 55 34 8a 3f 2a 67 dd bd 1d 0a 81 3d 63 fb 09 3f
       1.079722 -0.108106926 0.06300757 0.5389921
000040 e7 a4 da 3d 30 81 de bd f6 05 df bd eb 7a 93 39
       0.10675984 -0.10864484 -0.10889809 0.00028129606
000050 6a 00 84 3d 02 5f 3e be 91 74 91 3f 18 1f 83 3f
       0.064453915 -0.1859093 1.1363698 1.0243864
000060 b5 bd fa 3e f3 ee c5 bd 0f 8f 34 3f 99 68 32 3e
       0.4897286 -0.096647166 0.7053079 0.17422713
000070 e3 bd 02 3f f3 0b 16 3e b7 65 91 bd d6 40 07 3f
       0.51070994 0.14652996 -0.07099479 0.52833307

q.weight f4 [1, 32]
000000 4f 23 01 c0 6f 0a 12 c1 81 e7 fa bc 8a 3a 08 c0
       -2.01778 -9.127547 -0.030627968 -2.128573
000010 c4 18 6a bf 13 46 11 3d 41 95 36 bf 91 9a 00 c1
       -0.9144404 0.03546722 -0.71321493 -8.037736
000020 2e 18 8a c1 80 b6 a2 c0 c2 41 46 bd 05 49 e3 3b
       -17.261806 -5.084778 -0.048402555 0.006936195
000030 95 03 1d c1 e0 6f 93 c0 d6 7f 09 bf d8 11 8c 3f
       -9.8133745 -4.6074066 -0.5371069 1.0942945
000040 24 4c 23 bf df 33 9b bf b8 67 ba c0 5d 63 f8 3a
       -0.63788056 -1.2125205 -5.825161 0.0018950511
000050 f4 e3 24 bd 55 f1 34 bf 01 30 bc c0 87 fd b9 c0
       -0.040256456 -0.70680743 -5.88086 -5.812198
000060 03 7d 92 c0 fd 13 73 3d 50 3d 8a c0 5f df 9f 3f
       -4.57776 0.059345234 -4.3199844 1.2490042
000070 bf 2e 58 c0 33 ba 93 bf 25 77 b9 3f aa d7 cf bf
       -3.3778532 -1.1541198 1.4489485 -1.623769
