model/maddpg/20240809/agent_2_target_critic.pth (torch, 16084 bytes, 5 tensors)

fc1.weight f4 [64, 18]
00000000: afa6 603d aa3b b4be b979 27bd 5773 40be
00000010: 23fe 0b3e ec16 ee3d 903a 5a3e a581 58be
00000020: 4159 03be a699 a03d 2587 f3bd 8419 20bf
00000030: 3b05 4c3e abbf 8d3e 1f87 963c fb76 563f
00000040: 9469 e23e ebad 783f da07 b63b 7ce0 933e
00000050: 480a 143f 817e 26bf d452 12bf 01a6 ee3e
00000060: 4f8a 84bf 836e 4abe db27 52c0 27f7 5e3f
00000070: de2f 4bbf 12d7 7dbe 73bc c33e 4ae7 36bf
00000080: d9a1 6d3d c1fe b33e 3392 c9bd a221 f6be
00000090: 513c b03d 6431 143e a825 6d3e ef40 e53d
000000a0: cccb 9e3d 5214 6f3e 9699 f23d 9621 0b3d
000000b0: 3399 e9bb 4a5a 4a3c 55c3 2bbe a88b 59be
000000c0: 3837 e23d 7e3c c5bd 5869 c33d 6700 b03d
000000d0: 9a7d 3c3e 299e 283c 7d71 4fbe 492c 3cbe
000000e0: da89 d1be 0cfe 8b3a 306f e63d 435a 94be
000000f0: 831e adbd a2da 353f 9b3a 7ec0 af3b 2cbe
00000100: 5693 dbbe 2bbf 423f 7958 03bd 158d 253e
00000110: 02cc c4bd 0837 753e 5650 7abf 6d56 0e3e
00000120: 0449 75be 44b6 e3be 82aa 03be 81b1 cdbd
00000130: 87b7 683e 4918 f8bb e61a 093e c50c 1bbe
00000140: 40ab 14be 8394 2abf dee3 403e 51e0 bbbe
00000150: 919e 9cbe b963 c53d 4560 b0bc 95ec 623e
00000160: faaa c5bf 0bae ae3e 703b 98bb 19be 7a3e
00000170: 4143 163f c9ac 42bf a160 913e 55fe 173f
00000180: 5a96 8bbf d067 3d40 073d 37c0 bc47 473f
00000190: aec3 913e b540 393f 77d0 fa3e 2f1d 6abf
000001a0: ebd7 a53c 4b19 20bd b2b0 c6bd 5319 74be
000001b0: edb3 b33e 646c 3bbf cb6b afbd f7ed 43bf
000001c0: a8d1 fa3e f1ee 07bd 1a3d 58bf 71a5 b5bf
000001d0: 9bf0 1abf db55 fa3c d082 883d e472 25c0
000001e0: 7b18 8ebe ccb7 1bbf d53f ffbd ac50 08be
000001f0: b722 183f ce70 13bf a662 1b3f 8ee3 c3bd
00000200: b0fb d7bd f935 6cbe 23ae 0d3f 36d9 acbe
00000210: ef29 abbd 1927 2ec0 e6bd 1f40 2b09 1c3f
00000220: 919b 63bf 2235 673f 05a9 17be e40a 83be
00000230: c6d9 d3bc 1878 a73e 55ae e23e e4ed d4bc
00000240: 343d d1be cc5e aabe 5613 423d ec30 8d3e
00000250: 4f9b f93e 88cb 13be c0e4 0a3f 645c 40bf
00000260: 8e85 f83e 0d38 213e c7ce 1ebc 7a8c d8be
00000270: ef0c da3d da3a 013e 3ffb 9abe 34e4 3dbf
00000280: 0ef8 393f d8b7 a4bf db6f 69be 3424 1fbf
00000290: 8411 d03e c67d d7bb 33ea f93e 4e76 883e
000002a0: c605 2b3e 25ca 52be 4f97 0ebe ee79 0f3e
000002b0: 0091 493f 33bf 37bf fa84 cc3e d66d 653c
000002c0: 5689 01be e4c2 1d3f 6b28 cebc 252a e4be
000002d0: 496a dd3e 30e1 823d bef3 12bf e22f 76be
000002e0: 0a90 1fbf f8a8 4dbf 1b38 a3be c20b 1fbf
000002f0: bd5d 26bf 81d0 15be 7b49 e7bf 5934 47bf
00000300: b26a 67bf 77ef 3fbe 4d3c 1d3e 9b97 003f
00000310: d4ea dabe 858c 233e c059 503e cb19 573e
00000320: 2bb8 6e3e 2607 3b3c e621 923c 310a a63c
00000330: 7ac7 f2bd 51bb 883c 96a5 f13d cde7 ea3d
00000340: f971 56be 8262 723d aa71 9e3d a6f3 123e
00000350: 14d1 ac3c f267 6d3c 8f64 7c3d ade5 8a3d
00000360: 24a3 e43e 80d4 dcbd ea00 7dbd 3dc7 40bc
00000370: 79cc b03d af52 27bc b5c4 cebd e4b3 5a3f
00000380: c337 e83f 81bb f5bc ef51 2abf 3605 b73f
00000390: 4b56 1bbe 3038 d03d 39eb 963b 71ff b53e
000003a0: a6f1 c83e bb26 b23d cee6 b4be 34cd 0cbf
000003b0: ab4c d8bd 7b47 86bf 2d0a d53b abfb bcbe
000003c0: 3045 84bf e9e8 6abd 5a2f 04bf 682a 983e
000003d0: 077d c7bd 7aa0 1ebe bff2 43bb 11dd 94bf
000003e0: af03 14bc 685e 12bc 31ed febd 112f 44bd
000003f0: ebb7 003e 0a71 64bb f101 4fbe aa63 d9be
0.05484646 -0.3520177 -0.04088757 -0.18793999 0.13671164 0.11625466 0.21311402 -0.21143205
-0.12827016 0.07841806 -0.11891011 -0.62538934 0.1992387 0.27685294 0.018374978 0.837753
0.44221175 0.9714038 0.005555135 0.28882205 0.5782819 -0.6503678 -0.57157636 0.46611026
-1.0354708 -0.1976872 -3.2836826 0.87095875 -0.79369915 -0.24789074 0.38229713 -0.7144667
0.058015678 0.351553 -0.098423384 -0.48072535 0.086052544 0.14471966 0.23158896 0.11194026
0.07753715 0.23347595 0.118457004 0.033967577 -0.0071288585 0.012350628 -0.16773732 -0.21244681
0.110456884 -0.096306786 0.09541577 0.08593827 0.18407288 0.010291615 -0.20258136 -0.18376268
-0.40925485 0.001068057 0.11251676 -0.28975114 -0.08453085 0.7103673 -3.972327 -0.16819642
-0.42885846 0.7607295 -0.032066796 0.161671 -0.09609224 0.23946774 -0.9777883 0.13900156
-0.23953635 -0.44474995 -0.12858012 -0.10043622 0.2272626 -0.0075712544 0.13389167 -0.1514159
-0.14518452 -0.6663286 0.18836924 -0.36694577 -0.30589727 0.09638161 -0.02153028 0.22160561
-1.5442803 0.3411716 -0.0046457574 0.24486579 0.5869637 -0.760449 0.28394035 0.59372455
-1.0905259 2.9594612 -2.8630998 0.7784383 0.28469604 0.7236436 0.4898717 -0.9145078
0.02024456 -0.03908662 -0.09701671 -0.23837785 0.3509821 -0.73212266 -0.08565482 -0.7653498
0.4898808 -0.033186857 -0.84468234 -1.4191114 -0.60523385 0.030558517 0.066655755 -2.5851374
-0.27753052 -0.60827327 -0.12463347 -0.13312024 0.5942797 -0.57594 0.606974 -0.09564887
-0.105460525 -0.23067464 0.55343837 -0.3375947 -0.083576076 -2.7211363 2.4959655 0.6095149
-0.8890925 0.9031545 -0.1481057 -0.25594246 -0.025860678 0.32708812 0.4427363 -0.025992341
-0.40867007 -0.3327545 0.04738172 0.27576387 0.48751304 -0.1443311 0.54255295 -0.75140977
0.48539394 0.15744038 -0.009692854 -0.42294675 0.10646998 0.12620106 -0.3026981 -0.74176335
0.72644126 -1.2868605 -0.22796576 -0.62164617 0.40638363 -0.0065762727 0.48811492 0.2665276
0.16701421 -0.20584925 -0.13924907 0.14011356 0.7873688 -0.7177612 0.39945203 0.014003238
-0.12650046 0.61625504 -0.025165757 -0.44563404 0.43245152 0.06390607 -0.5740317 -0.24041703
-0.6232916 -0.8033595 -0.31878743 -0.62127316 -0.64986783 -0.14630319 -1.80693 -0.7781425
-0.9039718 -0.18743692 0.15355034 0.5023133 -0.42757285 0.15971573 0.20346737 0.21005933
0.23312442 0.011415279 0.01783843 0.020268532 -0.118544534 0.016690882 0.11799161 0.11469994
-0.20941915 0.059175976 0.077365234 0.14350757 0.02109579 0.0144901145 0.061619338 0.067820884
0.44655716 -0.10782719 -0.06176845 -0.011766252 0.0863275 -0.010212584 -0.10096113 0.8543074
1.8142017 -0.029996635 -0.6653127 1.4298465 -0.15169637 0.10166967 0.0046056774 0.3554645
0.39246863 0.086987935 -0.3533234 -0.55000615 -0.10561498 -1.0490564 0.006501457 -0.36910757
-1.0333614 -0.057351027 -0.5163475 0.29719853 -0.09740644 -0.15490904 -0.0029899327 -1.1629964
-0.009034081 -0.008933641 -0.124475844 -0.04789645 0.12570159 -0.0034857416 -0.20215584 -0.4245885

fc1.bias f4 [64]
00000000: 7638 c43e 8fc4 4cbd 0b64 eebd 596a d63e
00000010: f39c ab3e 1b7b 98be c02f cc3e 8cd4 2f3d
00000020: 4960 d53e c353 203f 10e5 54be a999 14be
00000030: 555a 3d3e 948c 233f 70bd 843e c2bb 62be
00000040: 9b95 99bd 972b 773d ffbb 40bd f760 00bf
00000050: 8725 78bd f3f7 5f3d 2dbc b73e 9bb3 b9bd
00000060: 9595 a3be 0f01 fdbe 0a5f 8a3f 1542 d23d
00000070: b0ac b23f b923 20be 3c86 9e3f 95b7 fe3e
00000080: 6b55 0bbe 7ae0 3abe 4c02 98bd 1e10 883e
00000090: 9365 bf3e a741 b1bd 2aa3 183e 49e1 c73e
000000a0: 9af1 09bf d94e c83f e93b 01be c865 813f
000000b0: cc02 9abd b307 163f 9762 913e 78c9 3bbf
000000c0: 5fd7 4bbf d06d 06be b180 01bf 3ce1 0d3f
000000d0: a746 253f 493f dcbd 433d fd3e 3481 1a3e
000000e0: 6d8f 23bf bae6 9cbe cc3d 3b3f 9539 eebe
000000f0: b800 a83e 25b0 a3bd 5490 bc3e c425 30be
0.38324326 -0.04999214 -0.116401754 0.41878012 0.3351818 -0.29781422 0.3988018 0.04292731
0.41675022 0.6262781 -0.20790505 -0.14511742 0.1849149 0.6388638 0.2592578 -0.22141936
-0.07499238 0.060344305 -0.047054287 -0.50147957 -0.060582664 0.054679822 0.35885754 -0.0906746
-0.3195006 -0.4941487 1.0810254 0.102665104 1.395895 -0.15638627 1.2384715 0.49749437
-0.13606803 -0.18249694 -0.07422313 0.26574796 0.37382182 -0.086551 0.14905992 0.39039066
-0.5388428 1.5649062 -0.1262051 1.0109186 -0.07520065 0.586055 0.2839553 -0.7335429
-0.79625505 -0.13127828 -0.5058699 0.55421805 0.6456093 -0.10754258 0.494608 0.1508835
-0.63890725 -0.3064478 0.7314117 -0.46528307 0.32813048 -0.07992581 0.36828864 -0.17201906

fc2.weight f4 [32, 64]
00000000: 4aab c4bd 0bd1 1a3c 2a4f 963d bcef debd
00000010: 583e 2f3d b17b a1bd 6d90 373d 0c6e 5ebd
00000020: faab 70bd 5bb9 c03c 98f6 623d 807e bbbc
00000030: 4da6 b73d 1445 ff3c f208 31bc e44e 15bd
00000040: 8325 d23d 23e1 06be fc87 f6bd 38dd ad3d
00000050: cdf9 27bd 4430 a43d 1707 9a3d 8a23 84bd
00000060: 396c ebbd 1104 aabc 04fc 9abd a9bc eebd
00000070: e1cc 67bd b8a4 0fbd 4b6e 86bd a0eb 5bbc
00000080: be9b f9bd c5b4 e9bd 7dd5 b23b 62b2 3abc
00000090: 10b3 11bd 1151 b23d 6461 94bd abaa 8abd
000000a0: 1b17 c1bd 82cd 92bd c829 2e3d 08ec a4bd
000000b0: fbdc 9e3c eb77 47bc 4a2c e5bd 535e 0ebe
000000c0: dc47 15bd cc57 a93b 26fb 3cbd 9ea0 f3bc
000000d0: 4736 553b bb9c 573d f8f7 afbd b1b3 b93c
000000e0: 7d1d a7bd 034d 41bd 13d1 573d bc19 d8bb
000000f0: 7a32 bebb 7438 6b3d e822 1fbe 3c01 1abe
00000100: e0f6 e03d d926 f53e a0b5 133c 0302 9abe
00000110: ceef f1c0 c803 533e 3eb8 7abe 60fa 15be
00000120: 9adb 4cbe b7ac c1be f85a d83d 727a d33d
00000130: 4ce4 dc3e 3bd8 0bc0 5ccb 563d f2d3 aebd
00000140: 77cc 03be c856 1ac0 10a0 96bc 12fa 4cbd
00000150: a6cd 353f 0b1e 8a3d 22fd a0bd 5549 f7bf
00000160: 94c6 9fbd ce1c f73e 35f6 fb3e be7e b5bf
00000170: 0f81 11c0 90c7 bd3c fa0d 82bf a1a0 be3f
00000180: 803a abbc 495a e8bd a201 8cbe 1adb b13e
00000190: 980c 5740 1e64 3b3e 62c5 bb3e 39bc 3fbf
000001a0: b26a c13d 486c e5bf 13ad 043f 2154 f83d
000001b0: 16e5 8e3e d879 a33f 4f1e 16bf 5a6a 703e
000001c0: 0b4e db3e c957 b7bf 8b03 443e 6d12 b33f
000001d0: 0921 2440 baf7 cc3e 78d0 53bf 0f76 17bf
000001e0: d2a1 f03e 6587 efbe 7a63 babe 971a 9d3e
000001f0: 4383 523f 0702 0cbd cb2b 8fbf 32ee 82bc
00000200: 0b4a ce3e 6dec b03d ecd9 033d 11f3 b13e
00000210: 8beb a13e a541 433f 8370 52bf eee4 9d3f
00000220: 4323 8abe 9ed7 a13e 9143 103f 2cb8 c73d
00000230: 2a96 903e 3c1a 22bf 0081 6f40 e414 483d
00000240: 261d b0bf 977c 95be c0a6 19bc 0d3e 643e
00000250: 36e5 073f 99d7 95be 6ee8 fbbe 0d32 a63e
00000260: 17ef dd3d 4f30 eabe e9a8 5a3f 0150 843f
00000270: 92ff e7be a7a1 8d3d 906d 653e b17a 723d
00000280: 6d66 a5bc 8e54 8e3b ef31 8d3d b456 78be
00000290: 6fa4 fbbe 52bd abbd d993 61bf fcb2 85be
000002a0: 5a49 47c0 f5b4 a03f ef93 9bbd aabe 32bf
000002b0: 0eee f0bd d183 0240 9a7e f63c 2414 3ebf
000002c0: 7dbe e8c0 b1f9 93bf 3e21 3ec1 a178 46bf
000002d0: e3ab 0f3f 1fc6 dbbe 631a b63e 35ee ff3d
000002e0: f26c af3f 9c08 ab3f 6e3d d6bf 3e1b b8bf
000002f0: a5c2 2c3e 53bf 02be 837e 7cbe b253 a0bf
00000300: 60dd 9ebf 5bb1 923e ce5c f33d 8da3 2cc0
00000310: 01f4 7a3d e554 edbe 4466 1bbf c4c2 96bf
00000320: e3ba 43bf 32c7 fcbf c689 c5bf 3041 723c
00000330: caf7 063f 3855 5a40 2a78 883c 4850 91bc
00000340: edd1 6a3f fcd5 db3e 40b3 62bd 8af9 8d3f
00000350: 79ea 303f 6250 023c 3c78 dbbe 8810 94bf
00000360: 891c ebbd 7674 013e 85c1 2abe 14d3 9f3c
00000370: 668f 36bf 6433 413d 9f64 d63e e00a e63d
00000380: f0d2 fb3c 2e79 fa3d 8d73 b4bf 14df 5dbe
00000390: 7c6b 1ac0 d6b6 843e 7e2a 023f a6c3 ffbe
000003a0: ab68 153b cca4 18bf 6a66 cc3f 559d e9bf
000003b0: 2ece 0d3e 61f8 3fbf 3d30 a7bf 0079 a93e
000003c0: 4efc 8a3f b103 b53f 2bff 973f 4a18 b3bf
000003d0: 5881 28c0 906a 9bbf 294a ffc0 9545 a8be
000003e0: 844f 643f 5cf3 2040 0146 a5bf 375e ccbe
000003f0: a4be 6b3f cc37 a9bd d1fe adbf 1a07 33be
-0.09602983 0.009449254 0.07339318 -0.108855695 0.042784065 -0.078849204 0.04481547 -0.054304168
-0.05875776 0.023525884 0.05541095 -0.022887468 0.08967266 0.031160869 -0.010805355 -0.03645219
0.10261061 -0.1317182 -0.12037656 0.0848946 -0.041009713 0.080170184 0.075208835 -0.06452091
-0.11495251 -0.020753892 -0.075675994 -0.11657078 -0.056591872 -0.035069197 -0.065640055 -0.013422877
-0.121879086 -0.11411432 0.0054575787 -0.011395069 -0.035571158 0.087068684 -0.07245138 -0.067708336
-0.09428235 -0.07168104 0.042520314 -0.08052832 0.019392481 -0.012174587 -0.11190088 -0.1390317
-0.036445484 0.005167937 -0.04613795 -0.029739674 0.0032533573 0.052639704 -0.08592218 0.022668691
-0.08159921 -0.047192585 0.052689623 -0.0065948647 -0.005804357 0.057426885 -0.1554066 -0.15039533
0.10984588 0.478812 0.009015471 -0.3007966 -7.560523 0.20606911 -0.24484345 -0.14646292
-0.20005646 -0.37827083 0.10564226 0.10326089 0.43142927 -2.1850727 0.052440032 -0.08536519
-0.12870966 -2.4115467 -0.01838687 -0.050043173 0.7101692 0.067440115 -0.07860781 -1.9319254
-0.07801548 0.48264164 0.4921128 -1.4179304 -2.273502 0.023166448 -1.0160515 1.489277
-0.020901918 -0.113453455 -0.27344996 0.34737474 3.3601437 0.1829991 0.3667403 -0.7489658
0.09444179 -1.792367 0.5182659 0.12125421 0.27909154 1.2771559 -0.5864 0.2347807
0.4283298 -1.4323665 0.19141977 1.3989998 2.5645163 0.4003275 -0.82739973 -0.5916452
0.4699846 -0.46782985 -0.3640402 0.3068435 0.8223154 -0.03418162 -1.118524 -0.015982721
0.40290865 0.08638845 0.03219025 0.34755757 0.31625018 0.7627204 -0.8220293 1.2335489
-0.26980028 0.31609815 0.563531 0.09751925 0.28239566 -0.6332128 3.7422485 0.048848048
-1.3758895 -0.29196617 -0.009378135 0.22289295 0.53084123 -0.2926605 -0.49200767 0.3246006
0.108366184 -0.45739982 0.85413986 1.0336915 -0.45312172 0.06915598 0.22405076 0.05919904
-0.020190442 0.004343576 0.0689429 -0.24251825 -0.4914889 -0.08385719 -0.8811622 -0.26113117
-3.113852 1.2555224 -0.075965755 -0.6982218 -0.11764155 2.0392954 0.030089665 -0.7424948
-7.273253 -1.1560575 -11.883116 -0.77527815 0.56121653 -0.42924592 0.35567006 0.12496606
1.3705122 1.3362002 -1.6737497 -1.4383314 0.16871126 -0.12768297 -0.24657635 -1.2525542
-1.2411308 0.28650936 0.118829355 -2.6974823 0.061267857 -0.46353832 -0.6070292 -1.1778188
-0.7645704 -1.974829 -1.543267 0.01478605 0.52721846 3.4114513 0.016658861 -0.017738476
0.9172657 0.42936695 -0.055346727 1.1091778 0.69107777 0.007953735 -0.4286517 -1.1567545
-0.11480052 0.12642083 -0.16675384 0.01950983 -0.7131256 0.04716815 0.41873643 0.11232543
0.030740231 0.122301444 -1.4097763 -0.21667129 -2.4128103 0.25920743 0.5084609 -0.49953955
0.0022797983 -0.5962646 1.5968754 -1.8251139 0.13848183 -0.7498837 -1.3061596 0.33100128
1.0858247 1.4141752 1.1874746 -1.3991787 -2.6328945 -1.2141895 -7.9778028 -0.32865587
0.8918383 2.5148535 -1.2911988 -0.3991563 0.9208777 -0.082625955 -1.3593389 -0.17483178

fc2.bias f4 [32]
00000000: f170 28bd c720 8abe 8342 0cbe efe5 08bf
00000010: 8206 96bc 07d0 a0bd 2a5a 4dbd 982f 2e3f
00000020: 67a2 003c a8a8 29be db73 673d dc74 1abf
00000030: 7c6f 2a3d 9e71 bc3c ef78 323e 5fd0 83be
00000040: c715 d03c 4e65 b8bd d7b5 35bf d171 b03e
00000050: 692d 6e3e e6fe 47be cca5 c63e 8bd9 0abe
00000060: 2129 bb3c 5f96 95be e182 043f 85fd 20bf
00000070: 78af 3f3f 68e7 013e d59c d33e 2b0a d23c
-0.041123334 -0.26978132 -0.13697247 -0.5347585 -0.01831365 -0.07852178 -0.050134815 0.6804137
0.00785122 -0.16568244 0.056506973 -0.60334563 0.041610226 0.023003396 0.17428945 -0.25744912
0.02540101 -0.09003697 -0.7098059 0.34461835 0.2325951 -0.1953083 0.38798368 -0.13559549
0.02284676 -0.29216287 0.51762205 -0.6288684 0.7487712 0.1268593 0.4133059 0.025639614

q.weight f4 [1, 32]
00000000: dec4 c73d 431c 9f40 d943 8540 9ec0 7640
00000010: 7537 2040 d552 aa3f b8b7 1441 6c20 3dc0
00000020: fc48 663e 4d51 e83f 5a54 1b40 d316 5c40
00000030: e9c3 323d 8637 cf40 b210 84c0 2db1 3d40
00000040: 1070 d8bc e323 b93f 1d60 c740 fbdf e3bf
00000050: a0b8 61c0 861f 3840 f9d1 60bf 8fa8 993e
00000060: d81d aa3d cce8 2e3f fa70 84c0 32d5 8240
00000070: 3f3f 24c0 4e18 f3bf a6a7 f7bf 01a3 fb3d
0.09754346 4.9722 4.164532 3.8555064 2.5033848 1.3306528 9.294853 -2.9551039
0.22488779 1.8149811 2.4270234 3.438893 0.043643866 6.475528 -4.127038 2.963939
-0.026420623 1.4464077 6.2304826 -1.7802728 -3.5268936 2.876924 -0.8782039 0.30011413
0.083064735 0.6832397 -4.138791 4.088525 -2.5663602 -1.8991792 -1.9348037 0.1228695
