model/maddpg/20240809/agent_2_critic.pth (torch, 16014 bytes, 5 tensors)

fc1.weight f4 [64, 18]
00000000: da12 613d ac02 b4be a941 27bd edba 3fbe
00000010: 00b5 0b3e 5732 ee3d 51f1 5a3e 2e4a 57be
00000020: ee84 04be eab5 9f3d 592d f2bd a49c 1fbf
00000030: e312 4c3e 071b 8e3e 971f 933c cd64 563f
00000040: 2569 e23e 13a1 783f 2a08 b63b b1e0 933e
00000050: 8f0a 143f d07e 26bf 1b53 12bf 12a6 ee3e
00000060: 558a 84bf d46e 4abe 7f27 52c0 edf6 5e3f
00000070: 702f 4bbf 07d7 7dbe 6ebc c33e 68e7 36bf
00000080: d0a1 6d3d 55fe b33e 2a92 c9bd c921 f6be
00000090: 513c b03d 6431 143e a825 6d3e ef40 e53d
000000a0: c6cb 9e3d 5214 6f3e 9699 f23d 9621 0b3d
000000b0: 3399 e9bb 4a5a 4a3c 55c3 2bbe a18b 59be
000000c0: 3837 e23d 7e3c c5bd 5869 c33d 6700 b03d
000000d0: 9a7d 3c3e 299e 283c 50bf 4fbe 0fb4 3cbe
000000e0: a0a3 d1be b29c 013a bb3b e83d e773 94be
000000f0: 8349 aebd 917d 353f 6b38 7ec0 2ab9 2bbe
00000100: 39f8 dbbe 4639 423f e925 04bd 88f7 243e
00000110: 9bf8 c1bd 30e6 743e 9250 7abf 1cc7 0e3e
00000120: 5e3f 75be 296a e3be 4fa1 03be b3f2 cbbd
00000130: deea 683e 80fd f6bb d1fa 093e a522 1bbe
00000140: ba60 14be 58bb 2abf 71fd 413e 741e bbbe
00000150: 219a 9cbe 9023 c73d a97f acbc 165e 623e
00000160: e9aa c5bf 319b ae3e 4cf9 99bb 14b0 7a3e
00000170: 3b3e 163f 32a5 42bf 6ef9 903e 53f9 173f
00000180: 9e92 8bbf 145f 3d40 9035 37c0 2e4b 473f
00000190: 0ac3 913e 9655 393f 72c6 fa3e af15 6abf
000001a0: 6399 ad3c 43b1 1cbd 54b0 c6bd b73b 75be
000001b0: 790c b43e cd9c 3bbf 0fd9 afbd 94dd 43bf
000001c0: 9807 fb3e d5c9 08bd b72c 58bf 6866 b4bf
000001d0: 707a 1ebf 352f 003d 5be7 973d f948 26c0
000001e0: ce33 8ebe 6fa7 1bbf 55c0 02be fd32 09be
000001f0: 8c22 183f 0d78 14bf f165 1b3f 51b6 c8bd
00000200: eb01 d7bd 4598 6ebe 929b 0d3f 7c9a acbe
00000210: c611 b0bd ccfa 2dc0 0f09 2040 3d8a 1c3f
00000220: 4ff3 62bf c47f 673f 932b 17be d144 84be
00000230: 06cd c9bc 9d3a a93e 91ae e23e fb98 cdbc
00000240: b22c d1be 8e23 aabe b40f 423d 1690 8d3e
00000250: 2d98 f93e accc 13be 6513 0b3f b5b9 3fbf
00000260: 12e9 f73e 05ce 203e 8776 3bbc 978f d6be
00000270: 860a da3d 9af5 013e a30d 9bbe c5ed 3dbf
00000280: 14f8 393f 44d5 a4bf 4abf 68be d600 1fbf
00000290: dd35 d03e 7f6d d1bb b53a fa3e 8a9a 883e
000002a0: 8e35 2b3e 3bad 51be b9ec 12be c210 0f3e
000002b0: 8210 4a3f 0bec 37bf 36a9 cc3e 176b 683c
000002c0: a606 01be 7e88 1d3f af28 cebc 6454 e4be
000002d0: d17c dd3e d055 853d 4be4 12bf 551b 75be
000002e0: 9bfb 1fbf 9d99 4dbf 90ad a2be cde2 1fbf
000002f0: ef40 25bf ea1f 17be f1ad e7bf cd67 46bf
00000300: 565b 67bf 64da 3ebe 0740 1b3e 1ee1 003f
00000310: 10eb dabe 8ac4 213e b559 503e cb19 573e
00000320: 2bb8 6e3e 2507 3b3c e621 923c 310a a63c
00000330: 7ac7 f2bd 51bb 883c 90a5 f13d c4e7 ea3d
00000340: f971 56be 8262 723d aa71 9e3d a6f3 123e
00000350: 14d1 ac3c f267 6d3c 8f64 7c3d ade5 8a3d
00000360: 9909 e53e bb25 debd eb05 7bbd 6f47 4bbc
00000370: 6925 b33d 4a5f 1fbc a511 d0bd efd6 5a3f
00000380: 610e e93f a664 f0bc 5571 29bf 40cd b63f
00000390: 0dd7 1abe 25eb ce3d 1c03 a83b 47ad b53e
000003a0: 3bf1 c83e 0ac2 b13d c53e b5be 1da4 0cbf
000003b0: 1791 d7bd be52 86bf 5fc5 f13b b7cc bcbe
000003c0: 944f 84bf 864d 77bd 819e 00bf 31eb 973e
000003d0: 1d27 cabd 9d55 1ebe d081 2cbb 73e7 94bf
000003e0: 81c5 11bc 1dbf 07bc d4ec febd 8e35 45bd
000003f0: ec3d 003e 4b34 9bbb a765 4fbe e8b6 d9be
0.05494962 -0.35158288 -0.040834103 -0.1872365 0.13643265 0.11630695 0.21381117 -0.21024391
-0.12941334 0.07798369 -0.11825056 -0.6234839 0.1992908 0.27754995 0.0179594 0.8374756
0.44220844 0.9712078 0.0055551725 0.28882363 0.5782861 -0.6503725 -0.5715806 0.46611077
-1.0354716 -0.1976884 -3.2836607 0.8709553 -0.7936926 -0.24789058 0.38229698 -0.7144685
0.058015645 0.35154977 -0.09842332 -0.4807265 0.086052544 0.14471966 0.23158896 0.11194026
0.077537104 0.23347595 0.118457004 0.033967577 -0.0071288585 0.012350628 -0.16773732 -0.2124467
0.110456884 -0.096306786 0.09541577 0.08593827 0.18407288 0.010291615 -0.20287824 -0.18428062
-0.40945148 0.0004944309 0.11339518 -0.28994676 -0.08510115 0.70894724 -3.9721935 -0.16769853
-0.42962816 0.7586864 -0.032262716 0.1611005 -0.09471246 0.23915935 -0.9777919 0.13943142
-0.23949954 -0.4441693 -0.12854503 -0.099584006 0.22745845 -0.007537544 0.13474585 -0.15149935
-0.14490023 -0.66692114 0.18944336 -0.3654667 -0.3058634 0.0972358 -0.021056967 0.22106203
-1.5442783 0.34102777 -0.004698908 0.24481231 0.58688706 -0.7603332 0.283153 0.59364814
-1.0904119 2.958928 -2.8626442 0.7784909 0.28469115 0.7239622 0.48979527 -0.91439337
0.021191305 -0.038254987 -0.09701601 -0.2394856 0.35165766 -0.73286134 -0.085863225 -0.76509976
0.4902923 -0.033395607 -0.8444323 -1.4093752 -0.61905575 0.03129502 0.074171744 -2.598204
-0.277739 -0.6080236 -0.12768681 -0.13398357 0.59427714 -0.5799568 0.60702425 -0.09800399
-0.10498413 -0.23300274 0.55315506 -0.33711612 -0.0859714 -2.7184324 2.500553 0.61148435
-0.8865251 0.9042933 -0.14762716 -0.25833753 -0.024633896 0.3305253 0.4427381 -0.02509736
-0.40854412 -0.3323025 0.047378257 0.2764899 0.48748913 -0.14433545 0.5432647 -0.7489274
0.48420006 0.1570359 -0.011441833 -0.41906425 0.106465384 0.12691346 -0.30283841 -0.7419093
0.7264416 -1.2877584 -0.22729221 -0.6211065 0.40666094 -0.006391227 0.48872915 0.26680404
0.16719648 -0.20476238 -0.14348115 0.13971236 0.7893144 -0.7184455 0.39972848 0.014185688
-0.12600192 0.61536396 -0.025165884 -0.44595635 0.4325929 0.06510508 -0.573796 -0.23936208
-0.62493294 -0.8031252 -0.31773043 -0.62455446 -0.64552206 -0.14758268 -1.8099958 -0.7750214
-0.9037374 -0.18637997 0.15161143 0.503435 -0.42757463 0.1579763 0.2034672 0.21005933
0.23312442 0.011415278 0.01783843 0.020268532 -0.118544534 0.016690882 0.11799157 0.11469987
-0.20941915 0.059175976 0.077365234 0.14350757 0.02109579 0.0144901145 0.061619338 0.067820884
0.44733885 -0.1084704 -0.06128494 -0.012407168 0.0874737 -0.0097273085 -0.101596154 0.8548421
1.8207513 -0.029344868 -0.66188556 1.4281387 -0.15121098 0.10103444 0.005127324 0.35483763
0.39246544 0.08679588 -0.35399452 -0.54937917 -0.105257206 -1.0494001 0.007378265 -0.36874935
-1.0336785 -0.060376666 -0.5024186 0.29671624 -0.098707415 -0.15462346 -0.0026322491 -1.1633133
-0.008897186 -0.008285311 -0.12447515 -0.048146777 0.12523621 -0.0047364584 -0.20253621 -0.4252236

fc1.bias f4 [64]
00000000: 8aff c33e bac4 4cbd 0b64 eebd 63ae d63e
00000010: 7851 ab3e 1c74 98be 3c90 cc3e 409f 393d
00000020: d523 d53e b62f 203f 3225 56be a999 14be
00000030: 8812 3e3e fa63 233f c460 853e c2bb 62be
00000040: 5a0a 99bd d426 783d ffbb 40bd 2b77 00bf
00000050: d9a3 75bd 0f0e 653d a793 b73e b91d bbbd
00000060: cb95 a3be de6c fdbe 676f 8a3f 4fc0 d23d
00000070: 10d4 b23f b923 20be 5399 9e3f 0033 ff3e
00000080: 6b55 0bbe 78e0 3abe 7502 98bd 1ad3 873e
00000090: 65a2 bf3e 2e52 b1bd 6279 193e b3f9 c73e
000000a0: 8ec0 09bf 494d c83f 2c76 01be dd71 813f
000000b0: c602 9abd c3fe 153f 8062 913e b6f3 3bbf
000000c0: edb6 4bbf 46b9 06be 6907 01bf eacf 0d3f
000000d0: 6b5a 253f 32ae dbbd efdd fd3e e5eb 193e
000000e0: 46c7 23bf d3eb 9cbe 7e6c 3b3f 3fb5 eebe
000000f0: c93f a83e 29b0 a3bd 8265 bc3e 0abb 30be
0.38280898 -0.0499923 -0.116401754 0.41929922 0.33460593 -0.29776084 0.39953792 0.04531789
0.416289 0.625728 -0.20912626 -0.14511742 0.18561757 0.6382443 0.2605039 -0.22141936
-0.074726775 0.060583904 -0.047054287 -0.50181836 -0.05997071 0.05592161 0.35854837 -0.091365285
-0.3195022 -0.49497122 1.0815247 0.10290586 1.3970966 -0.15638627 1.2390541 0.49843597
-0.13606803 -0.1824969 -0.07422344 0.26528245 0.37428585 -0.08658253 0.1498771 0.39057693
-0.5380944 1.5648586 -0.12642735 1.0112873 -0.0752006 0.5859186 0.28395462 -0.7341875
-0.79576 -0.13156614 -0.5040193 0.55395377 0.6459109 -0.107265845 0.49583384 0.15031393
-0.6397594 -0.3064867 0.7321242 -0.46622655 0.32861164 -0.07992584 0.36796194 -0.1725885

fc2.weight f4 [32, 64]
00000000: 4aab c4bd d4d0 1a3c 2a4f 963d 0af0 debd
00000010: 233e 2f3d f17b a1bd 5990 373d 0f6e 5ebd
00000020: 37ac 70bd 50b9 c03c 81f6 623d 807e bbbc
00000030: f2a5 b73d a344 ff3c 0d09 31bc e04e 15bd
00000040: 4f25 d23d 2be1 06be fc87 f6bd dbdc ad3d
00000050: f9f9 27bd 3130 a43d f006 9a3d 8a23 84bd
00000060: 856c ebbd 4a04 aabc 49fc 9abd d7bc eebd
00000070: d5cc 67bd b8a4 0fbd 8d6e 86bd a0eb 5bbc
00000080: be9b f9bd b8b4 e9bd 18d5 b23b 78b2 3abc
00000090: 08b3 11bd f350 b23d 9f61 94bd b2aa 8abd
000000a0: 6617 c1bd 82cd 92bd b729 2e3d 08ec a4bd
000000b0: eddc 9e3c 1878 47bc 4a2c e5bd 755e 0ebe
000000c0: f447 15bd 8457 a93b 2efb 3cbd dba0 f3bc
000000d0: 1136 553b 9b9c 573d f8f7 afbd 72b3 b93c
000000e0: a61d a7bd 484d 41bd d0d0 573d f119 d8bb
000000f0: bc32 bebb 7438 6b3d f122 1fbe 6301 1abe
00000100: 92f6 e03d ac26 f53e a0b5 133c f701 9abe
00000110: ddef f1c0 d303 533e 81b8 7abe 62fa 15be
00000120: 8cdb 4cbe ecac c1be 2b5b d83d 727a d33d
00000130: 70e4 dc3e 76d8 0bc0 74cb 563d f2d3 aebd
00000140: 70cc 03be 1957 1ac0 10a0 96bc bff9 4cbd
00000150: e5cd 353f 521e 8a3d 7afd a0bd 0549 f7bf
00000160: afc6 9fbd fa1c f73e 09f6 fb3e c87e b5bf
00000170: ae80 11c0 90c7 bd3c 910d 82bf 59a0 be3f
00000180: 803a abbc 905a e8bd 8301 8cbe 51db b13e
00000190: cf0c 5740 7064 3b3e b7c5 bb3e e4bb 3fbf
000001a0: 676a c13d d66b e5bf 15ad 043f ec53 f83d
000001b0: ace4 8e3e 8079 a33f f51d 16bf 936a 703e
000001c0: e64d db3e 9057 b7bf a903 443e 3212 b33f
000001d0: 1721 2440 52f7 cc3e b7d0 53bf 0276 17bf
000001e0: f8a1 f03e 9287 efbe c663 babe 3f1a 9d3e
000001f0: 3483 523f 3c02 0cbd ec2b 8fbf 1aee 82bc
00000200: 746e cd3e 31ec b03d ecd9 033d d1e2 b13e
00000210: 0954 a13e ac26 433f 4070 52bf a508 9d3f
00000220: 3a45 8abe d7d5 a03e b9e2 0f3f 2cb8 c73d
00000230: 84a5 903e c649 22bf 7b3e 6f40 e414 483d
00000240: 2143 b0bf 657c 95be c0a6 19bc 5a61 643e
00000250: 02bc 073f c530 96be 25c2 fcbe b72a a73e
00000260: c4ee dd3d 1918 ecbe a015 5a3f 5162 833f
00000270: c41a e8be a6a1 8d3d fef7 643e 737b 6c3d
00000280: 6866 a5bc 5f54 8e3b f531 8d3d da43 7abe
00000290: 76ff fdbe b85e acbd eea2 61bf 5634 85be
000002a0: 2bf9 47c0 f9b1 a03f cc6d 99bd 307c 38bf
000002b0: 0eee f0bd 7e62 0040 e77e f63c 3260 3ebf
000002c0: 0d89 e8c0 04ec 93bf b823 3ec1 4246 46bf
000002d0: 120c 103f 9537 dcbe 77cc b33e 4eb4 003e
000002e0: 7d68 af3f 8508 ab3f c35f d6bf 18d3 b7bf
000002f0: bce4 2b3e a4bf 02be 7b3d 7ebe 84f1 9fbf
00000300: 9cdd 9ebf 07b1 923e ce5c f33d bfa3 2cc0
00000310: bcf3 7a3d 0d55 edbe 7f66 1bbf cbc2 96bf
00000320: 1cbb 43bf 66c7 fcbf b589 c5bf 3041 723c
00000330: 8bf7 063f 3755 5a40 f077 883c 4850 91bc
00000340: 28d2 6a3f fed5 db3e 40b3 62bd 50f9 8d3f
00000350: 0eea 303f 2f50 023c 4b78 dbbe 8e10 94bf
00000360: c11c ebbd 2374 013e dbc1 2abe 2fd3 9f3c
00000370: ac8f 36bf 6433 413d 8c64 d63e be0a e63d
00000380: f0d2 fb3c 2e79 fa3d 4573 b4bf 53df 5dbe
00000390: 736b 1ac0 c2b6 843e 4e2a 023f c4c3 ffbe
000003a0: 8168 153b 1ba5 18bf 4066 cc3f 7b9d e9bf
000003b0: 08ce 0d3e 53f8 3fbf 5a30 a7bf e078 a93e
000003c0: fefb 8a3f 4a03 b53f c3fe 973f 6818 b3bf
000003d0: 1f81 28c0 e96a 9bbf dd49 ffc0 ac45 a8be
000003e0: 124f 643f fcf2 2040 2446 a5bf 8c5e ccbe
000003f0: 61be 6b3f cc37 a9bd 29ff adbf 1807 33be
-0.09602983 0.009449203 0.07339318 -0.108856276 0.042783868 -0.07884968 0.044815395 -0.05430418
-0.058757987 0.023525864 0.055410866 -0.022887468 0.089671984 0.031160658 -0.0108053805 -0.036452174
0.10261022 -0.13171832 -0.12037656 0.084893905 -0.041009877 0.08017004 0.075208545 -0.06452091
-0.11495308 -0.020753998 -0.07567651 -0.11657112 -0.056591827 -0.035069197 -0.06564055 -0.013422877
-0.121879086 -0.114114225 0.0054575317 -0.011395089 -0.035571128 0.08706846 -0.07245182 -0.06770839
-0.09428291 -0.07168104 0.04252025 -0.08052832 0.019392455 -0.012174629 -0.11190088 -0.1390322
-0.036445573 0.0051679034 -0.04613798 -0.029739788 0.0032533447 0.052639585 -0.08592218 0.022668574
-0.08159952 -0.04719284 0.052689373 -0.0065948893 -0.005804388 0.057426885 -0.15540673 -0.15039591
0.109845296 0.47881067 0.009015471 -0.30079624 -7.56053 0.20606928 -0.24484445 -0.14646295
-0.20005625 -0.3782724 0.10564264 0.10326089 0.43143034 -2.1850867 0.05244012 -0.08536519
-0.12870955 -2.411566 -0.01838687 -0.050042864 0.71017295 0.067440644 -0.07860847 -1.9319159
-0.07801568 0.48264295 0.49211147 -1.4179316 -2.273479 0.023166448 -1.016039 1.4892684
-0.020901918 -0.113453984 -0.27344903 0.34737638 3.3601568 0.18300033 0.36674282 -0.74896073
0.09444123 -1.7923534 0.518266 0.12125382 0.27908838 1.2771454 -0.5863946 0.23478155
0.4283287 -1.4323597 0.19142021 1.3989928 2.5645196 0.4003244 -0.8274035 -0.5916444
0.46998572 -0.4678312 -0.36404246 0.30684087 0.8223145 -0.03418182 -1.1185279 -0.015982676
0.40123332 0.086388 0.03219025 0.3474336 0.31509426 0.76230884 -0.8220253 1.2268263
-0.2700594 0.31413147 0.56205326 0.09751925 0.28251278 -0.6339382 3.7381885 0.048848048
-1.3770486 -0.29196468 -0.009378135 0.22302762 0.5302125 -0.29334083 -0.4936687 0.32649776
0.108365566 -0.46112135 0.8518925 1.0264379 -0.4533292 0.069155976 0.22360227 0.057734918
-0.020190433 0.004343554 0.06894294 -0.24439946 -0.49608964 -0.08416504 -0.88139236 -0.26016492
-3.124583 1.2554313 -0.07491645 -0.72064495 -0.11764155 2.0060115 0.030089809 -0.7436553
-7.26673 -1.1556401 -11.88372 -0.77450955 0.5626842 -0.43011156 0.35116932 0.12568781
1.3703762 1.3361975 -1.6747974 -1.4361296 0.16786474 -0.12768418 -0.2482814 -1.249558
-1.241138 0.28650686 0.118829355 -2.6974943 0.0612676 -0.4635395 -0.6070327 -1.1778196
-0.7645738 -1.9748352 -1.543265 0.01478605 0.5272147 3.411451 0.016658753 -0.017738476
0.91726923 0.429367 -0.055346727 1.1091709 0.6910714 0.007953688 -0.42865214 -1.1567552
-0.11480094 0.12641959 -0.16675512 0.01950988 -0.71312976 0.04716815 0.41873586 0.11232518
0.030740231 0.122301444 -1.4097677 -0.21667223 -2.4128082 0.25920683 0.508458 -0.49954045
0.0022797885 -0.5962693 1.5968704 -1.8251184 0.13848126 -0.7498829 -1.3061631 0.33100033
1.0858152 1.4141629 1.1874622 -1.3991823 -2.632881 -1.2142001 -7.9777665 -0.32865655
0.8918315 2.5148306 -1.291203 -0.39915884 0.9208737 -0.082625955 -1.3593494 -0.17483175

fc2.bias f4 [32]
00000000: fc70 28bd 1e21 8abe a316 0dbe 43e6 08bf
00000010: 4a91 93bc 1d41 a0bd cd59 4dbd f912 2e3f
00000020: 30a2 003c 5da8 29be 0cf7 6a3d 2b75 1abf
00000030: 626f 2a3d 4278 b73c ef67 313e a8d0 83be
00000040: 9315 d03c 0c6d b7bd 2ba3 35bf 0e07 b03e
00000050: e1af 6d3e 1ba0 47be ce50 c63e 86d9 0abe
00000060: de28 bb3c 4696 95be 0586 043f 7bfd 20bf
00000070: ade4 3f3f eb16 013e fd6e d33e 170a d23c
-0.041123375 -0.2697839 -0.13778166 -0.5347635 -0.018013615 -0.078249194 -0.05013447 0.679977
0.0078511685 -0.16568132 0.05736451 -0.60335034 0.04161013 0.02239621 0.17324804 -0.2574513
0.025400912 -0.08956346 -0.709521 0.34380382 0.23211624 -0.19494669 0.38733524 -0.13559541
0.022846635 -0.29216212 0.51767 -0.6288678 0.74958307 0.12606399 0.41295615 0.025639577

q.weight f4 [1, 32]
00000000: 79c4 c73d f01b 9f40 1c22 8540 c1c0 7640
00000010: b943 2040 d955 aa3f d7b7 1441 800c 3dc0
00000020: a548 663e 6851 e83f 366c 1b40 6816 5c40
00000030: bbc3 323d dbd8 ce40 9612 85c0 ceb0 3d40
00000040: 0f70 d8bc 2839 b93f 2e50 c740 8ee3 e3bf
00000050: 706d 62c0 041d 3840 57ea 60bf 7ca8 993e
00000060: c71d aa3d 8de8 2e3f 07ae 84c0 cfd4 8240
00000070: 4f54 24c0 4232 f3bf 4bb7 f7bf afa2 fb3d
0.09754271 4.9721603 4.1604137 3.8555148 2.5041335 1.3307449 9.294883 -2.953888
0.22488649 1.8149843 2.4284797 3.4388676 0.043643694 6.4639716 -4.158519 2.9639163
-0.026420621 1.4470568 6.2285376 -1.7803819 -3.5379295 2.876771 -0.87857574 0.30011356
0.08306461 0.68323594 -4.1462436 4.0884776 -2.5676458 -1.8999712 -1.9352812 0.12286889
