model/maddpg/20240809/agent_2_target_actor.pth (torch, 12746 bytes, 5 tensors)

fc1.weight f4 [64, 5]
0	0xbed8c899	-0.42340544
1	0xbd03eff5	-0.032211263
2	0xbe5fa56f	-0.21840452
3	0xbef4953a	-0.477701
4	0x3d5e202e	0.054229908
5	0x3e94fffc	0.2910155
6	0x3dafabb8	0.085776746
7	0x3eb6fcc6	0.35739726
8	0x3f6c0045	0.9218791
9	0x3f73941e	0.95147884
10	0x3e4a50d2	0.19757393
11	0x3df0a682	0.11750509
12	0x3e81941b	0.25308308
13	0x3e85adb6	0.26109093
14	0x3c9ea19b	0.019364169
15	0xc0819bc6	-4.0502653
16	0x3ff34bdd	1.9007527
17	0x3ddb29fc	0.10701367
18	0xbdbd2481	-0.09235478
19	0x3e5904c8	0.2119323
20	0x3fedd9e6	1.8582122
21	0xbf8efaa4	-1.117024
22	0xbf305479	-0.68878895
23	0x3e379c2b	0.17930667
24	0xbec56246	-0.3855154
25	0x4010e551	2.2639964
26	0xbfe77671	-1.808302
27	0x3f240860	0.6407528
28	0xbde02fcf	-0.10946619
29	0xbd0a5e48	-0.03378132
30	0x3f23b211	0.6394358
31	0xc0679072	-3.6181912
32	0x3d49f297	0.049303617
33	0xbf3cbd54	-0.7372639
34	0xbf080f68	-0.5314851
35	0x3fbbbbc5	1.4666678
36	0x3fade8ad	1.3586632
37	0x3f55389b	0.832895
38	0x3e996fea	0.29968196
39	0x3e65c783	0.22439389
40	0xbf29039a	-0.6602112
41	0x3f177603	0.59164447
42	0xbf40be21	-0.75290114
43	0x3f5ad36a	0.8547884
44	0x3f424f91	0.7590266
45	0x3d6790b9	0.056534503
46	0xbf4264b3	-0.75934905
47	0x3e8f6b13	0.2801138
48	0xbe8639f3	-0.26216087
49	0xbe13010b	-0.14355867
50	0x3fd452d7	1.6587781
51	0xbfb56230	-1.417059
52	0xbea10959	-0.31452444
53	0x3f4d8b46	0.8029064
54	0xbd1c1e82	-0.038115032
55	0xbf13d5ef	-0.5774831
56	0x3de9b6b8	0.11411804
57	0x3ec8ac1f	0.39193818
58	0xbd811702	-0.063032165
59	0xbd37dd61	-0.044888858
60	0xbe72199a	-0.23642579
61	0x3eb2a9bd	0.34895125
62	0xbd9ba71c	-0.07600233
63	0x3f0065db	0.5015542
64	0x3d9e16f0	0.07719219
65	0x3f7881d5	0.9707311
66	0xbfe5c300	-1.7950134
67	0x3f1c9e5f	0.61179155
68	0x3e6f15b9	0.2334813
69	0x3f288929	0.6583429
70	0xbee0bcf7	-0.4389417
71	0x3ec1984d	0.3781151
72	0x3edff04f	0.43738028
73	0xbe57848c	-0.21046656
74	0x3cd05154	0.025429405
75	0xbeacba34	-0.33735812
76	0x3f2d4ea4	0.6769812
77	0x3f0ead3b	0.5573308
78	0xbf6a292d	-0.9146908
79	0xbdc719c6	-0.09721713
80	0x3fa524fe	1.2901914
81	0xbf86fdc7	-1.0546197
82	0xbdf01dc6	-0.11724429
83	0x3e98bd07	0.29831716
84	0xbf57637d	-0.8413618
85	0x3e44d5b3	0.19222145
86	0x3f8d0692	1.101763
87	0x3eb4638a	0.35232192
88	0xbf00b398	-0.5027404
89	0xbe4749d2	-0.19461754
90	0xbe19a9f8	-0.15006244
91	0xc01d3fca	-2.4570184
92	0xbe6f75ca	-0.23384777
93	0xbe282960	-0.16422033
94	0x3d7eb254	0.062181786
95	0x3f6916af	0.9105024
96	0xbfedc66b	-1.8576177
97	0xbec9e81a	-0.39434892
98	0x3f535466	0.82550657
99	0x3d1e1873	0.038597535
100	0xbdea96a3	-0.11454513
101	0xc01fcf6b	-2.4970348
102	0xbefdb696	-0.49553365
103	0xbea6c3e9	-0.32571343
104	0xbde05c83	-0.10955145
105	0xbfcc7549	-1.5973293
106	0x3fe63993	1.798632
107	0xbf04de5c	-0.51901793
108	0x3f78bd2a	0.9716364
109	0xbdcd1d16	-0.10015313
110	0x3d0c28b2	0.034218498
111	0xbdb2fbc5	-0.087394275
112	0x3e81d16f	0.25355098
113	0x3eb1ab71	0.34701112
114	0x3e5a6ab3	0.21329765
115	0x3dba3a81	0.0909319
116	0x3e0e1daa	0.13878503
117	0x3f53d3f3	0.82745284
118	0xbd5197ee	-0.051170282
119	0xbbf594fc	-0.007494567
120	0x3d83a0b6	0.064271376
121	0x3ea85bda	0.32882577
122	0x3dc760df	0.097352736
123	0x3dadd054	0.08487001
124	0x3d5ef3a3	0.05443157
125	0xbf61aa91	-0.8815089
126	0x3ed78f10	0.42101336
127	0x3df935ea	0.121684864
128	0x3edf72fc	0.43642414
129	0x3f102a7c	0.56314826
130	0x3e134887	0.14383136
131	0xbf7cdfce	-0.98779
132	0xbf0ee57a	-0.55818903
133	0x3f004e6b	0.50119656
134	0x3f27db54	0.65569043
135	0x3e9c3b59	0.3051403
136	0xbef951e5	-0.48695293
137	0x3eb2170f	0.34783217
138	0x3e4c23e2	0.19935563
139	0xbe795a65	-0.24350889
140	0xbdd305bb	-0.103038274
141	0x3e73207c	0.2374286
142	0x3ec1708f	0.37781188
143	0xbfbea872	-1.4895155
144	0xbdf9b609	-0.121929236
145	0xbe8147a4	-0.2524997
146	0xc03f37cd	-2.9877808
147	0x3f1915b0	0.5979872
148	0xc0085a17	-2.1304986
149	0xbe81866e	-0.25297874
150	0xbd4b74ce	-0.04967194
151	0x3efb8cba	0.49130803
152	0xbe1755bf	-0.14778803
153	0xbc8e6f97	-0.017387195
154	0xbe315f10	-0.1732142
155	0x3fd7e9ad	1.6868187
156	0xc027a0bf	-2.6191862
157	0x3e604ea2	0.21904996
158	0xbf1b2ff9	-0.60620075
159	0x3e6e26c9	0.23256983
160	0x3e9830c7	0.29724714
161	0x3e367b16	0.17820391
162	0x3efa46f6	0.48882264
163	0x3ca5e1dc	0.0202493
164	0x3e3edd2d	0.1863906
165	0x400a33b7	2.1594064
166	0xc0b98cfa	-5.798459
167	0x3e3d2f33	0.18475036
168	0xbfab777a	-1.3395836
169	0x3d0aaa1c	0.033853635
170	0xbf68ccc1	-0.9093743
171	0x3f6e1c83	0.93012255
172	0xbe9b784f	-0.30365226
173	0x3eead018	0.45861888
174	0x3c2bb537	0.010480217
175	0xbf926403	-1.1436771
176	0x3f2c5d3c	0.67329764
177	0x3f03d4ab	0.5149638
178	0xbf1e8964	-0.6192839
179	0x3d7f363d	0.062307585
180	0x3e3a119d	0.18170781
181	0xbe6e8cc3	-0.23295884
182	0x3ee1b072	0.4407993
183	0xbeb2bed6	-0.3491122
184	0xbd032766	-0.032019995
185	0xbf910767	-1.1330384
186	0x3fd36bcc	1.6517272
187	0x3ea20e6d	0.3165163
188	0x3f6d3105	0.9265292
189	0xbe8a4f82	-0.27013785
190	0xbed39600	-0.41325378
191	0x3ec15f3f	0.3776798
192	0x3ecd7473	0.40127906
193	0xbec67ff9	-0.3876951
194	0x3da5abe4	0.08089426
195	0xbfabd54d	-1.3424469
196	0x3f3024c7	0.6880612
197	0x3db05de0	0.08611655
198	0x3ee9c400	0.4565735
199	0x3ee4b295	0.44667497
200	0xbe96dbc3	-0.2946454
201	0xbed7fae0	-0.4218359
202	0x3e3949d6	0.18094572
203	0x3cc5dcfa	0.024153221
204	0x3d0ae737	0.03391191
205	0xbdc0d516	-0.09415643
206	0xbe2539e5	-0.16135366
207	0x3e9e27bc	0.3088969
208	0xbe746ede	-0.23870417
209	0x3e41d812	0.1893008
210	0x3ea650ef	0.32483622
211	0x3edcb980	0.43110275
212	0xbeb5cc8a	-0.35507613
213	0x3f4fda66	0.81192625
214	0x3e7e4718	0.24831808
215	0xbf9a48b8	-1.2053442
216	0x4030d9ae	2.763286
217	0xbdc62809	-0.09675605
218	0x400b5b9f	2.177467
219	0x3f293fa5	0.6611274
220	0xbbf429b9	-0.007451263
221	0x3d9ca693	0.07648959
222	0x3ecc19db	0.39863476
223	0xbe81e6eb	-0.2537149
224	0x3e39189d	0.18075795
225	0xbfd6328b	-1.6734174
226	0x3f9683a8	1.1758928
227	0x3e92007d	0.28515998
228	0xbece314e	-0.40271991
229	0xbe3b658e	-0.18300459
230	0x3f89d045	1.0766684
231	0xbe94f607	-0.29093954
232	0xbe8e019f	-0.27735612
233	0x3daa0f0f	0.083036534
234	0x3de55edd	0.11199734
235	0xbd9c10b8	-0.07620376
236	0x3e9ba8a2	0.30402094
237	0x3e9b8d4a	0.30381233
238	0x3ea13e85	0.3149301
239	0xbc9e2dd9	-0.019308971
240	0xc002b656	-2.042379
241	0x400ef188	2.233492
242	0xbe8d3b54	-0.27584326
243	0x3f425061	0.759039
244	0x3eca5ef9	0.39525583
245	0x3f96b320	1.1773415
246	0xc0be4cbd	-5.9468675
247	0x3e183bee	0.14866611
248	0xbfc10869	-1.5080692
249	0xbe3ba205	-0.18323524
250	0x3d87c416	0.06629197
251	0xbe2292fc	-0.15876383
252	0x3d58a530	0.05289191
253	0xbeda2a40	-0.4261036
254	0x3ca7d641	0.020487906
255	0xbef3527d	-0.4752387

fc1.bias f4 [64]
0	0x3f66ef11	0.90208536
1	0xbe6a83cd	-0.2290184
2	0xbefdfcf6	-0.49607056
3	0xbeef682c	-0.46759164
4	0x3eba1795	0.36346117
5	0xbf27b0ff	-0.6550445
6	0xbea40276	-0.32033128
7	0x3f0f7c58	0.5604911
8	0x3e4a474c	0.1975376
9	0xbe3b75b2	-0.18306616
10	0xbf8103e1	-1.0079309
11	0xbd5c06d0	-0.053717434
12	0xbf1e1a74	-0.61759114
13	0x3e81db97	0.25362846
14	0x3dbbd224	0.091709405
15	0x3e900d2f	0.28135058
16	0x3dabd591	0.08390344
17	0xbeb25a0e	-0.3483433
18	0x3ee016cb	0.4376739
19	0xbf4041b3	-0.7510025
20	0x3d2d1d89	0.042264495
21	0xbe90e150	-0.282969
22	0xbe9a4278	-0.30128837
23	0x3f1872aa	0.59549963
24	0xbf0ccf1b	-0.5500352
25	0xbf51d8f3	-0.81971663
26	0xbf489707	-0.7835545
27	0x3f53d38d	0.82744676
28	0x3ec29bc6	0.3800947
29	0x3f25dc64	0.64789414
30	0x3f1012d3	0.56278723
31	0x3e9640b7	0.29346249
32	0xbef50d12	-0.47861534
33	0xbdd3d410	-0.10343182
34	0xbf7066b5	-0.9390672
35	0xbcc1e42f	-0.023668377
36	0x3e147115	0.14496262
37	0xbf2af548	-0.6678052
38	0xbde4b4b1	-0.11167277
39	0x3f24efe5	0.6442855
40	0xbec8895c	-0.39167297
41	0x3de2d6f4	0.11076155
42	0x3d198a18	0.037485212
43	0xbf5041eb	-0.8135058
44	0x3dbef7bd	0.09324596
45	0xbedcd4cc	-0.431311
46	0x3f45b120	0.77223396
47	0xbeb9a0d5	-0.36255518
48	0x3e577b87	0.21043216
49	0x3f0c34e1	0.54768187
50	0xbeaaf579	-0.33390406
51	0xbeecb7dd	-0.46234027
52	0x3f0cbede	0.5497874
53	0xbe8abcc9	-0.27097157
54	0x3e6b7d68	0.22997057
55	0xbec3f3fe	-0.3827209
56	0x3ebdd8a1	0.37079337
57	0xbea95b45	-0.33077446
58	0x3e023a6f	0.12717603
59	0xbf0ebd3f	-0.55757517
60	0x3ea693b2	0.32534558
61	0x3ccc6235	0.024949173
62	0x3f3ce583	0.7378771
63	0xbf2ec351	-0.6826678

fc2.weight f4 [32, 64]
0	0xbe0a7847	-0.13522445
1	0xbdf93202	-0.12167741
2	0xbe02cbd3	-0.12773065
3	0x3d682f50	0.056685746
4	0x3d3cff71	0.046142045
5	0xbbfd57ba	-0.007731405
6	0x3d648f94	0.05580099
7	0x3d378965	0.044808764
8	0xbd83192b	-0.06401285
9	0x3cd3ca37	0.02585326
10	0xbda052d1	-0.07828296
11	0xbd3758b4	-0.04476233
12	0xbd49cebf	-0.049269434
13	0xbd0dabcf	-0.034587678
14	0x3d9fa568	0.077952206
15	0xbd9fac04	-0.07796481
16	0x3c07e2f2	0.008293854
17	0xbe128e98	-0.14312208
18	0x3c57aa03	0.013163093
19	0x3d305415	0.043048937
20	0xbd8a98b3	-0.06767406
21	0xbd213d95	-0.03936537
22	0xbd3871d2	-0.045030423
23	0xbd3d47b6	-0.046210967
24	0xbdbf376a	-0.09336741
25	0x3c1effbf	0.009704529
26	0xbd95ccac	-0.07314429
27	0xbe04bbeb	-0.1296231
28	0xbacc297b	-0.0015576327
29	0xbe042c8f	-0.12907623
30	0xbddf9368	-0.109167874
31	0xbdbb0bd6	-0.09133117
32	0x3ddafc67	0.10692673
33	0xbe005f9c	-0.12536472
34	0xbcff0a7e	-0.031132933
35	0x3dac92c0	0.08426428
36	0x3dedd202	0.116123214
37	0x3dbfd219	0.09366245
38	0xbdb38e80	-0.08767414
39	0x3d3603f1	0.044437353
40	0xbda5dc65	-0.080986775
41	0xbdcb3ab8	-0.09923309
42	0xbd8c05ef	-0.06837069
43	0xbc7aae16	-0.015300294
44	0xbd367b90	-0.044551432
45	0xbccb39a3	-0.024807757
46	0xbcd66c70	-0.026174754
47	0x3ddda622	0.10822703
48	0x3d7347f1	0.05939478
49	0x3d8aee3e	0.06783722
50	0x3dbfadc5	0.09359316
51	0x3c34fe9d	0.011047033
52	0xbdf9076e	-0.1215962
53	0xb9ab87f5	-0.00032716958
54	0x3bacf3a0	0.005278066
55	0xbde10681	-0.10987569
56	0x3d08f656	0.03343805
57	0x3db3cca2	0.08779265
58	0xbe038497	-0.12843548
59	0xbd305f06	-0.04305937
60	0x3c69437c	0.014237281
61	0xbdd4f124	-0.103975564
62	0x3d59dc83	0.053188812
63	0xbe12bddc	-0.14330238
64	0xbe9b4a88	-0.303303
65	0x3af155e5	0.0018412439
66	0xbc3374de	-0.010953156
67	0xbd3bb04a	-0.04582242
68	0xbebb8d86	-0.3663141
69	0xbe67fe19	-0.22655524
70	0xbd604b65	-0.0547594
71	0x3d05c076	0.03265425
72	0x3b986bc3	0.004651518
73	0xbd606800	-0.054786682
74	0xbe4c5f63	-0.19958262
75	0x3dac344a	0.08408411
76	0x3da4b320	0.08041978
77	0x3e272e48	0.16326249
78	0xbd9f57ea	-0.0778044
79	0xbe703b16	-0.2346004
80	0xbeb1a65e	-0.3469724
81	0xbe93b9d0	-0.288527
82	0xbe8f87fb	-0.28033432
83	0x3d26e21c	0.04074298
84	0xbe433d7f	-0.19066428
85	0xbe19ffac	-0.15038937
86	0xbdd714cc	-0.105020136
87	0x3b8c3d02	0.0042797336
88	0x3c3fe7f9	0.011713021
89	0xbe690c05	-0.22758491
90	0xbd7de586	-0.06198647
91	0xbd960b90	-0.07326424
92	0xbec77917	-0.38959572
93	0xbe5d7f60	-0.21630621
94	0xbe552644	-0.20815378
95	0x3e09515a	0.1340994
96	0x3d780345	0.060549993
97	0x3dac042c	0.08399233
98	0xbd211b36	-0.03933259
99	0xbe12c804	-0.14334112
100	0x3db31664	0.08744505
101	0xbe1a5344	-0.15070826
102	0x3c4a3500	0.012341738
103	0x3e1edb6b	0.15513389
104	0x3d4696ec	0.048483774
105	0x3dc24a4c	0.09486827
106	0xbe21f915	-0.15817674
107	0x3da4536c	0.08023724
108	0xbc185ca0	-0.009299427
109	0xbe27f009	-0.1640016
110	0xbdb3bf16	-0.08776681
111	0xbd902eba	-0.070401624
112	0xbc7c3f42	-0.015395941
113	0xbe15ef0c	-0.1464197
114	0xbe0e74fb	-0.13911812
115	0xbe4642ef	-0.1936147
116	0x3c685f5c	0.014182892
117	0xbd50f5a8	-0.051015526
118	0xbe5d0c24	-0.21586663
119	0xbe54159c	-0.20711368
120	0xbe75eeda	-0.24016896
121	0x3c338e00	0.010959148
122	0x3b33ade5	0.0027416882
123	0xbe9a9548	-0.30192018
124	0xbea2498d	-0.3169674
125	0x3dc86ff6	0.0978698
126	0x3e00f11c	0.12591976
127	0xbd0c873b	-0.034308653
128	0xbd5eebd4	-0.054424122
129	0x3d551513	0.05202205
130	0xbe028a97	-0.1274818
131	0xbdcd40c7	-0.10022121
132	0x3c08b902	0.008344891
133	0x3db5d1f1	0.08877934
134	0xbde3b3a9	-0.11118252
135	0xbd9fb94c	-0.077990144
136	0xbdc6e3df	-0.09711432
137	0xbc1dbac0	-0.009627044
138	0xbe1b1180	-0.15143394
139	0xbd83db12	-0.06438269
140	0xbe04520f	-0.12921928
141	0xbcd31818	-0.025768325
142	0x3d92790c	0.07151994
143	0xbdd107f8	-0.10206598
144	0xbddec974	-0.10878268
145	0xbdfb5096	-0.1227123
146	0x3d4a3962	0.04937113
147	0xbcc86057	-0.02446
148	0xbde0a6cd	-0.10969315
149	0xbccd845b	-0.025087526
150	0xbcb47262	-0.022027198
151	0xbd0fff83	-0.035155784
152	0x3d39cfd1	0.045364205
153	0x3d6d3928	0.057915837
154	0x3bf8fa25	0.007598179
155	0x3df52c00	0.11971283
156	0x3d619000	0.05506897
157	0x3d57d55f	0.05269372
158	0x3be2033c	0.006897358
159	0xbc6d7300	-0.01449275
160	0x3c90612b	0.017624458
161	0x3d51a6f3	0.051184606
162	0x3cba0f7d	0.022712464
163	0x3d8a2cc8	0.067468226
164	0x3d29a018	0.041412443
165	0x3c2f8700	0.010713339
166	0xbdb195ce	-0.08671151
167	0xbde0319d	-0.10946963
168	0xbe103f94	-0.14086753
169	0xbd1c82b4	-0.038210586
170	0xbe296d49	-0.16545595
171	0x3d0cf36e	0.03441184
172	0xbd86a0b4	-0.065736204
173	0x3d6c9388	0.057757884
174	0x3dc91d02	0.09819986
175	0x3d286ad4	0.041117504
176	0xbd2b7dcd	-0.04186802
177	0x3d56e13b	0.05246089
178	0x3b36a5a9	0.0027869737
179	0xbcdc3cb8	-0.026884422
180	0x3dd27d67	0.10277825
181	0x3c60c92c	0.013719838
182	0xbd9ef0e7	-0.07760792
183	0xbdf25306	-0.11832242
184	0x3ddd44c7	0.10804134
185	0x3d9781cc	0.07397804
186	0xbc568ae8	-0.013094641
187	0x3d6860ec	0.056733057
188	0xbd3bdade	-0.045863025
189	0x3cc74f4a	0.0243298
190	0xbd86eecf	-0.06588518
191	0xbda53f5d	-0.08068726
192	0xbe11b504	-0.14229208
193	0x3d8ffd2a	0.07030709
194	0xbc3d01ca	-0.011536071
195	0x3cff1ae5	0.031140754
196	0xbe144e40	-0.14482975
197	0x3d4df606	0.050283454
198	0xbd79cbea	-0.060985483
199	0x3b0eaf2e	0.0021771896
200	0xbdf11252	-0.117710724
201	0xbe08161f	-0.13289689
202	0x3d816152	0.063173905
203	0xbe27f135	-0.16400607
204	0xbde30571	-0.11085022
205	0xbcb7fca2	-0.022459332
206	0x3df555e8	0.11979276
207	0xbd2a0925	-0.041512627
208	0xbe0577cf	-0.13033985
209	0xbc5a941c	-0.013340976
210	0x3d78ca7d	0.060739983
211	0xbd66f2e9	-0.056384
212	0xbe043c2f	-0.12913583
213	0x3c420f26	0.011844432
214	0x3cc84f26	0.024451803
215	0x3db2eaf9	0.08736224
216	0xbdee6781	-0.116408356
217	0xbdc028d3	-0.093827866
218	0x3c580057	0.013183675
219	0xbda457d6	-0.08024566
220	0xbd94dba8	-0.072684586
221	0xbdacf97d	-0.084460236
222	0x3bdf334f	0.0068115364
223	0xbd78438c	-0.060611293
224	0xbdc18b83	-0.09450438
225	0x3d51b0b7	0.05119392
226	0xbdd027c0	-0.10163832
227	0xbdbe084a	-0.09278925
228	0x3d48e934	0.049050525
229	0x3d82ab02	0.063802734
230	0x3c9d2ae8	0.019185498
231	0xbe35d576	-0.1775721
232	0x3923b59c	0.00015612546
233	0xbd8063ea	-0.06269057
234	0xbdc40c87	-0.09572702
235	0x3d7c92d9	0.061663482
236	0xbdc1dd8b	-0.09466084
237	0xbd48c3f3	-0.049014997
238	0xbddf14d8	-0.108926475
239	0x3d82cc9c	0.063866824
240	0x3c40b31a	0.011761451
241	0xbcba449e	-0.022737797
242	0x3d267bc4	0.040645376
243	0xbe0a0187	-0.13477145
244	0xbd87ca57	-0.0663039
245	0x3c66ce30	0.014087245
246	0xbe034bf3	-0.12821941
247	0x3da072d8	0.07834405
248	0xbdd10154	-0.102053314
249	0xbce3dcd8	-0.027815267
250	0x3cae112c	0.021248423
251	0xbd2b219d	-0.041780103
252	0xbcaee5ad	-0.021349752
253	0xbd9e0ebc	-0.07717654
254	0x3d03a62e	0.032140903
255	0xbe0521df	-0.13001202

fc2.bias f4 [32]
0	0x3d672038	0.05642721
1	0xbe06121b	-0.13092844
2	0xbddb1ec8	-0.106992304
3	0xbd257c4d	-0.040401746
4	0x3cb9170d	0.022594
5	0x3e8bb84b	0.27289042
6	0xbe202af9	-0.15641393
7	0x3e060059	0.1308607
8	0xbc489d47	-0.012244529
9	0x3d3f8589	0.04675821
10	0x3c81e1d6	0.015854757
11	0xbe1f202c	-0.15539616
12	0x3a1fe56f	0.0006099557
13	0xbe1d2dbc	-0.15349478
14	0xbe4be71a	-0.19912377
15	0x3ecdd008	0.40197778
16	0xbdc4b1c3	-0.09604218
17	0xbf176be8	-0.59149027
18	0xbdda44d0	-0.10657656
19	0x3f1b9148	0.60768557
20	0x3c9e1df7	0.019301398
21	0x3e8192e2	0.25307375
22	0x3c850eba	0.016242374
23	0xbe8b6a6a	-0.27229625
24	0xbdd0d65c	-0.10197136
25	0x3cfd950d	0.030954862
26	0xbdb05ea2	-0.086118
27	0xbe4af2c0	-0.19819164
28	0xbcca357b	-0.024683705
29	0x3e3135bd	0.17305656
30	0xbd5b3e08	-0.053525954
31	0x3e4d32ba	0.20038882

pi.weight f4 [1, 32]
0	0xbc6ac6fc	-0.014329668
1	0xbe2e8148	-0.17041504
2	0x3e0d0052	0.13769653
3	0x3bd57914	0.006514678
4	0x3e539518	0.20662344
5	0x3fc0dc78	1.5067282
6	0x3ce82dc1	0.02834213
7	0xc0641827	-3.5639741
8	0xbdd279e3	-0.10277154
9	0x3cb205ad	0.021731222
10	0xbb5dfa6b	-0.0033871185
11	0x3bdc9b40	0.0067323744
12	0x3c6ee228	0.014580287
13	0x3c0fedee	0.008784754
14	0xbfb0ca6e	-1.3811777
15	0x3f93ea51	1.1555883
16	0x3d6ed990	0.058312953
17	0x3f6e9278	0.93192244
18	0xbe1b57cf	-0.15170215
19	0xc0967654	-4.7019444
20	0xbd8b83da	-0.06812258
21	0xbfc2d9dc	-1.5222735
22	0x3e72ed51	0.23723342
23	0x3f62c407	0.88580364
24	0x3bde7dac	0.0067898836
25	0xbde629bc	-0.11238429
26	0x3d10de2c	0.03536813
27	0xbf8bd66e	-1.0924814
28	0xbbdd714f	-0.006757892
29	0x40a554d8	5.166607
30	0xbd17da10	-0.037073195
31	0x3f819249	1.0122768
