model/maddpg/agent_2_target_critic.pth (torch, 16084 bytes, 5 tensors)

fc1.weight f4 [64, 18]
000000 4c 63 b0 bd 82 52 b4 be af 80 d6 3d c5 56 47 be
       -0.086126894 -0.35219198 0.10473763 -0.19466694
000010 b5 de 86 3e 78 b5 a6 bd 70 1e 56 3e c9 d6 16 3e
       0.26341787 -0.08140081 0.20910048 0.14730372
000020 57 36 60 c0 aa 06 84 be 1a e5 2b 3e 22 70 2c 3e
       -3.5033166 -0.25786334 0.16786614 0.1683965
000030 fb 05 59 be 96 b0 5a bd 52 da 1f be 62 d1 1c bf
       -0.21193688 -0.05339106 -0.15610626 -0.6125699
000040 c6 43 87 be de 94 34 bf 3a 3f b4 bc c5 79 e5 3c
       -0.26418895 -0.70539653 -0.022002805 0.028012166
000050 db ac 3d be ba f6 92 3e c5 fb dc be 6e c4 0c 3e
       -0.1852297 0.28703862 -0.43160835 0.13746807
000060 7e 82 fc 3d 73 45 1b 3e 8c c9 56 c0 b3 2a 0b be
       0.12329577 0.15163212 -3.3560514 -0.13590507
000070 f6 4c 72 bc f0 15 5f 3e cc e7 4d be 48 f4 88 3e
       -0.014788857 0.21785712 -0.20107955 0.26748872
000080 d7 f6 53 3d c6 88 11 be 5e ad b9 3d fa 4f b0 be
       0.051749077 -0.14212331 0.0906627 -0.34436017
000090 70 40 b4 bd e1 15 81 be 9c 02 f4 3d 74 c6 a8 bd
       -0.08801353 -0.25212005 0.1191456 -0.08240977
0000a0 7a d8 24 3e 9c 5b fd bd 9d d1 f0 3d ba 31 38 3e
       0.16098204 -0.12370989 0.117587306 0.17987719
0000b0 09 ec 76 c0 67 8d 04 be 30 fe 0b be 16 8e 3e 3e
       -3.8581564 -0.12944566 -0.13671184 0.18608889
0000c0 e0 3c 82 3d 0a 55 27 bd b5 3b 16 3e f3 75 92 3e
       0.06359267 -0.040852584 0.14671214 0.28605613
0000d0 e1 28 b4 bd 96 65 98 3f 60 37 b9 3c 21 06 c8 3e
       -0.087968595 1.1906002 0.022609413 0.39067176
0000e0 4c 34 1f 3e e7 40 82 3e f8 48 6b bf 64 30 77 be
       0.15547293 0.25440142 -0.91908216 -0.24139553
0000f0 76 a3 df 3e 86 bf 1c be 8c ff f7 be ca 80 5e 3e
       0.43679398 -0.15307435 -0.48437154 0.21728817
000100 6a af 28 3e 98 f6 71 be d1 f0 2d be a5 0d b1 3e
       0.16473165 -0.23629224 -0.16986395 0.34580722
000110 18 c4 52 3e 4f 4a 86 3e 98 cb 9d be 44 5a 17 bf
       0.20582616 0.26228568 -0.30819392 -0.5912211
000120 09 90 ce 3d c5 fa 8c 3e 34 0a 00 3e 80 7e a8 3e
       0.10086066 0.27535072 0.12503892 0.32909012
000130 3d 23 59 bf 40 20 1a 3e 98 a1 3e bd 1d ed 6a bd
       -0.84819394 0.15051365 -0.046540827 -0.057355035
000140 09 63 51 be 1e c8 ba 3d 83 fc 2b be 0e 66 e5 3c
       -0.20447935 0.091202006 -0.16795544 0.028002765
000150 e0 ca 54 be 3c cd 66 3d 48 5d 8b 3c 62 df 95 3e
       -0.20780516 0.05634807 0.017012253 0.2927199
000160 4c 03 cb 3e d1 90 18 3f 59 eb 0a 3c 5b 5b bb 3b
       0.39650953 0.5959597 0.008478963 0.0057176775
000170 2c da 94 bd bb 6c 0d 3d 86 22 a0 3d 64 ac b5 bc
       -0.072681755 0.03452752 0.07819085 -0.022176929
000180 20 c9 0d 3c 45 2a 1c 3e 6e 0a 47 c0 cb 57 42 3b
       0.008653909 0.152505 -3.1100116 0.002965438
000190 c0 2c 73 be 36 ba 8d 3d c9 d6 5d 3e 34 3a f4 bd
       -0.2374754 0.069202825 0.21663965 -0.11925164
0001a0 20 df ae bd ee 3e 4e 3d d2 a8 ba bd a2 c3 be 3e
       -0.085386515 0.050352983 -0.09114231 0.3725863
0001b0 fb 12 62 3e 95 15 39 be 75 6f ed 3d 61 64 37 3e
       0.22077553 -0.18074639 0.11593524 0.17909385
0001c0 90 82 d7 3d d1 9a 22 3e 08 1a 0f 3e 33 b9 d5 3d
       0.1052295 0.1587937 0.13974774 0.104357146
0001d0 56 d9 63 3e 2e 50 9f 3d 45 92 47 be 6c a4 41 3e
       0.22250876 0.07778965 -0.19489391 0.18910378
0001e0 b2 50 44 3e 96 68 f7 bd 34 fe de 3c 01 7b 25 3c
       0.19171408 -0.12080495 0.027220823 0.010100127
0001f0 c7 f1 03 3e c3 bd 15 be 2c 4f 8b bd d6 64 5a bd
       0.128852 -0.1462317 -0.0680221 -0.05331882
000200 0a fe f1 bc 8f e3 af be 49 f6 3a 3f 52 1b 3b 3d
       -0.02954008 -0.343533 0.7303205 0.04568035
000210 af cb a0 3c 36 31 cc bd 26 18 b2 3f 40 ea 57 3c
       0.019628374 -0.09970324 1.391362 0.013178408
000220 ec 06 0e bd 67 a1 77 bd 1b e8 dc bd 04 fb 93 3d
       -0.03467457 -0.06045666 -0.10786458 0.07225612
000230 a0 4b 31 3e d8 86 af be d1 a6 60 3e f9 26 88 bc
       0.17314005 -0.34282565 0.21938635 -0.016620146
000240 f6 d8 1e bd ba a8 1a 3e eb 90 b2 3d b6 91 39 3e
       -0.03878113 0.15103427 0.08719047 0.1812199
000250 96 03 42 bf 5d 6b 97 bd 39 8d 58 bc b8 fb 02 3e
       -0.7578672 -0.07393525 -0.013217264 0.12791336
000260 d6 2e e1 bf db 7a a9 bd bf 3d 77 bd bc b6 0e bd
       -1.7592418 -0.08275386 -0.06036162 -0.034842238
000270 85 1b 85 bc cc 7e 54 bd cc 0e da bd de 5e 13 3f
       -0.016248474 -0.051878735 -0.106473535 0.5756663
000280 5b 08 ca be 54 b5 1a 3f d9 12 10 3e 5c d5 f7 be
       -0.394595 0.60432935 0.1406969 -0.48404968
000290 44 cc a8 bd 5d 9d 88 bd 3e 85 55 3e 84 a0 5c 3e
       -0.082420856 -0.0667064 0.20851609 0.21545607
0002a0 0d 92 c8 3d 15 9f bb 3e 11 00 69 c0 d9 ea 57 3d
       0.09793482 0.36644807 -3.640629 0.052714203
0002b0 63 6f 15 3e 1a 52 2a 3e d0 ed ce bd ae cb 82 be
       0.14593272 0.16632882 -0.10103953 -0.2554602
0002c0 9c cf 61 3a a2 0b 20 bf f8 45 a7 be 65 c9 89 bd
       0.0008614005 -0.6251775 -0.3267057 -0.06727866
0002d0 f0 45 cb bd 2c 48 c6 be 19 bd 07 3e 01 c1 c0 be
       -0.09925449 -0.38726938 0.13255729 -0.3764725
0002e0 82 94 8e 3f 30 b2 a6 3d 20 e2 d0 be d6 a1 e1 3e
       1.1139071 0.08139455 -0.4079752 0.44068784
0002f0 92 1c 03 c0 b1 cc 3f 3e 4e b9 ac 3d a9 5d fa 3e
       -2.0486188 0.18730427 0.084337816 0.48899582
000300 e0 69 76 3d b3 c2 25 be e6 8a 9d 3d 30 b4 0d 3f
       0.060159564 -0.16187553 0.076925084 0.5535307
000310 c2 74 cb be 30 2e 7d 3f 37 17 55 3e a6 02 44 be
       -0.39737517 0.988986 0.20809637 -0.19141635
000320 ff c0 11 3d 6d be 2a be 10 fc 18 3e b6 67 35 3e
       0.035584446 -0.16674204 0.14939904 0.17715344
000330 23 2c 73 3d 9a 82 00 3e 55 d2 28 c0 19 e4 94 3d
       0.059368264 0.1254982 -2.6378376 0.07270069
000340 c7 3c f2 be 9f ac 94 3c 54 e8 9f 3c 78 b5 68 bd
       -0.47311994 0.018148718 0.019519962 -0.056813687
000350 d5 8b 1f 3e 8a 17 3a 3d 3f 58 f3 3e d2 b5 2d 3f
       0.15580685 0.045432605 0.47528264 0.6785556
000360 35 d3 22 3d 6f 7a de bd 26 04 18 be d6 76 68 be
       0.039752204 -0.10863196 -0.14845333 -0.22701582
000370 53 0d 37 3f c2 66 00 be d2 b9 ab bd 90 06 44 3b
       0.71504706 -0.12539199 -0.08385052 0.0029911138
000380 92 04 91 3f ba 6a c5 3d 61 af 15 be 0b bc 8a 3d
       1.132952 0.09639497 -0.14617683 0.067741476
000390 9e 04 6d bd 20 91 36 3d b3 7e 45 3e 81 af 27 be
       -0.05786573 0.044571996 0.19286613 -0.16375543
0003a0 2b a4 ee be 10 b5 c3 bd 75 70 8a 3d 59 16 3f be
       -0.46609625 -0.09556019 0.06759731 -0.18660869
0003b0 5f fe 3b 3d 04 d4 33 3d 8f bd 5e 3f 58 6e 49 be
       0.045896884 0.043903366 0.87007993 -0.19670999
0003c0 ac 4c b5 bd b0 fc cb bd 73 88 77 bf 5e 12 10 be
       -0.088525146 -0.09960306 -0.9669258 -0.14069507
0003d0 b5 50 dd 3e 47 0a 01 3f 3b a2 a5 bd 73 2d 7c 3d
       0.43225637 0.50406307 -0.08087584 0.06156678
0003e0 07 9c cd 3c 6e b9 d1 be 3e 0e 36 3e 16 a9 96 3e
       0.025098814 -0.40961784 0.1777887 0.29425877
0003f0 a9 fa a0 3d cd db c6 bd ef ed 4b 3d d2 70 90 bd
       0.0786031 -0.097098924 0.049787458 -0.07052769

fc1.bias f4 [64]
000000 fb 30 9b 3d b5 7f 23 bd 9c 35 04 bc ff 33 23 be
       0.07577702 -0.039916713 -0.008069422 -0.15937804
000010 85 07 5c be ec a0 d4 3e 95 98 32 bb 2a b0 14 3e
       -0.21487243 0.41529024 -0.002725159 0.14520326
000020 ef b3 66 3d fe 32 08 3f a4 50 40 3f 06 fb a1 bd
       0.05632394 0.5320281 0.7512305 -0.07909207
000030 53 25 91 3d 66 60 11 3e 06 26 1f 3e 06 a5 75 bb
       0.07087197 0.1419693 0.15541849 -0.0037482395
000040 0d c5 59 3f ba 64 33 3d 62 f9 2e bd 1e d4 03 3e
       0.850663 0.043797232 -0.0427183 0.12873885
000050 8f 58 81 3d 95 ae a3 bd 05 63 c9 3e 0c 7a a7 3d
       0.06315719 -0.07992283 0.39333358 0.081775755
000060 c1 78 89 3e 58 29 3e 3d df 01 84 3d 1b 8d 9e be
       0.2684994 0.046426147 0.064456694 -0.3096703
000070 b9 df 85 3e 2d 8e 64 be 6a 06 e5 bd 29 63 8f 3d
       0.2614725 -0.22319861 -0.11182864 0.07001335
000080 19 79 85 3e 93 65 2f be e5 b3 84 bd 15 7b df 3d
       0.26068953 -0.17128591 -0.06479625 0.10912148
000090 cd 9e f2 3d c2 b2 8a bd b4 f8 2c 3c 62 86 d6 bd
       0.11846695 -0.067723766 0.010557342 -0.1047485
0000a0 d9 a6 ce bd 10 e8 07 3e aa 64 bc bd 88 28 23 3e
       -0.100904174 0.13272119 -0.09198888 0.1593343
0000b0 07 af 41 3e 7e be ef 3d c9 c4 23 be 46 ff 47 be
       0.18914424 0.117062554 -0.15993036 -0.19530973
0000c0 50 44 88 be 53 78 0b 3f 7e a9 aa be 9d bd 2a be
       -0.26614618 0.54480475 -0.33332437 -0.16673894
0000d0 1b 00 d4 3e c2 58 aa 3e 93 45 d3 3e d8 2e f2 3e
       0.4140633 0.33270842 0.41264018 0.47301364
0000e0 c5 1a a6 3e 9c 22 78 bd 9f 51 28 3e ba 30 2c be
       0.324423 -0.06057988 0.16437386 -0.16815463
0000f0 47 1c 8b be 33 f6 31 be 44 e9 4d be fb 5d 50 3e
       -0.2717001 -0.17379074 -0.20108515 0.2034835

fc2.weight f4 [32, 64]
000000 c7 2e cd be e1 99 50 be 0f a2 13 bf cb 45 0f 3e
       -0.4007475 -0.203712 -0.57669157 0.13991468
000010 ce 2c 20 3e 7c a5 49 be c6 a5 a8 3d 4f 5a 9d 3d
       0.15642092 -0.19692034 0.08234744 0.076832406
000020 47 ca 01 be 25 42 f4 be d9 92 66 be 1e 98 8e be
       -0.12674819 -0.47706714 -0.22516955 -0.2785043
000030 5c ee 8a bd d6 7b e4 bd be fa f3 3d 00 a3 10 3d
       -0.06783745 -0.11156432 0.1191306 0.0353117
000040 10 15 8b be 61 be 99 3c c6 6e 75 3e 15 52 25 3d
       -0.27164507 0.018767538 0.23968038 0.040361483
000050 af 7d 16 bd 04 db d3 bd af 34 eb bd c9 ad 5f be
       -0.036740955 -0.10344508 -0.11484658 -0.21843638
000060 c4 a4 4c be e6 d2 19 3e 20 04 35 3e c1 21 0d 3e
       -0.19984728 0.15021858 0.17677355 0.13782407
000070 bd 53 82 3d 33 c4 b8 3d 7f 10 cc 3d 3c 2d 51 bc
       0.06363628 0.09021797 0.09964084 -0.012767132
000080 1b e7 a2 be 30 1d f3 bc bd 56 50 bd 88 dd 1f 3d
       -0.31816944 -0.029677004 -0.05086397 0.039029628
000090 3c 37 ea 3c 20 35 e3 3d 5f 53 9c bd 72 c1 0f be
       0.02859079 0.11094117 -0.07633089 -0.14038637
0000a0 60 77 c3 3d b9 c0 a9 3a 31 8d 77 be 8e c5 b7 bd
       0.09544253 0.0012951113 -0.24174954 -0.089732274
0000b0 94 1b a2 be b7 1a ba bd 96 54 49 3d 26 54 06 bd
       -0.31661665 -0.09087127 0.049152933 -0.032795094
0000c0 44 30 be 3d 6e 8b 0b bf 0a b6 93 3e 62 64 47 3e
       0.0928655 -0.5450963 0.28849822 0.19471887
0000d0 8a 55 55 bd b9 f6 b8 bd 7a 20 5a be 90 aa 76 be
       -0.05208353 -0.090314336 -0.21301451 -0.24088502
0000e0 88 04 f4 bd d1 66 1a 3e b2 67 9e 3c 64 fd 72 3e
       -0.11914927 0.15078284 0.019336555 0.23729473
0000f0 13 19 20 bc 2f 79 71 be 52 05 e7 3d 78 94 75 3e
       -0.009771603 -0.23581384 0.11280312 0.23982418
000100 71 c9 4b 3e f2 21 7c 3f c7 7f 7e 3f 9e 14 e1 bd
       0.19901063 0.98489296 0.9941372 -0.109902605
000110 08 a4 8f 3e be 4e 7f 3e 6c 77 c6 3d 50 12 8f bd
       0.28054833 0.24932382 0.09690747 -0.06985915
000120 0b 5e 80 3e c0 5a 13 3e b6 13 32 3e 1e 82 0f 3f
       0.2507175 0.14390087 0.17390332 0.5605792
000130 65 a9 a6 bd 4e 72 1c 3f 8f 90 84 bf 35 8d a7 ba
       -0.08137778 0.61111915 -1.0356616 -0.0012783172
000140 27 3e bc 3e 71 6f fa 3e 28 08 53 3f 27 98 8d 3c
       0.36766168 0.48913148 0.8243432 0.017284466
000150 f3 71 a2 3d 31 10 75 3d ef ad 88 bd 86 07 56 3e
       0.0793189 0.059829894 -0.066738 0.20901307
000160 75 99 fe 3e 99 7c 81 be 37 57 cd 3c b9 f6 0c be
       0.49726453 -0.25290373 0.025066001 -0.13765992
000170 1c 37 6a 3e 13 71 20 be 83 1e f2 bd 07 1a aa be
       0.22872585 -0.15668134 -0.11822226 -0.33222982
000180 6b 83 bb 3e c8 cb d7 bc 9c 45 98 bd a0 96 51 bd
       0.366237 -0.026342288 -0.07435152 -0.051169038
000190 7e 31 45 bd cf ee 0f be 26 bf 86 3b d8 74 a3 bd
       -0.048142903 -0.14055942 0.004112142 -0.079812706
0001a0 a4 31 52 be 6f 8f 8e bd 88 cf 8e 3e e2 d0 a1 3d
       -0.20526749 -0.069609515 0.2789271 0.07901169
0001b0 62 7e 68 bf de b2 e5 3d e4 3d a6 be 41 25 f2 bb
       -0.90817845 0.11215757 -0.32469094 -0.007389695
0001c0 ac 2f e6 bc 29 30 83 3e 31 03 57 3e fc cf dc bd
       -0.028098904 0.2562268 0.20997311 -0.10781857
0001d0 e5 7c 7e 3d 89 fd f7 be 30 b6 2f bd 32 49 ff 3d
       0.062130827 -0.4843562 -0.042898357 0.12465133
0001e0 d4 b5 c3 3d b3 a9 30 be 22 22 e8 3e 61 d1 0c bf
       0.09556165 -0.17252235 0.4533854 -0.55006987
0001f0 fb 1e 83 bf 8e 73 b5 be 1b 21 2c be 78 27 38 bf
       -1.024383 -0.35439724 -0.16809504 -0.71935225
000200 ad 5d 85 3e d0 bd 3b 3f ce f0 f9 3e 3e 56 88 bd
       0.2604803 0.73336506 0.48816532 -0.066570744
000210 1c 06 b2 3d b5 07 75 3e 98 33 c0 3c 7f b3 8e bc
       0.086925715 0.23928721 0.023462102 -0.017419575
000220 1e d9 b1 3e f3 50 8b 3e 9d b4 d4 bc cb 6f 8d 3e
       0.3473596 0.27210197 -0.02596503 0.27624354
000230 98 a8 d5 bc 2f 45 f5 bd ae c6 bf be f0 46 16 be
       -0.026081368 -0.11976086 -0.37456268 -0.14675498
000240 99 a6 95 bd 63 28 85 3e b0 3e 4d 3e 18 96 07 be
       -0.073071666 0.26007375 0.20043445 -0.1324085
000250 aa dd 77 ba a0 6f a9 3c 42 fe 28 be 3c 6b 03 3e
       -0.0009455333 0.02068311 -0.16503242 0.12833875
000260 9e 07 93 3e da 7d 2f 3d 34 cc a2 bd 43 e2 e7 bd
       0.2871675 0.04284463 -0.07949105 -0.11322453
000270 d7 5f e2 bc d5 9f 04 3d e9 62 b2 3d 7d cf 1f bd
       -0.02763359 0.03237899 0.08710272 -0.039016236
000280 af eb 91 3c 17 d7 48 bc 94 92 cf bd 64 60 92 bd
       0.017812578 -0.012258313 -0.101353794 -0.07147291
000290 a5 ad b2 bd 3d 08 48 be 24 6e 15 3e 4f 95 44 bf
       -0.08724526 -0.19534393 0.14592797 -0.76790327
0002a0 c9 f4 3f 3d f5 03 1d be 2b 51 bf 3e e0 72 bc 3c
       0.046864305 -0.1533354 0.37366614 0.023003995
0002b0 b8 ca 70 bc 2d 68 14 3e 6d b0 45 3c f1 88 0b 39
       -0.014696769 0.14492865 0.012065989 0.00013307088
0002c0 3b 71 26 3c 1b bf db 3e 61 ca 86 3e 97 14 1e 3e
       0.010158832 0.4291924 0.26326278 0.15437542
0002d0 15 79 1f bc 84 1d 68 3d 68 2b ee bd 47 4b 0e bd
       -0.009733458 0.056668773 -0.11629373 -0.03473976
0002e0 2d 37 41 3d ff 20 4b 3a 7a b4 db 3d e5 26 00 3f
       0.04717176 0.0007748752 0.107277825 0.5005935
0002f0 6a 69 35 3d f4 2b a8 be 9a dd 0b 3e f0 bc 61 be
       0.044289984 -0.32846034 0.13658753 -0.2204473
000300 c4 9a a3 3e 60 3d 33 3f 63 09 bc 3e 71 5d a9 bd
       0.31954014 0.70015526 0.36725911 -0.08269776
000310 4f 50 f5 3d fd 29 1e 3e 0e a0 d2 3d 0f d9 98 bc
       0.11978208 0.15445705 0.10284434 -0.01865819
000320 42 88 7e 3e 86 75 88 3e e9 b2 cf 3d aa 9a 03 bb
       0.24856666 0.26652163 0.10141546 -0.00200812
000330 0c 10 2b be 15 21 91 3e cf 36 dd 3d 1f ca 9c 3d
       -0.1670534 0.28345552 0.108014695 0.07655739
000340 31 83 60 3e 97 c1 bb 3e 9d 8d a6 3e 13 54 ae bd
       0.21925046 0.36671135 0.32529917 -0.0851213
000350 11 28 18 3d c4 ec a8 3c 5f db fe bd 8f 64 11 3e
       0.037147585 0.020620711 -0.124441855 0.14198516
000360 f6 2b d2 3e 77 3e 61 3d 88 23 c9 bd f7 9d ce bd
       0.41049165 0.05499121 -0.0982123 -0.10088723
000370 8f da 89 3b b2 b8 42 bc 0a 6b 3f bc 2a 09 41 bd
       0.0042069624 -0.011884855 -0.011683235 -0.04712788
000380 cb 5d 61 3d 56 3c e1 bd 3a 8c 80 3d 90 74 b9 bd
       0.05502109 -0.10997836 0.06276746 -0.09055436
000390 fa f5 c5 bd 64 3a 0f be 78 3a d3 bd 34 8a 47 be
       -0.09666057 -0.13987118 -0.103138864 -0.19486314
0003a0 1d aa 25 be 86 83 4c be bc 10 8b 3e e0 ee 12 bd
       -0.16178174 -0.19972047 0.27161205 -0.03587234
0003b0 48 2b 8c be 05 73 61 3e ef 12 5f be a4 80 ee 3d
       -0.2737677 0.22016533 -0.21784566 0.1164563
0003c0 b7 fa 2e 3d 35 63 96 3e cc f9 40 3e f2 1a 07 3e
       0.04271957 0.29372564 0.1884529 0.13193873
0003d0 7c 03 84 3d 58 b7 d6 bd 6b d6 9d bd 33 51 1c 3e
       0.06445977 -0.10484189 -0.077069126 0.1526535
0003e0 32 0d 24 bc d4 08 aa bd 57 fe 1b bd 78 93 93 3e
       -0.010012912 -0.08302465 -0.038084354 0.28823447
0003f0 ee 88 a3 3e 32 21 bc bd 5e f0 37 3e 77 d3 0c bf
       0.31940407 -0.09186019 0.17962787 -0.5501017

fc2.bias f4 [32]
000000 50 a3 61 be 81 1b ce 3e 5c 58 3a be 85 2c b4 3e
       -0.22034955 0.4025536 -0.18197769 0.35190216
000010 69 16 78 3d ec 0e 0a 3e 7d d1 18 bd 0e 9b a7 3c
       0.060568247 0.13482255 -0.03730916 0.020459678
000020 7d 46 51 bd b7 b0 a0 3d d1 ff 31 3c 30 24 28 be
       -0.051092613 0.07846206 0.010864214 -0.16420054
000030 d4 b6 19 3e 65 ac ad be 41 ee 69 bd bf fa 5d 3e
       0.1501115 -0.3392059 -0.057111982 0.21677683
000040 92 fd e9 bc b0 49 3b be 2d 0f ef bc 82 76 20 3d
       -0.028563295 -0.18289828 -0.029182041 0.039175518
000050 29 4d 40 be c5 34 2e 3c 48 66 b4 bd 09 96 f8 3c
       -0.18779434 0.010632698 -0.08808571 0.03034498
000060 83 c1 a0 3e 87 33 b7 bc 54 53 04 be 0f bd 02 3e
       0.31397638 -0.022363437 -0.12922412 0.12767433
000070 0f 38 8c be b0 b0 01 3c e9 7a 9c bd bd fa 39 3e
       -0.2738652 0.007915661 -0.07640631 0.18162055

q.weight f4 [1, 32]
000000 38 de c5 be c1 4d 47 bf 20 13 27 be 62 53 4a bf
       -0.38646102 -0.7785302 -0.1631589 -0.7903348
000010 e7 f3 d1 3d 82 c8 88 be 18 ec 54 be 23 4f 5a be
       0.10251599 -0.26715475 -0.20793188 -0.21319251
000020 cf 52 3c 3f b5 19 62 3e 55 f0 f0 bb 31 4e 00 be
       0.73563856 0.22080119 -0.0073528686 -0.12529828
000030 d3 60 b1 be 0f 46 c0 be c3 0f fc be 26 77 6f be
       -0.34644184 -0.3755345 -0.49230775 -0.23385295
000040 29 7c 3b be a8 94 9c be 30 3b c2 3d 89 21 63 3e
       -0.18309082 -0.30582166 0.09483945 0.22180761
000050 a5 6c 0a 3f 7b ec 63 3e 89 b8 3e be 3a de 97 3e
       0.5407203 0.22258179 -0.18625082 0.29661733
000060 22 06 51 be 09 d3 99 3e 9c 07 1c 3f c1 da a9 3e
       -0.20412496 0.3004382 0.6094911 0.33174708
000070 e8 68 ca be fa b2 a4 3e 85 69 e0 3d 22 04 18 3e
       -0.39533162 0.32167798 0.10957626 0.14845327
