model/maddpg/agent_2_target_actor.pth (torch, 12490 bytes, 5 tensors)

fc1.weight f4 [64, 4]
0	0x3eccf756	0.40032452
1	0xbd626f0d	-0.055281688
2	0xbeabcbed	-0.3355402
3	0xbb86b81f	-0.0041113044
4	0xbe459360	-0.192945
5	0x3d550050	0.05200225
6	0xbee48fb8	-0.446409
7	0xbe9ef2e8	-0.31044698
8	0x3e8eefa3	0.27917203
9	0xbe86dbaa	-0.26339465
10	0xbe73a165	-0.23792036
11	0xbd67303c	-0.056442484
12	0x3e8e9d36	0.27854317
13	0x3eeb8150	0.45997095
14	0x3ee54150	0.44776392
15	0x3ea6188c	0.32440603
16	0x3ee0dde1	0.4391928
17	0x3ea0dcb5	0.31418386
18	0x3de8a0fd	0.11358831
19	0xbe2a91dc	-0.16657203
20	0x3eaa1d00	0.3322525
21	0x3ea45808	0.32098413
22	0xbefbe75e	-0.49199957
23	0xbda91578	-0.08256048
24	0x3e964c03	0.29354867
25	0x3e8975ae	0.26847595
26	0xbdd402dc	-0.10352108
27	0x3ee5da70	0.44893217
28	0xba9a3527	-0.0011765108
29	0x3e8882b7	0.26662228
30	0x3ebc590a	0.3678668
31	0x3de29acd	0.11064682
32	0xbe226354	-0.15858203
33	0x3e9be40c	0.30447423
34	0x3e9caa18	0.3059852
35	0xbec4452a	-0.38334018
36	0xbe0d7db7	-0.13817488
37	0x3e00e501	0.12587358
38	0x3ea38464	0.31936944
39	0x3e8aac3a	0.27084523
40	0xbef0dfa2	-0.47045618
41	0xbe890ba8	-0.26766706
42	0x3edebd78	0.43503928
43	0xbea37c02	-0.31930548
44	0xbd049980	-0.03237295
45	0xbe28d041	-0.16485693
46	0xbe7f196c	-0.24912041
47	0xbe7d4c02	-0.24736026
48	0xbe861172	-0.26185185
49	0x3ed547f0	0.41656446
50	0xbe43b204	-0.19110876
51	0xbd9f8b88	-0.07790285
52	0x3e40b3e3	0.18818621
53	0xbe8472de	-0.25868887
54	0x3dcbd06b	0.09951862
55	0x3ed9e648	0.42558503
56	0x3e8b7ec6	0.27245158
57	0xbe10964c	-0.14119834
58	0xbdcc9a5f	-0.099903814
59	0x3ec18e3e	0.37803835
60	0xbedd4a00	-0.4322052
61	0x3dc67760	0.09690738
62	0xbc6634c0	-0.0140506625
63	0x3e2f5850	0.17123532
64	0x3e5c962c	0.21541661
65	0x3e2536c5	0.16134174
66	0xbb96ca2f	-0.004601739
67	0xbed7779f	-0.4208345
68	0x3eec7c7d	0.46188727
69	0xbeac2c04	-0.3362733
70	0x3e540dcc	0.20708388
71	0xbe417fca	-0.18896404
72	0x3e62d0b4	0.22149926
73	0xbe4c0e87	-0.19927417
74	0xbdab601d	-0.083679415
75	0x3eb28249	0.34865025
76	0x3e8c8867	0.27447817
77	0x3eac62b5	0.33669057
78	0xbe23c85c	-0.159944
79	0x3ee61ae5	0.44942394
80	0xbe7fd219	-0.2498249
81	0xbd2ce720	-0.042212605
82	0x3ed86908	0.42267632
83	0xbe98e6cf	-0.29863593
84	0x3efc4329	0.4926999
85	0xbc7a795a	-0.0152877215
86	0xbec92ca3	-0.39291868
87	0x3e90695f	0.28205392
88	0x3eca2c7e	0.3948707
89	0xbeccf757	-0.40032455
90	0x3e2ca4b8	0.1685971
91	0x3eb41249	0.351702
92	0x3df95656	0.121746704
93	0xbd76a3b5	-0.060214717
94	0x3ec51a73	0.38496742
95	0xbede5da3	-0.43430814
96	0xbdb53330	-0.08847654
97	0x3e9d5ffe	0.307373
98	0xbc4a1447	-0.012333936
99	0x3e92c876	0.28668565
100	0x3dea1158	0.11429089
101	0xbeb4d662	-0.3531981
102	0x3e93c19f	0.2885866
103	0xbc9347c0	-0.017978549
104	0xbdc82340	-0.097723484
105	0x3e6deb10	0.232342
106	0xbd806e80	-0.06271076
107	0xbd566530	-0.052342594
108	0x3e2da408	0.16957104
109	0x3ed8b3d4	0.42324698
110	0xbe431e7c	-0.19054598
111	0xbe94b97a	-0.29047757
112	0x3e1fb788	0.15597355
113	0x3ea1379c	0.3148774
114	0xbed8ccce	-0.42343754
115	0xbd7535e0	-0.059865832
116	0x3d8af0fb	0.067842446
117	0x3ee88b1d	0.45418635
118	0x3e018223	0.126473
119	0xbc57ad23	-0.013163838
120	0xbddc41cb	-0.107547365
121	0xbe62af80	-0.2213726
122	0x3e7e980a	0.24862686
123	0x3e6498f5	0.22323973
124	0xbece8c6b	-0.40341505
125	0x3eba4c09	0.36386135
126	0x3ef607d9	0.48052862
127	0x3e4a35de	0.19747111
128	0xbd611e56	-0.05496057
129	0xbe352eaa	-0.17693582
130	0x3e886182	0.26636893
131	0x3e4669fe	0.1937637
132	0x3d42ea30	0.04758662
133	0xbe740a48	-0.23832047
134	0xbe8d202c	-0.27563608
135	0x3e3c69f4	0.18399793
136	0x3e96f4c3	0.29483613
137	0xbefe74e2	-0.4969855
138	0xbd12c0fc	-0.035828575
139	0xbe17aacc	-0.14811248
140	0xbb98b980	-0.004660785
141	0xbeb201ba	-0.34766942
142	0xbe969404	-0.29409802
143	0x3efaa84e	0.4895653
144	0xbe64e908	-0.2235452
145	0xbedc260f	-0.42997786
146	0x3e8ca80b	0.27471957
147	0xbd44ffe2	-0.04809559
148	0x3e9c6b34	0.3055054
149	0x3e70f2ae	0.23530075
150	0xbe35ce09	-0.17754377
151	0xbe86441a	-0.26223832
152	0xbebdfa68	-0.37105107
153	0x3dbb2050	0.091370225
154	0xbc1da500	-0.009621859
155	0x3dc61300	0.09671593
156	0x3e931430	0.2872634
157	0xbecaed12	-0.39633995
158	0x3d9a0d58	0.07522076
159	0x3ed958e0	0.4245062
160	0xbd4ec220	-0.0504781
161	0x3cc34260	0.023835361
162	0xbe235fd8	-0.1595453
163	0x3ea5e85a	0.32403833
164	0xbe2cdf51	-0.16882063
165	0xbdaf2b00	-0.085531235
166	0xbeeb0e15	-0.4590918
167	0xbdf75a22	-0.12077738
168	0xbe82ea4a	-0.25569373
169	0xbd5fd1e7	-0.054643538
170	0x3ea72ead	0.32652798
171	0x3da0c60d	0.07850275
172	0xbe400d17	-0.18754993
173	0x3da8d748	0.08244187
174	0x3e8aedda	0.2713459
175	0x3df98f5d	0.121855475
176	0x3e8279ca	0.25483543
177	0xbe6fdc8e	-0.23423979
178	0x3df63399	0.1202156
179	0x3da24cac	0.0792478
180	0x3ede5cdc	0.4343022
181	0x3ee64579	0.44974878
182	0x3cde1628	0.027110174
183	0x3e8fa6d7	0.28056976
184	0xbd642820	-0.05570233
185	0x3da4d9e0	0.08049369
186	0xbdf0b818	-0.11753863
187	0x3e9e9792	0.30975014
188	0xbec24bf8	-0.37948585
189	0xbe852cf8	-0.2601087
190	0xbe47ea48	-0.19522965
191	0xbe42a554	-0.1900838
192	0x3e9f4c50	0.3111291
193	0x3e7d3df0	0.24730659
194	0xbe207404	-0.15669256
195	0x3ed93cbf	0.42429158
196	0x3e99ab4c	0.30013502
197	0x3ed65690	0.41862917
198	0x3e6a6041	0.2288828
199	0x3dc3b11f	0.095552675
200	0x3c0a9403	0.00845814
201	0xbe8ddc7e	-0.27707285
202	0xbeadb72a	-0.33928806
203	0x3ec7113a	0.3888033
204	0xbeab2758	-0.33428454
205	0xbeb19992	-0.34687477
206	0x3e985e3c	0.29759395
207	0xbec77160	-0.38953686
208	0xbe3c1a04	-0.18369299
209	0xbc6572c0	-0.014004409
210	0xbe31c9c0	-0.17362118
211	0x3ebe5830	0.37176657
212	0xbdd27628	-0.10276443
213	0x3e620b0d	0.22074528
214	0xbda42640	-0.08015108
215	0xbea256de	-0.317069
216	0xbeeca046	-0.4621603
217	0x3da84ec8	0.08218151
218	0xbe77482c	-0.24148625
219	0xbe9d6ba2	-0.3074618
220	0x3e902d38	0.281595
221	0xbec695be	-0.3878612
222	0x3ea3a599	0.31962278
223	0x3e22353d	0.15840621
224	0x3db2299e	0.08699344
225	0x3ecdd983	0.4020501
226	0x3ee0d5ad	0.43913022
227	0x3eaa5105	0.33264938
228	0xbe3bc950	-0.18338513
229	0x3e146614	0.14492065
230	0xbd028b20	-0.03187096
231	0xbe50ecdc	-0.20402855
232	0xbe40dacc	-0.18833464
233	0x3e1ed16c	0.15509576
234	0x3e1d4274	0.15357381
235	0x3eea2e2a	0.45738345
236	0x3d4cade7	0.049970534
237	0xbe55bab3	-0.20872001
238	0x3e3365a2	0.17519239
239	0xbed2bcaf	-0.4115958
240	0xbcbfe0c0	-0.023422599
241	0xbe576160	-0.2103324
242	0xbeed0eda	-0.46300393
243	0xbe582110	-0.21106362
244	0x3e9154eb	0.283851
245	0x3e96562b	0.29362616
246	0x3c5dd86f	0.013540371
247	0x3dbc5db9	0.09197564
248	0x3e1c1ea4	0.15246063
249	0x3f01dbfb	0.5072629
250	0x3eae0381	0.33987048
251	0xbc3b00e5	-0.0114137875
252	0x3e2c3c24	0.16819817
253	0x3e3f7f88	0.18700993
254	0xbec5041c	-0.38479698
255	0xbee594b2	-0.44840008

fc1.bias f4 [64]
0	0x3eafa578	0.3430593
1	0x3ea0c3b6	0.31399316
2	0xbe4147ee	-0.18875095
3	0x3eee0894	0.4649092
4	0xbeb9d0fd	-0.36292258
5	0x3e64ee98	0.22356641
6	0xbec121a7	-0.37720987
7	0xbeb2df41	-0.34935954
8	0xbc8de152	-0.017319355
9	0xbec3cd3f	-0.38242528
10	0x3de54025	0.11193875
11	0xbee0ee60	-0.43931866
12	0xbe6a4a61	-0.22879936
13	0x3ecd9077	0.4014928
14	0xbeccf04f	-0.4002709
15	0xbe99d82e	-0.30047745
16	0xbead82fc	-0.33888996
17	0x3ea0b5a5	0.31388584
18	0x3e0af5aa	0.13570276
19	0x3e6b51a9	0.2298037
20	0xbb58bc3b	-0.0033071178
21	0xbeb847a2	-0.35992151
22	0x3e64630c	0.22303408
23	0xbe1662ab	-0.14686076
24	0x3e70c978	0.23514354
25	0x3e0bbaee	0.13645527
26	0x3ecbe06f	0.39819667
27	0x3ce7aa81	0.028279545
28	0xbdd7ea00	-0.10542679
29	0xbe62b750	-0.2214024
30	0xbe8cb3c2	-0.27480894
31	0xbd323c5e	-0.043514602
32	0x3eaa0a50	0.33210993
33	0x3d808058	0.0627448
34	0x3ed33c07	0.41256735
35	0x3cac0ea0	0.021003067
36	0xbeab3c2c	-0.33444345
37	0x3e4856f7	0.19564424
38	0x3df1f2a0	0.11813855
39	0x3eb78db2	0.35850292
40	0x3d30cc70	0.043163717
41	0x3e441a00	0.19150543
42	0x3d8281ff	0.06372451
43	0x3e8e7f86	0.27831668
44	0xbdbc7336	-0.09201662
45	0xbd09e49e	-0.033665292
46	0xbec46c3b	-0.38363823
47	0x3e1c561c	0.15267223
48	0x3e69d7ec	0.22836274
49	0xbe9742e3	-0.29543218
50	0x3ec51508	0.38492608
51	0xbdc08f78	-0.094023645
52	0xbc1e7740	-0.009671986
53	0x3e3bcc20	0.18339586
54	0xbd204190	-0.039125025
55	0xbea822d0	-0.3283906
56	0x3e83f067	0.2576935
57	0xbe45af84	-0.19305235
58	0x3e3eb960	0.18625402
59	0x3e2fd139	0.17169656
60	0xbcc8cc40	-0.024511456
61	0xbef0498a	-0.46931106
62	0xbeda866f	-0.4268069
63	0x3eb26604	0.34843457

fc2.weight f4 [32, 64]
0	0x3dafdee4	0.08587435
1	0xbdaab4a1	-0.083352335
2	0x3d893d6e	0.0670117
3	0xba32f22f	-0.00068262493
4	0xbc98a01c	-0.018631034
5	0x3c4a8f80	0.012363315
6	0x3cd55f4b	0.026046416
7	0x3d474266	0.048647307
8	0xbdadde01	-0.084896095
9	0x3da79824	0.081833154
10	0x3c8f9930	0.0175291
11	0x3da9536c	0.082678646
12	0x3dade509	0.084909506
13	0xbda01389	-0.07816226
14	0xbdb5a4a2	-0.08869292
15	0x3bff7440	0.0077958405
16	0x3d8c2fba	0.068450406
17	0xbdd06000	-0.101745605
18	0x3dece07c	0.115662545
19	0xbe016987	-0.12637912
20	0x3d9238a6	0.07139711
21	0x3dbc389d	0.091904856
22	0x3dae063c	0.08497283
23	0xbd80bd2a	-0.0628608
24	0xbda33cac	-0.079705566
25	0x3c165ba3	0.009177121
26	0x3d71de88	0.059050113
27	0xbd04d1fc	-0.03242682
28	0xbba49dc0	-0.005023688
29	0xbd7792c6	-0.06044271
30	0xbdf68a52	-0.12038101
31	0xbcc4c2f3	-0.02401874
32	0x3d36006d	0.044434
33	0x3a9b7180	0.0011859387
34	0xbc6f7316	-0.014614841
35	0xbcbb5e68	-0.022872165
36	0xbdf7d7ea	-0.12101729
37	0xbca77c69	-0.020445066
38	0x3df1b75c	0.11802551
39	0xbb24b259	-0.0025130718
40	0xbde1b446	-0.110207126
41	0xbd1ba91c	-0.038003072
42	0x3bf571d9	0.0074903783
43	0x3d888252	0.066654816
44	0x3d3534e9	0.044239912
45	0xbccab983	-0.024746662
46	0x3ce1a848	0.027546063
47	0x3c3d39a6	0.011549389
48	0xbdcd4d47	-0.10024505
49	0xbc8be4bb	-0.01707684
50	0xbdc10267	-0.09424286
51	0xbd51b358	-0.051196426
52	0x3d91dec4	0.07122567
53	0x3d41f190	0.047349513
54	0xbdb1c98a	-0.08681019
55	0x3c5180ab	0.0127870245
56	0x3da28e4c	0.07937297
57	0xbdfe2c1e	-0.124107584
58	0x3ddcd0c4	0.107820064
59	0x3d0fff1e	0.035155408
60	0x3d06123c	0.032732233
61	0xbd491ef7	-0.049101796
62	0xbd9ef598	-0.07761687
63	0x3c338e30	0.010959193
64	0xbdc4ff1b	-0.0961897
65	0xbdc06988	-0.093951285
66	0xbdc74073	-0.097290896
67	0x3ddb7ceb	0.107171856
68	0x3dcaff6e	0.099120006
69	0x3daf323d	0.08554504
70	0x3cdfa4fb	0.027300349
71	0xba3ca9f0	-0.00071969535
72	0xbd79927e	-0.06093072
73	0xbd59ce10	-0.053175032
74	0xbdaa98a4	-0.08329895
75	0x3df66e18	0.120327175
76	0x3da83874	0.082138926
77	0xbdb12bb6	-0.08650915
78	0xbe07846b	-0.13234107
79	0xbb66efc9	-0.0035238138
80	0x3bc41262	0.0059836367
81	0xbd9ae430	-0.075630546
82	0xbdb00d62	-0.085963026
83	0xbd682dc1	-0.05668426
84	0xbcb0bf82	-0.021575693
85	0xbd3150d2	-0.043289967
86	0x3d74b8b1	0.059746448
87	0x3dc73d52	0.09728493
88	0xbdab2164	-0.08355978
89	0x3d5463bb	0.051852923
90	0xbb932bc0	-0.0044912994
91	0x3c4ad450	0.012379721
92	0x3d2e73e4	0.04259099
93	0xbcddbbec	-0.027067147
94	0x3d98971f	0.07450699
95	0x3c168d3f	0.009188949
96	0x3d9bbc97	0.0760433
97	0x3df1dc78	0.11809629
98	0xbd68d429	-0.056842957
99	0xbd6e44d4	-0.05817111
100	0x3dad8c5c	0.08474037
101	0xbdb53486	-0.08847909
102	0xbc453ab0	-0.012037918
103	0xbdcb11cb	-0.09915503
104	0xbdf5041e	-0.11963676
105	0x3d307184	0.043077007
106	0x3cf239a1	0.029568495
107	0xbdd23204	-0.10263446
108	0x3dda9d7b	0.10674568
109	0xbd012a8a	-0.03153471
110	0x3d3afbd4	0.04565032
111	0xbcdae378	-0.026719794
112	0xbcbe346e	-0.02321836
113	0x3d94d43b	0.07267042
114	0x3dfc2d36	0.12313311
115	0xbdad106c	-0.08450398
116	0x3da2ae80	0.079434395
117	0x3dedcb02	0.11610986
118	0xbdfcc250	-0.1234175
119	0xbd60f8d5	-0.054924805
120	0xbdcc6e3b	-0.09981962
121	0x3d8f2804	0.06990054
122	0xbd866150	-0.0656153
123	0xbd931a0c	-0.071827024
124	0x3d8cb553	0.06870522
125	0x3deadd40	0.11467981
126	0x3ca54b78	0.020177588
127	0x3de4ed82	0.111781135
128	0xbd949f84	-0.07256988
129	0x3da93610	0.08262265
130	0xbd5b28a4	-0.053505555
131	0x3ba49b20	0.005023375
132	0x3d10b39c	0.03532754
133	0xbc7ff092	-0.015621321
134	0xbd7a2ccc	-0.061077878
135	0x3df74556	0.12073772
136	0x3d6f8ea0	0.058485627
137	0xbd904ace	-0.07045518
138	0xbd995f9a	-0.07488938
139	0x3d84c314	0.06482521
140	0xbc876500	-0.016527653
141	0x3d47906c	0.048721716
142	0x3db7dcb6	0.08977644
143	0xbceb48c8	-0.028721228
144	0xbdbdde28	-0.092708886
145	0xbb4a4400	-0.0030863285
146	0xbd4c3d8c	-0.049863383
147	0xbd83ee73	-0.06441965
148	0xbde295b9	-0.110637136
149	0xbcaa72c0	-0.02080667
150	0x3dfc067c	0.12305924
151	0xbd848b06	-0.06471829
152	0x3dc1f86c	0.09471211
153	0xbde088f8	-0.10963625
154	0xbc3f1fb0	-0.01166527
155	0x3ddc62d0	0.107610345
156	0xbd2f2ffc	-0.04277037
157	0xbda3f10a	-0.08004959
158	0xbdbaee8a	-0.09127529
159	0xbde0ba1c	-0.109729975
160	0x3cae31b0	0.021263927
161	0xbd56ff14	-0.052489355
162	0x3c164840	0.009172499
163	0x3d8a6f20	0.06759477
164	0xbdae1e82	-0.08501913
165	0xbde30f52	-0.110869065
166	0x3983ea00	0.0002516061
167	0xbd4bfcac	-0.049801514
168	0xbcead8c0	-0.028667808
169	0xbd86c07c	-0.06579682
170	0x3da8c544	0.082407504
171	0xbdbbd2fa	-0.091711
172	0xbdb901de	-0.09033559
173	0xbd14bb3c	-0.036311373
174	0x3dc28444	0.09497884
175	0x3d642280	0.055696964
176	0x3b254100	0.0025215745
177	0xbd04b2c0	-0.03239703
178	0x3d65f1f0	0.056138933
179	0xbdd68c3c	-0.10475966
180	0xbd83dc3c	-0.06438491
181	0x3de3532d	0.11099849
182	0xbb231dc0	-0.0024889559
183	0x3c87f4a0	0.016596138
184	0xbbd2e1a0	-0.006435588
185	0xbd90ad2c	-0.0706428
186	0xbdaddabc	-0.08488986
187	0x3c9ad188	0.01889874
188	0x3dceaac0	0.10091162
189	0xbd73f800	-0.059562683
190	0x3dc09832	0.09404029
191	0xbd7fd922	-0.062462933
192	0x3de12110	0.10992634
193	0x3c80d720	0.01572758
194	0xbdc4678b	-0.09590062
195	0x3ccff686	0.025386106
196	0x3da0f6e0	0.07859588
197	0x3df3b66c	0.119000286
198	0x3d73b67d	0.059500206
199	0x3c062b1a	0.008188987
200	0x3de99390	0.114050984
201	0xbd4ec37f	-0.05047941
202	0x3ca8efc8	0.02062215
203	0x3d6e6760	0.058204055
204	0x3dfa37c4	0.12217668
205	0x3d98ddd3	0.074641846
206	0x3ce5abf4	0.028036095
207	0x3d87c3dc	0.06629154
208	0x3d78c181	0.060731415
209	0xbd016e9b	-0.031599622
210	0xba144292	-0.00056556717
211	0x3d208d68	0.039197356
212	0xbde02649	-0.10944802
213	0x3cbb6035	0.022873024
214	0x3dc46dca	0.09591253
215	0xbd1e5250	-0.038652718
216	0x3b0adb00	0.0021187663
217	0x3dc83fea	0.09777816
218	0xbd8de0c0	-0.06927633
219	0x3c6fd500	0.0146381855
220	0x3d4824b0	0.048863113
221	0xbd80fe02	-0.06298448
222	0xbda3fa5d	-0.080067374
223	0x3d9c1287	0.07620721
224	0x3cb47905	0.022030363
225	0xbd853fae	-0.065062866
226	0xbdfdb002	-0.123870865
227	0xbdafb410	-0.08579266
228	0xbce140b5	-0.027496675
229	0xbdaf50b5	-0.085603155
230	0x3ca8bca0	0.020597756
231	0xbd851feb	-0.065002285
232	0x3df81412	0.12113203
233	0xbd395704	-0.045249
234	0xbdcf0263	-0.10107877
235	0x3de605cc	0.112315744
236	0x3dc8963e	0.097942814
237	0x3d126273	0.03573842
238	0xbd0f6664	-0.035009757
239	0xbcbe4ca8	-0.023229912
240	0x3db9ed81	0.090785034
241	0xbce7de11	-0.028304132
242	0xbc8bfd18	-0.017088458
243	0x3df6eade	0.12056516
244	0xbd637634	-0.05553265
245	0xbdd9a744	-0.106276065
246	0xbdb984c4	-0.09058526
247	0x3ae53008	0.0017485628
248	0x3dac3ff0	0.084106326
249	0x3db50d44	0.08840421
250	0xbdc2009a	-0.09472771
251	0x3cb6b9f9	0.022305476
252	0xbcb79510	-0.022409946
253	0x3d850366	0.06494789
254	0x3d02fbde	0.03197848
255	0xbd6d901c	-0.05799876

fc2.bias f4 [32]
0	0xbdaa292d	-0.08308635
1	0x3d4e3eae	0.050352745
2	0xbdcea848	-0.10090691
3	0xbd6cfc39	-0.057857726
4	0xbd658fd8	-0.056045383
5	0x3d93fb0c	0.07225618
6	0x3df65d80	0.120295525
7	0x3d0e6f30	0.034774005
8	0xbd4b7f8f	-0.049682196
9	0x3d28de14	0.041227415
10	0xbd1bd1f4	-0.038042024
11	0x3d24180c	0.040061995
12	0x3d21bb78	0.039485425
13	0xbd8c3fa4	-0.06848076
14	0xbd668c2d	-0.056286026
15	0xbdb3aa56	-0.087727234
16	0x3ddcea96	0.10786931
17	0xbce93a00	-0.02847004
18	0xbdb05286	-0.0860949
19	0xbddba8ab	-0.1072553
20	0x3cf596a8	0.029979065
21	0xbd026028	-0.031829983
22	0x3cb54551	0.02212778
23	0x3cbbca12	0.022923503
24	0xbcfb8898	-0.030704781
25	0x3dbe2b84	0.09285644
26	0xbdbf4899	-0.09340019
27	0xbd55e594	-0.052220896
28	0xbde7024a	-0.112797335
29	0x3d301c39	0.042995665
30	0xbd8cfc06	-0.06884007
31	0xbce55ab4	-0.027997352

pi.weight f4 [1, 32]
0	0xbddef083	-0.10885718
1	0xbdb4be8d	-0.08825407
2	0xbe09a1ea	-0.13440672
3	0xbe136ffb	-0.14398186
4	0xbe108492	-0.14113072
5	0xbdde623a	-0.10858579
6	0x3dcc156a	0.09965022
7	0xbdccca52	-0.09999527
8	0xbcb573e0	-0.02214998
9	0x3e126495	0.14296181
10	0x3e038f9b	0.1284775
11	0xbd250460	-0.040287375
12	0x3e25217d	0.16126056
13	0x3df8a05f	0.12139963
14	0xbd676a0c	-0.05649762
15	0xbe1e9934	-0.1548813
16	0xbdce77fd	-0.1008148
17	0xbe12001b	-0.14257853
18	0xbde1129c	-0.109898776
19	0x3d1b06f4	0.037848428
20	0x3e0c22b7	0.13685118
21	0x3e070833	0.13186722
22	0xbdd1fbb7	-0.10253089
23	0x3e152644	0.14565378
24	0xbe063737	-0.13107
25	0xbe1fa219	-0.15589179
26	0x3d89bdf3	0.06725683
27	0x3d9be4ee	0.07612024
28	0x3e0bd6ef	0.1365621
29	0xbdf3fb3d	-0.11913154
30	0x3dfff092	0.12497057
31	0x3daac4a5	0.08338288
