model/maddpg/agent_0_target_critic.pth (torch, 16084 bytes, 5 tensors)

fc1.weight f4 [64, 18]
000000 5e 31 a6 bd 42 3c 59 be 90 35 f8 bd 21 6d 17 3e
       -0.08114885 -0.21214393 -0.12119591 0.14787723
000010 d5 5c 0a bd 99 00 b9 bd 8b 96 63 be a9 31 ec 3e
       -0.033779938 -0.09033317 -0.22225396 0.46131638
000020 75 b9 f2 bf e0 2c 58 be 12 d6 5f bd 09 d2 72 3d
       -1.8962847 -0.21110868 -0.054647513 0.059282336
000030 6b 7d 8b 3d 20 8d ab bd 42 42 13 3e a4 cb 90 be
       0.06811031 -0.08376527 0.14380744 -0.28280365
000040 63 af cf be 08 65 dc be 97 71 f5 bd 37 b9 de 3e
       -0.40563497 -0.4304583 -0.11984556 0.43500683
000050 95 a6 71 be 8a e6 65 3e 68 91 37 bf 76 f2 b4 bd
       -0.23598702 0.22451225 -0.7170625 -0.08835308
000060 83 68 5c 3e 7b d1 3c be 10 12 b0 be b3 1a 65 be
       0.21524243 -0.18439285 -0.3438878 -0.22373466
000070 80 8f 26 be bb 4d 47 3e bd 83 fb bc 54 ec 43 3d
       -0.16265678 0.19463246 -0.030702466 0.047832802
000080 8e 4c d5 3d 5a ee 84 3d 89 83 8a be 1f dd 16 bf
       0.10414992 0.064907745 -0.27053478 -0.58931154
000090 40 21 3b be ed cc c3 bd 9e 99 75 3e af 1e 2a be
       -0.18274403 -0.09560571 0.23984382 -0.16613267
0000a0 6c 1f 95 3e a6 9c c7 3d bc 13 52 be d1 e9 10 3e
       0.29125535 0.09746675 -0.2051534 0.14151694
0000b0 b0 3e 3b c0 58 3f 33 3d 42 24 a6 3c e4 3e 96 3e
       -2.9257011 0.04376158 0.020280961 0.29344857
0000c0 2d b6 d1 bd f8 17 3e 3e fb 17 bf bb 78 b3 d0 be
       -0.102398254 0.18563831 -0.005831716 -0.40761924
0000d0 2f ef 9e 3d 64 d4 10 be 82 c1 db 3d 8c 53 f1 bd
       0.077604644 -0.1414352 0.10730268 -0.117835134
0000e0 32 04 da 3d 2b ad 0d 3e 33 da 0b 3f 2c 1b 72 3d
       0.106453314 0.1383559 0.5462982 0.059107944
0000f0 ad 30 0a be 5a 7b 46 be de ca 2c bf cf 1e 45 be
       -0.13495131 -0.19382992 -0.6749705 -0.19250034
000100 01 48 00 3d 69 b5 8f 3e 66 8b 00 3e 21 52 40 be
       0.03131867 0.28068092 0.12553176 -0.1878133
000110 4f ba 6c be e1 e7 58 3c 8e c0 87 3d a9 87 1a bf
       -0.23117946 0.013238878 0.06628524 -0.6036325
000120 0f 1b 49 3b ca f3 0f bd 62 fd 3a 3d a8 49 a4 3d
       0.0030686294 -0.035144605 0.0456518 0.08021861
000130 c7 6c 8e bd da ed 71 3e 51 15 fd 3d 52 b9 03 be
       -0.069543414 0.2362589 0.123575814 -0.12863663
000140 77 00 0c 3e 75 8b a0 be 3a 15 86 3e ea b4 01 3d
       0.13672052 -0.31356397 0.2618807 0.031666674
000150 51 ad 2c 3e 7f 78 0e be e2 a4 8f bc d6 75 3a be
       0.1686299 -0.13913153 -0.017534677 -0.18209013
000160 af d7 9a 3e d6 3c 77 bb 64 f3 f0 bc 26 78 ac 3c
       0.3024268 -0.003772547 -0.029412933 0.021053385
000170 d4 b3 fb 3d 8a e6 7b 3d 74 a4 38 3c f8 4f 26 be
       0.12290159 0.061499156 0.011269677 -0.16241443
000180 b8 8e 64 3e 1a 7e 46 bb e0 b2 49 c0 25 9e 50 be
       0.22320068 -0.0030287565 -3.1515427 -0.20372827
000190 d5 53 93 3b 3d 53 83 3e 87 e3 65 be 04 48 eb bd
       0.0044960775 0.25649443 -0.22450076 -0.11488345
0001a0 ff ae 36 be ee 82 7d 3e 9e 78 bc be 8f e3 fd 3d
       -0.17840193 0.24756977 -0.36810774 0.12396919
0001b0 97 45 fc bd 3a 3c 53 3e 2e 44 2d 3e a8 e8 8c 3e
       -0.12317961 0.20628443 0.1692054 0.27521253
0001c0 42 2b 45 3d d1 5b 05 3d 21 0c 91 3e 62 69 8e be
       0.048136957 0.032558266 0.28329566 -0.27814776
0001d0 04 c1 71 be 26 5c 69 be fb 61 e1 be fb 88 1b 3d
       -0.23608786 -0.22789058 -0.44020066 0.03797243
0001e0 fe c5 02 3e 70 2b 00 3e ec ce c4 3e 00 6b 82 3e
       0.1277084 0.1251657 0.3843912 0.2547226
0001f0 15 d9 0d 3f 8b 5e eb bd 1c b0 8e 3c 70 51 da 3d
       0.55409366 -0.11492642 0.01741796 0.10660064
000200 1b c1 52 3e ce 9b c0 3d cb f4 a3 be d6 0b 77 bc
       0.20581476 0.094047174 -0.320227 -0.0150785055
000210 2d 99 57 be c2 16 bb 3d 96 da 87 3f a7 7a 6e 3e
       -0.21054526 0.091352 1.0613582 0.23288976
000220 d6 3e 63 3e f8 04 2a be 5e df 62 3e 21 13 6a be
       0.22191939 -0.16603458 0.2215552 -0.2285886
000230 fc c2 38 3e 1f 0a 6f bf 71 69 e9 3e 44 2a b3 bf
       0.1804313 -0.9337482 0.45588258 -1.3997273
000240 f0 14 82 be 90 04 e1 be 2b 95 ac bd 18 2f 18 bf
       -0.254066 -0.43948793 -0.08426889 -0.5944686
000250 cb 4e 95 3f b2 99 43 3d 9c 48 99 be 7e 26 2f be
       1.1664671 0.047753997 -0.2993821 -0.17104527
000260 52 d1 b9 bf 73 88 14 be 0c ab 51 3d 90 43 61 3c
       -1.4517004 -0.14505176 0.051188514 0.013749018
000270 76 76 07 3d 03 00 ca be d1 05 3f be 12 25 19 be
       0.033071958 -0.39453134 -0.18654563 -0.14955547
000280 f5 4f 15 be 24 4e cf bc 04 e6 9a 3d e1 ba cf 3d
       -0.14581282 -0.025305815 0.07563403 0.10143066
000290 60 00 83 be ac b0 99 3e bb f1 d3 be 4f 0d fe 3c
       -0.25586224 0.30017602 -0.41395363 0.031012205
0002a0 20 fc 90 3e 56 1e ee be c1 60 18 40 a2 96 c2 bd
       0.28317356 -0.4650752 2.3809054 -0.09501387
0002b0 f4 57 0a be 71 6a 80 bd 86 ca c1 bd bc b1 ac 3e
       -0.13510114 -0.06270302 -0.094624564 0.3372935
0002c0 97 49 ed 3c a6 db 0f be da 8c 97 3e 24 c0 b3 be
       0.028965754 -0.14048633 0.2959965 -0.3510753
0002d0 07 57 fa 3c 9c 54 ea 3e 1d 47 33 bd da ab 87 3e
       0.030559076 0.45767677 -0.04376899 0.264983
0002e0 d2 a2 23 bf 4e 22 df bd af cf 28 3d ca 8b df be
       -0.6392032 -0.10895215 0.041213688 -0.43661338
0002f0 a2 cf 4f 40 56 6f cb bd fd 72 55 3d 43 a4 2c bf
       3.247048 -0.09933345 0.052111614 -0.67438143
000300 13 75 3e be 80 4f ea bc 8b 73 9a bd 52 f6 8c bd
       -0.18599348 -0.028602362 -0.07541569 -0.06882919
000310 47 6c 66 be 65 f4 d0 be 30 2f 38 3e 23 fc 7f bd
       -0.22502242 -0.40811458 0.1798675 -0.062496316
000320 33 df 21 be 8b 4a bc bd 2b 6e cb 3e 58 ff be 3c
       -0.158078 -0.091939054 0.3973249 0.023315117
000330 f9 60 3b 3e 29 29 1c be c1 03 27 c0 66 9c 11 3e
       0.18298711 -0.15250076 -2.6096041 0.14219818
000340 7e d7 b4 3e 39 26 15 3f a2 46 1e 3e a0 db 34 3e
       0.35320657 0.5826145 0.15456632 0.17661905
000350 dc 76 ef 3d 87 56 3d bf 42 5e 4c 3e d8 0a 20 bf
       0.116925925 -0.73960155 0.19957832 -0.62516546
000360 6d 82 88 3c 3a 80 92 be ba 3a 2b 3d 47 b6 91 3d
       0.016663754 -0.28613454 0.041804053 0.07114845
000370 74 0d e9 3e 1b 67 b9 3d 2e fc ff 3c b1 e8 81 be
       0.45518076 0.09052869 0.031248178 -0.25372842
000380 cd 9c 98 bf b8 7f 6e 3e be c9 ae bc 15 45 19 3e
       -1.1922852 0.23290908 -0.021336433 0.14967759
000390 c9 e4 90 3d 52 88 76 be 58 55 95 3e 2a ac 49 3f
       0.07074887 -0.2407544 0.29166675 0.78778327
0003a0 70 37 27 bf c5 da e8 3e 5d 77 a3 bd 18 bf ce be
       -0.65318966 0.45479408 -0.07981751 -0.40380168
0003b0 8f 16 12 3e 02 83 42 be 68 03 39 3f 7a ff fd bd
       0.14266418 -0.18995288 0.7227082 -0.12402244
0003c0 c0 cc 11 be 3f df 94 bd 5c b6 f0 be 5d 95 85 bd
       -0.14238262 -0.07269143 -0.4701413 -0.065226294
0003d0 e2 e7 1f 3e 15 9b 2c 3e 5b 14 84 bc 00 93 b4 be
       0.156158 0.16856034 -0.016122987 -0.35268402
0003e0 85 b5 9b bd 2e b6 b2 bd 8e 1b 63 bf 92 52 26 be
       -0.076029815 -0.08726154 -0.8871392 -0.16242436
0003f0 ca 8d 4a bc 7b fd 4a be 99 c8 4a bc a3 19 42 3e
       -0.012362907 -0.19823258 -0.012376928 0.18955092

fc1.bias f4 [64]
000000 4e b7 17 3e be 35 9f be 31 f4 8e 3e 7d 1b ea bd
       0.14816019 -0.3109569 0.27920678 -0.11431024
000010 2e d4 33 be 32 ef ad 3d 38 c6 0d 3e fa ef ef bc
       -0.17561409 0.084928885 0.13845146 -0.029289234
000020 9d 56 51 3f 4e 3f cc bd cb 01 89 be 90 9f b1 3e
       0.81772786 -0.09973012 -0.2675918 0.3469205
000030 34 cf 8f 3e 51 93 1f 3f 3e 26 5f bd 4e d4 c2 3d
       0.2808777 0.6233416 -0.05447983 0.0951315
000040 64 01 59 3e dc 9b 24 be f2 2b c2 3d 30 a2 2f be
       0.21191937 -0.1607508 0.09481038 -0.17151713
000050 54 5d e2 be d4 b5 e4 3c 8a b1 0a be 66 a7 fd 3e
       -0.4421183 0.027918734 -0.13544288 0.49541777
000060 96 d2 78 bd ed 73 3c 3d 27 7c 0c be bb 7c 48 3a
       -0.060747705 0.046008993 -0.13719235 0.0007647981
000070 d9 3a 84 bc 5d 84 e6 bc fd 5c 9f 3e 2a be 5d be
       -0.016141342 -0.028139288 0.31125632 -0.21654573
000080 81 bf 31 be b1 b7 e3 3c f1 d1 f4 3e 4f 4a 98 be
       -0.17358209 0.027797552 0.47816423 -0.29744193
000090 37 95 34 3e ad 71 bd 3d 09 aa 96 3e 31 6a de 3e
       0.17635046 0.092501976 0.29426602 0.43440393
0000a0 8b 9b 95 be ec 00 97 bd bc 8d 87 bc 00 69 83 3d
       -0.29220232 -0.07373223 -0.016547076 0.064165115
0000b0 a4 6a aa 3c 64 2f df bd 07 3b 87 3d 62 3d b7 be
       0.020802803 -0.10897711 0.066030554 -0.3578902
0000c0 43 ab f2 3d d0 15 15 3f d3 a8 3c 3e c5 87 d8 bc
       0.11849072 0.5823641 0.18423776 -0.026431927
0000d0 99 44 18 bf b9 78 af bd 1b e1 e4 bd b9 e9 8b bd
       -0.5947967 -0.08567948 -0.11175748 -0.068316884
0000e0 50 b3 c0 be 4e 6e cb 3c f8 97 67 3e eb 20 1c be
       -0.37636805 0.02483287 0.22616565 -0.15246932
0000f0 b7 65 3b 3d dc 9a b2 3d 0b e2 09 bd 67 c0 6d be
       0.0457513 0.08720943 -0.033662837 -0.23217927

fc2.weight f4 [32, 64]
000000 07 e2 b8 3e d7 10 e0 bd 2e 91 22 3e f5 31 0a be
       0.36109945 -0.10940712 0.15875694 -0.1349562
000010 e4 42 ba bd 0b 24 ba 3d 73 92 ae 3e 74 b7 32 3e
       -0.090947896 0.09088906 0.34096107 0.17452794
000020 46 bc 01 be 4a df 14 3e 65 cc 32 be 86 50 58 3d
       -0.12669477 0.14538303 -0.17460783 0.052811168
000030 0c 6e 3a bd a7 5e 64 be 5c 1a 18 bd f1 1e cf 3d
       -0.045515105 -0.22301732 -0.037134513 0.101133235
000040 25 aa 1b be c0 d9 33 3d 06 5e a2 3d 9b 67 0a 3d
       -0.15201624 0.043908834 0.0792809 0.033790212
000050 16 ab a3 3e 9d 27 26 3e 26 c1 31 3d 59 de 8f 3e
       0.31966466 0.16226049 0.04339709 0.28099325
000060 65 e5 13 be 80 3e 12 bd 90 34 fc bd 2f ac f1 3d
       -0.14442976 -0.035704136 -0.12314713 0.118004195
000070 3c d1 a1 3e bf 0f 14 bd 7d 87 1e 3d e0 b5 f2 bb
       0.31604946 -0.03614783 0.03870343 -0.007406935
000080 40 98 c6 3d 74 e7 08 be d5 24 9f 3d 06 29 f9 bd
       0.09697008 -0.13369542 0.07770697 -0.12166028
000090 92 57 97 be 9e e2 dc 3e 89 6b a1 bd 89 b4 98 bc
       -0.29558998 0.43141645 -0.07881839 -0.018640773
0000a0 9c 71 ae 3d 34 3f b3 3c 46 34 90 3c 7c db 2d 3d
       0.08517763 0.021880724 0.01760305 0.042445645
0000b0 41 25 9f 3e 41 c5 d9 bd 42 7f 89 3d bf 4e 73 3e
       0.3108311 -0.10633326 0.067137256 0.23760508
0000c0 6a 5a 9f be 92 4c 39 3d c1 53 86 3e 80 0b 72 be
       -0.31123668 0.04523904 0.26235774 -0.236372
0000d0 da 44 33 bd 3a b3 72 bd 93 52 14 be 39 1e f8 3c
       -0.043766834 -0.059252955 -0.14484625 0.030287849
0000e0 69 d2 75 be 6d 19 e7 3d aa 07 ad 3d b9 12 7a bd
       -0.24006046 0.112841465 0.084487274 -0.06105301
0000f0 13 13 6f 3e 5b 50 43 3e 75 23 03 bf 9d dc 68 bd
       0.2334712 0.19073622 -0.5122598 -0.05685102
000100 e6 f1 c0 3e 42 40 e7 bc af 10 19 3d ae 34 a3 3a
       0.37684554 -0.028228883 0.037369426 0.0012451613
000110 f9 f9 fc 3d 7c 2d 23 3e b6 6d 1d 3e cc b6 6b 3b
       0.12352366 0.1593532 0.15373883 0.003596711
000120 1e 90 40 bd 69 75 e1 bc b0 52 59 3d 0e 58 fc 3c
       -0.04701244 -0.027521806 0.053057373 0.030803706
000130 af 37 0a 3d c4 83 af 3c b0 bf fe bc 35 fa 2b 3e
       0.03374451 0.021425135 -0.031097263 0.16794665
000140 bf 57 da 3d 72 2f b5 3d 74 09 d6 3d de 0f fd bc
       0.106612675 0.0884694 0.10451022 -0.030891355
000150 2d a0 c7 3e 36 d2 43 bd 52 dc 67 3e ac 8a 07 3e
       0.38989392 -0.047807895 0.2264264 0.13236493
000160 81 cc 7d 3d e9 78 d5 bd 32 85 a2 3d ac ee 93 3d
       0.06196261 -0.104234524 0.07935561 0.072232574
000170 83 0e 28 3e 93 55 5d bc 15 83 0f bd 53 7b 85 3d
       0.16411786 -0.013509172 -0.03503712 0.06517663
000180 25 17 3a 3e c5 6d e4 bd 99 59 89 3d c7 92 17 3e
       0.18172891 -0.111537494 0.067065425 0.14802085
000190 65 c8 82 be 66 ba 70 3e ff f9 0b 3d 19 3a bb bd
       -0.25543514 0.23508605 0.03417396 -0.091419406
0001a0 8f d7 37 3e 8c 23 7d bc 74 fd f1 bc c0 39 9b bc
       0.17953323 -0.01545037 -0.029539801 -0.018948436
0001b0 d2 f4 05 3e f6 cb 2a bd 27 7d 13 be 20 9a 8b 3c
       0.13081673 -0.04169842 -0.1440321 0.017041266
0001c0 40 97 3e bd 03 27 ff 3b 46 03 ad 3d 24 d3 dc 3d
       -0.046530962 0.007786633 0.0844789 0.107824594
0001d0 cc e8 9c 3d 17 1a 55 3c e1 4e 1b 3e d0 c4 89 3d
       0.0766159 0.013006709 0.15166809 0.06726992
0001e0 e7 e8 04 3e 06 bc 4f 3e 4e b4 5b 3d 59 58 94 3c
       0.1297947 0.20286569 0.05363875 0.018108534
0001f0 e6 b8 1c 3d b3 2b 66 3d 12 08 9f be e0 34 82 bd
       0.03826227 0.05619402 -0.31060845 -0.06357741
000200 2a 95 76 3e 83 6b 2c 3e 86 bd 62 3e 04 e3 00 3e
       0.24080339 0.16837887 0.2214261 0.125866
000210 84 6c db bc de 45 7c 3e 50 41 23 be a3 fc 6d 3e
       -0.026785143 0.24636027 -0.15942883 0.23240905
000220 a7 d1 c1 3d a5 e3 59 3a 54 62 7f bd a0 dc 0c 3e
       0.09463816 0.0008311815 -0.062349632 0.13756037
000230 b5 ae 21 bc d3 a6 b5 bd 44 5c e4 3d 2e 2e 80 bd
       -0.009868314 -0.0886971 0.11150411 -0.06258808
000240 15 76 05 3e 24 c0 0b bd 1e 63 69 bd 8c 89 c8 bd
       0.13033326 -0.034118786 -0.05697929 -0.0979186
000250 09 ad a5 3e e0 9e 72 3c 67 eb c8 bc a8 7b 14 3e
       0.32358578 0.014808387 -0.024526311 0.14500296
000260 24 de be 3d 98 7d 9a 3d 60 97 7f bd 94 d4 22 bd
       0.09319714 0.07543486 -0.06240022 -0.03975351
000270 4b a7 bd bc b3 44 58 3d c4 bd a4 3d 6a 3f b6 bd
       -0.02315106 0.05279989 0.080440074 -0.08898814
000280 25 74 47 3e 01 14 8d be d1 fa af bc 4f b8 03 be
       0.194779 -0.27554324 -0.021481903 -0.12863277
000290 9e 7c 33 be c0 f2 c8 3d 5d c5 e5 bd 29 c6 25 be
       -0.17528006 0.09811926 -0.11219285 -0.16188873
0002a0 0a 80 22 3f c9 de 84 be d7 56 30 3e 79 32 c8 bd
       0.6347662 -0.25951222 0.17220627 -0.09775252
0002b0 e6 ed ec bd 4d 7d 60 3d 71 a6 27 bf e5 81 e1 3e
       -0.11568813 0.054806996 -0.65488344 0.44044414
0002c0 d9 a1 5b be 47 3e ec 3d 9d 44 98 3d 40 72 ea bd
       -0.21448459 0.11535316 0.07434962 -0.11447573
0002d0 fa b0 58 bd de 23 70 3c bf f9 ac 3c fd 09 bd 3d
       -0.052903153 0.014656989 0.021115182 0.09230421
0002e0 c3 d5 93 bd 53 52 17 3e ae 33 29 3e ed 78 43 3d
       -0.07218506 0.14777498 0.1652362 0.047722746
0002f0 3d 82 79 3d 0c 5d 0d bc bc 5d bd be c7 bf fe bd
       0.06091522 -0.008628141 -0.36985576 -0.124389224
000300 58 48 f8 3c 73 6e 28 3e 10 1b 8e bd 84 b6 df 3e
       0.030307934 0.16448383 -0.069387555 0.43693936
000310 17 0e 84 bd b8 2b e6 bd 8b ea 28 3f 6a 92 da 3e
       -0.06448 -0.112388074 0.65982884 0.4268983
000320 f9 a9 4c 3c 61 36 b8 bd 14 18 66 3c f1 04 54 bd
       0.0124916965 -0.08994747 0.014043827 -0.051762525
000330 c9 79 a5 be 1e a2 08 3a 50 1a 26 bd 71 8a 91 bd
       -0.32319477 0.00052121456 -0.040552437 -0.07106484
000340 08 16 c1 3e 90 39 82 bd bb 8a d2 bd 6b 3b b8 bd
       0.3771212 -0.063586354 -0.10280367 -0.08995708
000350 97 72 27 bd 43 e3 ad 3d 53 8c 00 be 99 96 af be
       -0.040880766 0.08490612 -0.1255353 -0.34294584
000360 54 2c a4 be e2 08 fd 3c 20 4b 84 3d 7a d3 4e bf
       -0.3206507 0.030888025 0.064596415 -0.8079144
000370 84 16 02 bf 61 f8 66 b9 82 25 04 3e c0 98 10 3c
       -0.50815606 -0.00022027038 0.12904933 0.008825481
000380 41 14 13 3e 70 c0 61 bd e9 36 ba 3c 5f 29 10 be
       0.14363195 -0.055115163 0.022731261 -0.14078282
000390 de f7 1e 3f ee c5 36 be 13 2e 82 3e 85 43 6b 3d
       0.62096965 -0.17848942 0.25425777 0.05743744
0003a0 bd 05 a1 be 5a 8a 69 3e 46 96 dd 3f 00 fc 5c 3d
       -0.3144969 0.22806683 1.7311485 0.053951263
0003b0 b7 b9 cf 3d 4f 94 97 bd eb 86 94 bd 21 db a4 bd
       0.10142844 -0.074013345 -0.07252296 -0.08049608
0003c0 5f 24 40 3e 7c 79 84 bd ee 99 75 be 17 bd c3 be
       0.18763874 -0.06468484 -0.23984501 -0.38230202
0003d0 56 07 1d be 3d 3e c2 bd 30 fe 3b 3e 37 10 c7 bd
       -0.1533483 -0.09484527 0.18358684 -0.097198896
0003e0 f0 1d 89 bf 92 62 95 bd 03 73 11 be 24 62 c6 3d
       -1.0712261 -0.072941914 -0.1420403 0.096866876
0003f0 12 24 75 bd 98 95 48 3e 9e 73 89 be de 27 ab bb
       -0.059848852 0.19588315 -0.2684602 -0.0052232584

fc2.bias f4 [32]
000000 36 37 bb bd da 0d 89 3d b5 05 84 3d 19 db f8 3e
       -0.0914139 0.06692095 0.06446401 0.48604658
000010 d2 1a 6b 3e 18 7e 8e bd c5 16 a2 bd fc 94 5e 3e
       0.2295945 -0.06957644 -0.07914499 0.2173652
000020 e3 ec bf 3e 9f a9 ef 3d b4 91 49 3d c6 56 be 3e
       0.37485418 0.117022745 0.04921122 0.37175578
000030 8c f9 41 3e f7 c5 0b bd f0 32 91 bd 42 c6 cb 3b
       0.18942851 -0.03412434 -0.07089794 0.0062187025
000040 e0 85 61 3e 64 c1 57 bd bb 93 72 3e c8 8a 02 bf
       0.22023726 -0.052674666 0.23689167 -0.50993013
000050 45 34 22 be 79 86 70 3e 06 28 a0 3c c1 98 a5 3e
       -0.15840252 0.23488797 0.019550335 0.32343104
000060 e0 48 0f bd a4 c4 ce bc 49 ad 93 be 36 6f df bd
       -0.03498161 -0.02524025 -0.28843144 -0.10909884
000070 36 75 d2 bd 4f 0e fd bd e2 4e 49 3e 67 39 1f 3d
       -0.102762625 -0.12356245 0.19658998 0.038873103

q.weight f4 [1, 32]
000000 77 ae e2 be a4 c5 3e be 4f 24 0e be 6b 5c 4b 3f
       -0.4427373 -0.18630081 -0.13881038 0.79437894
000010 9f 87 99 3d 82 c5 76 3f 14 9b a0 3d 4c ba 80 3e
       0.07496571 0.96395123 0.07842079 0.25142133
000020 9b fe e6 3e fd 0f 32 3e 66 5c 02 3e 2a cf 30 bf
       0.45116124 0.17388912 0.1273056 -0.6906611
000030 85 c6 bc 3e ef b6 89 be ef 6a 10 3e d5 39 6b bc
       0.36870208 -0.2689738 0.14103292 -0.01435705
000040 3f b3 4a bf a9 40 38 be 32 37 87 3e ca 75 17 bf
       -0.7917976 -0.17993416 0.26409298 -0.59164107
000050 cf f6 e9 bd d7 f3 41 bf 64 1e 6f bf 4c a1 4a bf
       -0.11424028 -0.75762695 -0.9340575 -0.7915237
000060 d6 fa 03 3e 64 75 ed bd 22 b2 f3 be 15 0e 0b 3e
       0.12888655 -0.11594656 -0.47596842 0.1357959
000070 2d 52 0e 3f d4 b6 70 3f 90 cf 12 bf 0b 89 32 be
       0.5559414 0.94028974 -0.57347965 -0.1743509
