model/maddpg/agent_2_target_actor_20240722.pth (torch, 15972 bytes, 5 tensors)

fc1.weight f4 [64, 17]
000000 c9 3e f1 bb 1c b0 9e 3d 3d 51 19 be e3 a1 5b 3e
       -0.007362221 0.07748434 -0.14972396 0.21448474
000010 7a c9 83 bd 71 a2 36 3e 98 2b 89 3d 3d d1 3f 3e
       -0.06434913 0.17835404 0.06697768 0.18732162
000020 ee 11 31 bb 52 27 3a be 61 a0 55 3e af 02 4d be
       -0.0027018744 -0.18179062 0.20861961 -0.20020555
000030 d4 48 1c be a7 31 8f 3c 94 26 5c 3e 8d 4f 07 be
       -0.15262157 0.01747973 0.21499091 -0.1321394
000040 4f 39 e2 bd 2d 5c 5b 3e ab db 46 be e6 85 06 3e
       -0.11046087 0.21421881 -0.19419734 0.13137016
000050 12 85 86 3d 7e 24 10 3d cf 34 02 be 81 2d 61 bd
       0.0656835 0.03519105 -0.12715457 -0.054975037
000060 fa 6e 51 be 74 7c 16 3e 3b ba c1 3c 90 6b 1f 3d
       -0.2045249 0.14695913 0.023648372 0.03892094
000070 cc e9 11 3e e5 f8 01 3e e4 f1 0f bc 95 4b 67 3e
       0.14249343 0.12692602 -0.008785699 0.22587426
000080 3b 12 08 be 93 a2 28 be d3 db e5 3d ba 8f 8b bd
       -0.13288204 -0.16468267 0.11223569 -0.06814523
000090 ab 0f 0b 3e 32 13 14 3d 7e 18 0a 3e e7 73 ae 3c
       0.13580196 0.03615112 0.13485906 0.0212955
0000a0 96 6c d6 bd f0 a4 5a be d4 7b 5c bd 15 51 43 3e
       -0.1046993 -0.21351981 -0.05382903 0.19073899
0000b0 07 d6 16 be b5 b4 91 3c 8a 8f a1 3d a6 ab 51 bd
       -0.14730082 0.017786363 0.07888706 -0.051189087
0000c0 79 b9 1d 3e a4 27 26 be 0c b9 1e 3e 72 2f 8d 3d
       0.15402783 -0.16226059 0.15500277 0.06893815
0000d0 01 f3 12 be 99 10 67 bd 40 a2 04 3e 2f 64 ce bd
       -0.14350511 -0.056412313 0.12952518 -0.10077702
0000e0 42 98 10 3e 8b 3c 0b 3e 25 70 04 be 60 9b 79 3d
       0.14120582 0.13597314 -0.12933405 0.060939193
0000f0 a8 d9 76 be f5 0a d8 bd 57 bb 55 be bc b0 1c be
       -0.24106467 -0.10548965 -0.20872246 -0.15301794
000100 ee 68 4b be a6 44 2d be 99 7a 76 3e 5d 84 66 3e
       -0.19864246 -0.16920719 0.24070205 0.2251143
000110 09 8d 51 be 32 43 8a 3d ec 0c 03 3e f1 ff 44 3e
       -0.20463957 0.06751098 0.12797898 0.19238259
000120 20 47 e5 3d 57 d5 41 be 6d 6a 54 be dc d3 6b 3e
       0.11195207 -0.18929039 -0.20743723 0.23030037
000130 55 5c 09 3d ae 35 7c bd 78 00 46 be f4 64 37 bc
       0.03353532 -0.06157463 -0.19336116 -0.011193503
000140 4c 97 14 3e 01 06 66 be 41 a2 d4 bd 56 e6 74 be
       0.1451084 -0.22463228 -0.1038251 -0.23915991
000150 73 80 86 3d a8 71 b3 3d 88 62 64 be f7 73 68 3d
       0.065674685 0.087619126 -0.22303212 0.056751218
000160 7e 68 35 be bf 38 b9 3d 75 87 95 3c 6c 45 6a bd
       -0.17715642 0.090440266 0.018253068 -0.057195112
000170 73 3f 6a 3e b1 19 4c bd e6 43 f4 3d 54 b4 b6 bc
       0.22875766 -0.04982919 0.11927013 -0.022302784
000180 ef 40 3a be 55 ea fe bb 56 5a ce 3d a0 c9 04 3e
       -0.18188833 -0.0077793994 0.10075824 0.12967539
000190 c2 fe 08 be 64 12 3a 3e d2 6b d4 3d 7f b3 12 be
       -0.13378432 0.18171078 0.103721276 -0.14326285
0001a0 73 e7 23 3d 39 09 2d be 06 44 28 bd b0 24 94 bc
       0.04001565 -0.1689805 -0.041080497 -0.0180839
0001b0 ac e5 14 3e 42 c6 85 3d e4 da 3a 3e 96 14 03 be
       0.14540738 0.06531955 0.18247563 -0.12800822
0001c0 6e 7d 5c be 15 59 51 3e ce 51 26 be 72 65 f8 bb
       -0.21532223 0.20444138 -0.16242144 -0.0075804526
0001d0 d8 85 97 3d f6 a1 07 be 2f ac 6b 3e d9 1f 1a 3d
       0.073985755 -0.13245377 0.23014902 0.03762803
0001e0 69 df df bb 00 29 8e 3d 29 a1 32 3e 0e da f1 3d
       -0.0068320525 0.06941414 0.1744429 0.11809169
0001f0 3a 83 2c 3e 3c 24 40 be d1 1d 5e be 16 85 1b 3e
       0.16846934 -0.18763822 -0.21691062 0.15187487
000200 a0 7f 1e 3d 94 22 e0 3d 4b e3 6b be 02 19 f2 bc
       0.03869593 0.10944095 -0.23035924 -0.02955294
000210 01 e0 0d 3e 60 59 ec 3d f7 65 45 3e 81 73 ac bd
       0.13854982 0.115404844 0.19277178 -0.08420468
000220 f5 7f 35 be 34 33 67 3e 41 22 72 3d b5 e8 ea bc
       -0.17724593 0.22578126 0.0591147 -0.028675416
000230 2d 31 5c be d7 4f b2 3d 8d c6 70 bc a3 26 a7 3d
       -0.21503134 0.087066345 -0.014695776 0.08161666
000240 cc 07 3b 3e ed 6e 27 bd 8d d9 3e 3e 48 69 90 bd
       0.18264693 -0.04087727 0.18637677 -0.07051331
000250 85 75 d9 3d f2 fc 63 be 11 0f 43 3e 48 5d 14 3e
       0.10618118 -0.2226446 0.19048716 0.14488709
000260 a5 2c 00 3d 0d a0 09 3e f3 3a 0a 3e aa fe 40 bb
       0.031292576 0.13439961 0.1349905 -0.0029448667
000270 99 10 11 3d 2e b5 40 be 06 d2 b2 3d ea d8 a7 3d
       0.03541622 -0.18819115 0.08731465 0.0819567
000280 ca be 98 bd ba e6 3a be 6b 9c 83 bd 65 67 01 3d
       -0.07458265 -0.18252078 -0.06426319 0.031592745
000290 7d ca 02 3e e3 15 3d 3e d1 c7 f6 3d 59 f5 6b 3d
       0.12772556 0.1846538 0.12049831 0.05760703
0002a0 39 bb 03 3e 21 bc a7 3d 76 09 2a be b7 1b 31 be
       0.12864389 0.081901796 -0.16605172 -0.17295729
0002b0 94 0b 02 3e 4e 94 1f be fb 1c f1 3d ac 65 33 be
       0.12699729 -0.15583917 0.11773106 -0.17519253
0002c0 a0 f5 23 3e d8 39 47 3e 27 a6 64 3d 6c 2d 47 3e
       0.16011667 0.1945566 0.055822518 0.19450921
0002d0 70 2d 73 be 32 25 f2 3b 4e 56 bc bc f4 ae 32 be
       -0.23747802 0.007389688 -0.022990372 -0.17449552
0002e0 9c a1 14 3e 5e 01 13 be 95 66 ef 3b b0 20 d3 bc
       0.14514774 -0.1435599 0.00730593 -0.025772423
0002f0 43 3b e2 bd ae 4d 60 be a7 29 67 3e d6 89 75 bd
       -0.110464595 -0.21904632 0.22574483 -0.059945904
000300 71 14 c5 bd 61 a2 2c be df fc c8 bd e2 cb 75 3e
       -0.096230395 -0.16858818 -0.09813856 0.24003556
000310 9b 4a 47 be a5 61 04 be 81 d6 42 be 6b 0c 32 3e
       -0.19462053 -0.12927873 -0.19027139 0.1738755
000320 17 9f 1b be 83 6b 45 3d 90 4c 0a 3d 8a b7 fd 3d
       -0.15197407 0.048198234 0.033764422 0.12388523
000330 85 9e 56 3e df e3 55 3d 0a 12 5c be 81 24 68 3b
       0.20958908 0.052219268 -0.21491256 0.0035422149
000340 84 9e 3a 3e 59 d6 83 3c df 33 43 3e 6a 91 2b 3e
       0.18224531 0.01609342 0.19062756 0.1675469
000350 3c ce 72 3e f9 58 28 3e d3 7d 6c 3e ef 53 30 be
       0.23711485 0.1644019 0.23094873 -0.17219518
000360 c9 a8 23 3d 95 0a 66 be c6 05 65 3d 6c 03 6e be
       0.039955888 -0.22464974 0.05591371 -0.23243493
000370 46 2e 15 3e f6 10 cc bc 0e 45 20 be 95 7c 63 be
       0.14568433 -0.024910431 -0.15651342 -0.22215493
000380 1a 4e 3d bd 64 61 81 bd 61 e2 5f 3e 41 b1 d2 3c
       -0.04621706 -0.06317404 0.218637 0.025719287
000390 4b 7a ac bd b5 77 6c 3d 97 ee 42 bc 3e 09 b4 3d
       -0.08421763 0.05773135 -0.011897705 0.08790825
0003a0 2b 0d b0 3d 12 58 75 be 10 c9 5e 3e ec 45 b8 bd
       0.085962616 -0.23959377 0.21756387 -0.089977115
0003b0 46 0c 49 3e 26 56 f2 bd 54 cf 46 3e cf bf 07 3e
       0.19633588 -0.11832838 0.19415027 0.13256763
0003c0 dc 74 da bd 63 b8 3f be ef 3f c0 3d ba 4f 36 be
       -0.106668204 -0.18722682 0.09387194 -0.17803851
0003d0 97 1d b7 3c 1b fe 98 bd 52 7b 18 3d 96 57 37 be
       0.022352977 -0.07470342 0.037226982 -0.17904505
0003e0 a3 10 62 be 48 ab 39 be 35 36 01 3e bb 4a 89 3d
       -0.22076659 -0.18131745 0.12618335 0.06703707
0003f0 4c 7d 7a 3d a0 0a 85 bd ca 9d 3c 3e 51 5c 6d be
       0.06115465 -0.06496167 0.18419567 -0.23179747

fc1.bias f4 [64]
000000 b3 cc 4a 3e fb 90 37 3e d8 3a bf 3d c7 a3 29 3e
       0.19804649 0.179264 0.093373954 0.16566382
000010 f8 2c 5e 3e 86 48 f8 3c 64 5b 58 3e a1 bf d1 3c
       0.21696842 0.03030802 0.21128613 0.025604071
000020 b7 88 b2 bd f4 b5 48 be 40 82 bd 3d c2 dc ad 3d
       -0.087174825 -0.1960066 0.09253359 0.08489372
000030 f5 c3 e3 3d 19 d7 e0 3c 9c 77 ac bc 09 87 15 3d
       0.1112136 0.027446317 -0.021053128 0.036505733
000040 25 5d d1 3d 12 6e 52 be a8 26 59 be 77 0e c6 bd
       0.10222844 -0.20549801 -0.21206152 -0.09670728
000050 79 41 1f 3e 53 43 c6 bd a3 8e f2 3d 48 ff 1a bd
       0.1555232 -0.0968081 0.11843612 -0.03784111
000060 38 99 b8 3c fa 67 21 be ce ad 06 3e 43 ee 9e bd
       0.022533998 -0.1576232 0.13152239 -0.077602886
000070 6e 15 e5 bd 0d 17 60 be 35 40 7a bd 58 5d 69 3e
       -0.11185728 -0.21883793 -0.06109639 0.22789514
000080 40 c5 d5 bd 5f 7b 36 3e ba 59 31 3d b1 8b 2f 3e
       -0.10438013 0.178205 0.04329846 0.17143132
000090 34 d2 ec 3d fa 30 3d 3e 67 11 91 bd 85 0c 8e 3d
       0.115635306 0.18475714 -0.07083397 0.06935982
0000a0 fe ed a5 3d ee c1 13 be f7 f9 51 3e 13 92 bd 3d
       0.08102034 -0.14429447 0.2050551 0.09256377
0000b0 b2 65 74 be 12 5f bc bd 8f 63 8e 3d 52 b1 fa 3d
       -0.23866919 -0.09197821 0.06952583 0.122408524
0000c0 ba a1 b2 3d b9 1a 73 3e 2a 60 b7 3c 67 c8 98 bd
       0.08722253 0.23740663 0.022384722 -0.07460099
0000d0 62 d8 66 bd 76 86 6b be 39 e7 e1 3d 27 3a 84 3c
       -0.056358702 -0.23000512 0.1103043 0.01614101
0000e0 4f 47 6a 3e 84 fc 63 be 6d 31 b4 bd 35 f7 a9 3d
       0.22878765 -0.22264296 -0.0879849 0.08299104
0000f0 de 9e 4e 3e 61 60 b6 bd f2 85 0e be 87 12 63 be
       0.2017779 -0.089051016 -0.13918284 -0.22175036

fc2.weight f4 [32, 64]
000000 2c 0a 3c 3d 80 55 81 bd 94 6b 11 3d 9c cd cd bd
       0.04590814 -0.06315136 0.035502985 -0.100489825
000010 c4 32 d5 3d 70 73 5f 3d 58 ac b9 bc 40 ff aa bc
       0.104100734 0.05455345 -0.022665188 -0.020873666
000020 8c a1 71 3d 34 53 a6 3d 69 d2 e1 3d ac 61 15 bd
       0.058991954 0.081213385 0.11026461 -0.0364701
000030 70 65 d8 3d f0 d0 40 bd 26 73 b1 bd a6 63 36 3d
       0.10566223 -0.04707426 -0.08664541 0.044528626
000040 84 df b8 3d d0 95 b1 3c 20 58 c4 3d b0 a2 93 3d
       0.09027007 0.021677881 0.09587121 0.072087646
000050 17 20 c1 bd fe f6 b7 3d f0 db 70 bd f8 4f 8f bc
       -0.09429949 0.08982657 -0.0588035 -0.017494187
000060 04 db 13 bd 40 1c ce bb c8 45 16 3d 4c c9 d7 3d
       -0.03609754 -0.0062899888 0.036687642 0.10536441
000070 78 26 c8 bc 46 7a fb bd 3c 21 5d 3c e0 98 b9 3d
       -0.024432406 -0.12279181 0.013496693 0.09062362
000080 68 2f 0b 3d 3c 2c 60 bd e8 60 5d 3d b0 48 04 3c
       0.033980757 -0.054729685 0.054047495 0.008073971
000090 b4 97 47 bd 20 cc 04 bc 8c 14 eb bd 68 dd bb 3d
       -0.04872866 -0.008105308 -0.114785284 0.09173089
0000a0 bc 77 9f 3d fc 2c b5 bd b8 8f 61 bd 28 a0 f2 3c
       0.077865094 -0.08846471 -0.0550687 0.029617384
0000b0 f6 d6 84 bd 24 1d 52 bd b4 9f c1 3d fc 39 a8 bd
       -0.06486313 -0.051297322 0.09454289 -0.08214185
0000c0 84 7b 83 3d 80 c5 91 3d fc 7e d5 bd 84 92 31 bd
       0.06420043 0.07117748 -0.10424611 -0.04335262
0000d0 1c d0 ee 3d 44 3b 08 bd 4c 73 c7 bd 59 31 6d bd
       0.116607875 -0.033259645 -0.09738788 -0.05790839
0000e0 d4 f6 aa bd 38 bf 38 3d ec 0c c3 3d 00 b3 0f 3d
       -0.0834786 0.045104235 0.09523949 0.035082817
0000f0 50 3d 26 bc bc bf da bd c0 21 20 bc 28 c7 ac 3c
       -0.010146454 -0.10681102 -0.009773672 0.021091059
000100 ce 30 fa bd 6c b7 e8 bd 30 4a 26 3d 94 64 b9 bd
       -0.1221634 -0.1136311 0.040598094 -0.09052387
000110 44 51 19 bd 04 c8 c0 3d a8 0d 5a 3d 30 a5 81 3c
       -0.037431017 0.0941315 0.05323568 0.015825838
000120 24 b5 54 bd 0a 45 da bd e0 64 5e 3d 78 fe 12 bd
       -0.05193056 -0.106576994 0.05429542 -0.03588721
000130 72 fe b8 3c b8 ad 3b 3d 28 2d 0e bd e8 5c cc bd
       0.022582266 0.045819968 -0.034711033 -0.09978658
000140 50 0b 41 bc f0 95 a8 bd 8d fe 61 3b 0c 06 be bd
       -0.011782482 -0.08231723 0.0034484 -0.09278497
000150 3e b0 fc 3d c8 fc a9 3d 60 5d f8 3b 76 13 a8 3d
       0.12338303 0.08300167 0.0075794905 0.08206837
000160 55 5e 67 bd 68 c0 5d bd 34 77 bf 3d 1d 93 6f bd
       -0.056486446 -0.05413857 0.09348908 -0.058489908
000170 48 a7 88 bd 0f 03 cd bc b2 32 8c bd 48 65 3f 3d
       -0.06672531 -0.025025873 -0.06845607 0.04672745
000180 e2 d2 d6 3d c0 eb 37 bb 6e ad 9d 3d 8c 5a 85 3d
       0.104894415 -0.0028064102 0.07699095 0.06511411
000190 80 42 a6 bb 9e 39 f3 3d ca 69 aa 3d f4 84 23 3d
       -0.0050738454 0.11876224 0.08320959 0.039921716
0001a0 d6 5c ad 3d ae 9a 83 3d a6 66 89 bd 0c 3f 51 bb
       0.08464973 0.06425987 -0.06709032 -0.0031928448
0001b0 f4 10 bf 3d 74 7f f5 bd 02 32 b9 3c 6e 4a fc bd
       0.093294054 -0.119872004 0.022606853 -0.12318884
0001c0 f0 8a 8f bc ec df 4c bd aa 50 de 3d c6 d2 84 3d
       -0.017522305 -0.050018236 0.10855229 0.06485514
0001d0 70 5c 94 3c a6 5d c7 bd 90 41 43 3d 34 26 32 3d
       0.018110484 -0.09734659 0.047669947 0.043493465
0001e0 47 78 4a 3d 50 36 0d 3d 61 99 61 bd 3c 21 78 3d
       0.04943111 0.034475625 -0.055077914 0.06057857
0001f0 26 64 90 3d b0 41 cf 3c 20 14 e8 3b f0 64 1e 3c
       0.07050352 0.025299877 0.007082477 0.00966762
000200 30 3d 63 3d 68 f8 7d 3d cc 4f bd 3c d2 e3 8d 3d
       0.055478275 0.062004477 0.02310934 0.06928219
000210 92 38 c7 3d 28 72 af 3d 64 ff ab bd 83 1c 1c bc
       0.09727587 0.085666955 -0.08398321 -0.009528282
000220 34 3d a7 bc f4 45 3b bd 62 ba a4 3d c0 8a c1 bb
       -0.020414926 -0.04572101 0.08043362 -0.005906433
000230 25 f4 84 3b 84 2a 13 3d 66 43 b2 bd 96 08 ff bd
       0.0040574246 0.035929218 -0.087042615 -0.124528095
000240 48 a5 76 3d 90 cb 08 bd 74 2a 5f bd 4d 3c 7c 3d
       0.06021622 -0.033397257 -0.054483846 0.061580945
000250 6a 17 b2 bd 14 40 52 3d 02 27 a2 3d 60 98 f9 bc
       -0.08695872 0.05133064 0.079175964 -0.030468166
000260 3c 38 fd bd 28 41 59 bd 3c c5 4a bd 5e 56 f6 3d
       -0.123642415 -0.053040653 -0.049504504 0.12028192
000270 be 80 d8 3d a0 da 13 bd 74 fd c9 3d 48 bd c6 3d
       0.105714306 -0.03609717 0.098627955 0.09704071
000280 90 22 17 3d d4 99 d4 3d db 1b d7 3c 10 d1 ef bc
       0.036898196 0.10380903 0.0262584 -0.029274493
000290 a4 5c c4 3d 1a 27 13 bd 4e 09 e7 bd 68 d9 9e bd
       0.09587982 -0.035925962 -0.112810716 -0.07756311
0002a0 de 54 dc 3d 9e 25 81 bd 29 42 16 bc c4 eb 17 bd
       0.10758375 -0.06306003 -0.009171047 -0.037090078
0002b0 10 aa 7e bc e0 8c ed 3d 00 03 9b bb 5c 02 d2 3d
       -0.015543476 0.115991354 -0.0047305822 0.10254356
0002c0 7f e7 87 bc c0 d7 14 3c f4 68 b2 bb e4 02 6b 3d
       -0.016589878 0.009084642 -0.0054446403 0.057375804
0002d0 dc 3f c5 bd ec 38 b0 3d d4 78 ec 3b e0 0d e9 bd
       -0.09631321 0.08604607 0.0072165523 -0.113795996
0002e0 1f 92 58 b7 50 b5 05 bd 08 0f 0f bd 2b d5 45 3d
       -1.2908625e-05 -0.032643616 -0.034926444 0.048298996
0002f0 94 af b0 bd 88 aa b5 bd 3e 34 b9 bd ba 38 a8 bd
       -0.08627239 -0.08870417 -0.090431675 -0.08213945
000300 d7 e6 a3 3a 1c a2 8f bc 4c ac 5d 3d 06 27 b1 bd
       0.0012504709 -0.017533354 0.054119393 -0.08650021
000310 30 0d 1c bc f4 c3 4d bd 2c 26 de bd e4 de 51 3d
       -0.0095246285 -0.050235704 -0.108471245 0.051237956
000320 5c a4 37 3d 6c 99 16 bd 4a a1 74 bc 08 f2 f1 3d
       0.04483448 -0.03676741 -0.014931032 0.11813742
000330 bc b2 be 3d c8 fc cb 3d 88 ee c8 bd 04 e2 5f bd
       0.093114346 0.099603236 -0.09811121 -0.054658905
000340 34 cf 73 3d f4 10 66 bd 9a b2 ac 3d 15 2b 0c 3d
       0.059523776 -0.05616851 0.08432503 0.034220774
000350 82 85 a9 3d 1c 10 f2 3d 68 c5 3b 3d b0 a5 aa 3c
       0.08277418 0.11819479 0.04584256 0.02083096
000360 0a 83 c6 3d d8 29 46 bd 9d 98 ec bd d0 3e 15 bd
       0.096929625 -0.04837975 -0.11552546 -0.036436856
000370 03 a6 c7 bd ec d3 4c 3d f2 f4 f2 bd 0c bb 7d bd
       -0.09748461 0.050006792 -0.11863126 -0.06194596
000380 5a b6 b7 3d 74 68 0a bd 3e d4 e5 bd 40 04 8b 3c
       0.08970328 -0.03379102 -0.112221226 0.0169698
000390 3f 46 0d 3d 7e c4 33 ba 9a fd ea 3d 40 3f 94 bc
       0.03449082 -0.0006857588 0.11474152 -0.018096566
0003a0 a8 07 29 3d 34 e0 ff bd f8 de 28 3d 80 a8 c5 bc
       0.041267067 -0.12493935 0.041228265 -0.024128199
0003b0 40 82 c6 bd 1e 4e 37 3c 60 e3 9d bd 14 b2 42 bd
       -0.09692812 0.011188058 -0.07709384 -0.04753311
0003c0 05 58 8f 3c 6c 68 20 bd dc 36 f9 3d 6c b3 ad 3a
       0.017498026 -0.039162084 0.12168667 0.0013252324
0003d0 68 b1 f1 3c 9e 0d bd bd fd ae 6e 3d 99 1b e1 bc
       0.02950354 -0.09231113 0.05827235 -0.02747898
0003e0 8a 0b ed bb b0 05 0f bd 90 2d a4 bd e0 6b 3a 3c
       -0.0072340416 -0.034917533 -0.08016503 0.0113782585
0003f0 60 5f d8 bc 1b ea a5 bb 20 86 ff 3c 23 0e 80 3c
       -0.026412666 -0.005063308 0.031191885 0.01563174

fc2.bias f4 [32]
000000 f4 6c 0c 3d e0 32 8e bc c4 b3 00 3d 00 85 7c bc
       0.034283593 -0.017358243 0.031421438 -0.015412569
000010 6f 75 88 3d 34 1e e3 3d 00 be a2 ba 50 b6 3a 3c
       0.06663024 0.11089745 -0.0012416244 0.011396006
000020 64 cd cf 3d 0e d7 b2 bd 0c 8c 28 3d 60 d6 6f bd
       0.10146597 -0.08732425 0.041149184 -0.058554053
000030 3e 35 84 bd b4 53 36 3d 94 c9 12 bd 54 8c 47 3d
       -0.06455468 0.04451342 -0.03583677 0.04871781
000040 40 a3 74 bc 60 22 34 bd f4 ee b2 3d 58 d7 84 3c
       -0.0149315 -0.043978095 0.08736983 0.016215965
000050 9c 3c 1d 3d 40 8f 16 bc 84 cc fe 3d 00 44 b0 ba
       0.03838788 -0.009189427 0.12441352 -0.0013448
000060 8a 3d 32 3d 18 93 9c bc e4 31 e3 3d 00 28 9a bb
       0.04351572 -0.019113109 0.110935 -0.0047044754
000070 ca b9 c4 bd 94 47 0f bd 8b 60 41 bd 80 ed 91 3b
       -0.09605749 -0.03498037 -0.04721121 0.004453361

pi.weight f4 [1, 32]
000000 d5 b8 01 3e 90 1c a4 bd d5 84 dd bd 39 f6 d7 bd
       0.12668164 -0.0801326 -0.10816351 -0.1054501
000010 e6 5d 7f bd a3 b7 a2 3d 18 11 10 be d3 36 bf bd
       -0.062345408 0.07945182 -0.14069021 -0.09336629
000020 44 f9 22 3d d5 81 15 bc be 78 ef 3d a8 97 99 3d
       0.0397885 -0.009125193 0.116929516 0.07499629
000030 5f 1c 69 3c 40 02 10 3d fb df 04 be f6 9f d6 3b
       0.014227956 0.035158396 -0.12976067 0.0065498305
000040 98 7c 7a bd f1 00 00 be 41 df 23 bd d7 62 0c be
       -0.061153978 -0.12500359 -0.040007833 -0.1370958
000050 13 8e e5 bd d2 c6 d6 bd 3f ae 8b bd 5c b8 88 bd
       -0.11208739 -0.10487141 -0.06820344 -0.06675789
000060 99 0f a9 bd f7 9b d1 bd 0e 8b 94 3d 3c 78 2f be
       -0.08254928 -0.10234826 0.07253085 -0.1713571
000070 eb 1c 2d 3e 4b c3 6b 3c 28 3b 5a 3d 43 94 97 3d
       0.16905563 0.014389823 0.053279072 0.074013256
