model/maddpg/agent_2_critic.pth (torch, 16526 bytes, 5 tensors)

fc1.weight f4 [64, 20]
0	0xbdb88314	-0.09009376
1	0xbd0e1cfe	-0.034695618
2	0xbe41ca0f	-0.18924735
3	0xbd84cb1c	-0.064840525
4	0xbe519e1f	-0.20470475
5	0xbadf888e	-0.0017054246
6	0x3e5fcbf6	0.21855149
7	0xbe4c1d77	-0.19933115
8	0xbe6332aa	-0.22187296
9	0xbdb2cc0f	-0.08730327
10	0xbe0b8774	-0.1362589
11	0x3d2333ec	0.03984444
12	0xbe27af23	-0.16375403
13	0x3e3bc386	0.18336305
14	0x3c22cebe	0.0099369865
15	0xbd2e3838	-0.042534083
16	0xbc61e045	-0.01378638
17	0xbdb2df14	-0.08733955
18	0x3c09c783	0.008409384
19	0xbe3e6f21	-0.1859708
20	0x3cd5e32d	0.026109302
21	0xbedeb9c3	-0.435011
22	0x3e567ace	0.20945284
23	0xbe6b0386	-0.22950563
24	0xbd33b575	-0.043874223
25	0xbed93236	-0.4242112
26	0x3e81ab48	0.2532599
27	0xbfa2654f	-1.2687167
28	0xbe5608d5	-0.20901807
29	0xbdeba790	-0.115065694
30	0xbe0c796c	-0.13718194
31	0xbd8b64da	-0.06806345
32	0x3ca13c17	0.019681973
33	0xbf006953	-0.5016071
34	0x3e840bb6	0.25790185
35	0xbf87d16d	-1.0610787
36	0x3fa6dffd	1.3037106
37	0x3e10cc60	0.14140463
38	0x3f3f91e6	0.74832
39	0xbf90f7cc	-1.1325622
40	0x3db42002	0.087951675
41	0xbdb3e379	-0.08783621
42	0xbd7de3ae	-0.06198471
43	0xbc670896	-0.014101168
44	0xbe467ccf	-0.19383548
45	0x3cbdaa9d	0.023152644
46	0x3e436e17	0.19084965
47	0x3e7cb82a	0.24679628
48	0x3de3002b	0.110840164
49	0x3d605f4d	0.054778386
50	0x3e0d2ab8	0.13785827
51	0x3ddb081d	0.10694907
52	0x3e3618f7	0.17782961
53	0x3eaa3d24	0.33249772
54	0x3e369384	0.1782971
55	0x3e1ca7a3	0.15298323
56	0xbe955c0d	-0.29171792
57	0x3d908a4d	0.07057629
58	0xbed95845	-0.42450157
59	0x3efef8ed	0.4979929
60	0xbddd4a39	-0.108051725
61	0x3de2428f	0.11047851
62	0x3ddeceba	0.10879274
63	0x3d7bf68a	0.061514415
64	0xbe114450	-0.14186215
65	0x3e006486	0.12538347
66	0x3d26a537	0.040684905
67	0xbcb477e7	-0.02202983
68	0xbe5a255a	-0.21303311
69	0x3de74dae	0.11294113
70	0xbd41b8a9	-0.047295246
71	0xbcb1cd58	-0.02170436
72	0xbe11f976	-0.14255318
73	0x3cca47b3	0.024692392
74	0xbd81d628	-0.06339675
75	0xbcdce450	-0.026964337
76	0x3e016cb7	0.12639128
77	0xbe371530	-0.17879176
78	0xbe2b521e	-0.16730544
79	0x3e0b4a0f	0.1360247
80	0xbe06fecb	-0.13183133
81	0x3e35ddd6	0.17760405
82	0xbdbf8553	-0.093516015
83	0xbe416f5e	-0.1889014
84	0xbc1cb2f2	-0.009564148
85	0xbe00fd9e	-0.12596747
86	0xbe02f8d9	-0.1279024
87	0x3e63bd1b	0.22240107
88	0xbde328eb	-0.11091789
89	0xbdc84e96	-0.09780614
90	0xbe571f9c	-0.21008152
91	0x3dc7cf9f	0.097563975
92	0x3c6cfe90	0.014464989
93	0x3d9e59f5	0.07732002
94	0xbe4521ee	-0.19251224
95	0xbde4c76d	-0.1117085
96	0x3d923e75	0.07140819
97	0x3d97fe39	0.07421536
98	0x3da40579	0.08008856
99	0xbc9d2f54	-0.019187607
100	0xbdac3d2d	-0.08410106
101	0xbe4cc705	-0.19997795
102	0x3e4cf619	0.20015754
103	0x3e42fb77	0.19041239
104	0x3e1e52c6	0.15461263
105	0xbe60099b	-0.21878664
106	0x3ddf7432	0.10910834
107	0x3dcdce71	0.10049141
108	0x3d6ceb87	0.057841804
109	0xbe62c244	-0.22144419
110	0xbd38bfcd	-0.04510479
111	0xbd8ce23d	-0.06879089
112	0xbe4d9369	-0.20075764
113	0xbe16f0bc	-0.1474027
114	0xbe6139d1	-0.21994711
115	0x3e2ac6b3	0.1667736
116	0x3dea36eb	0.11436256
117	0x3e30fd3a	0.17284098
118	0xbe264807	-0.16238414
119	0x3e5fd92b	0.21860187
120	0xbdb0c5da	-0.08631487
121	0xbe6372a8	-0.22211707
122	0x3dd38dbc	0.10329768
123	0x3d97d6e6	0.074140355
124	0x3df0e261	0.11761928
125	0xbdae9f9c	-0.08526537
126	0xbe586cb6	-0.2113522
127	0xbdd76fb2	-0.10519351
128	0x3d0f9d92	0.03506238
129	0xbd6d1056	-0.057876907
130	0xbd1620ec	-0.03665249
131	0x397c571c	0.00024065044
132	0x3ce0f1e8	0.0274591
133	0xbd5bf980	-0.05370474
134	0xbd2d270e	-0.042273574
135	0xbd6bfd31	-0.05761451
136	0xbe4fe65c	-0.20302719
137	0x3d1d9d34	0.03848
138	0x3e1f0f48	0.15533173
139	0x3c14d55e	0.009084074
140	0xbd8b4d10	-0.06801808
141	0x3df90156	0.12158458
142	0x3cc45994	0.023968495
143	0xbe3cd563	-0.18440776
144	0xbe525893	-0.20541601
145	0xbe3ea2e5	-0.18616827
146	0x3e1516b6	0.14559445
147	0x3dcbe8a5	0.09956483
148	0xbdd0f8fd	-0.10203741
149	0x3d08c241	0.03338838
150	0xbe479d7a	-0.19493666
151	0x3d1c85f9	0.038213704
152	0xbc2a986b	-0.010412316
153	0xbd8b3242	-0.06796695
154	0x3da48625	0.080333985
155	0xbe36c8e3	-0.1785007
156	0x3d8e3900	0.06944466
157	0x3d8d2874	0.068924814
158	0xbb48fb07	-0.0030667202
159	0x3e32042f	0.17384408
160	0x3deed519	0.11661739
161	0x3d19eb67	0.037578013
162	0xbdd30507	-0.10303693
163	0xbd9cb561	-0.07651783
164	0xbd3b5b2f	-0.045741256
165	0xbe155e01	-0.14586641
166	0x3e08424a	0.13306537
167	0xbc49a7fd	-0.012308118
168	0xbddfa213	-0.10919585
169	0xbe28fead	-0.16503401
170	0x3d057318	0.032580465
171	0x3e00e559	0.12587489
172	0xbd946fb2	-0.07247867
173	0x3dfb6f01	0.12277032
174	0xbcfcc356	-0.030854862
175	0xbddbb8f9	-0.1072864
176	0x3e096208	0.13416302
177	0x3ddfa0d1	0.10919345
178	0x3e115ead	0.14196272
179	0xbe0eb69c	-0.13936847
180	0x3d4c73de	0.049915187
181	0x3e304672	0.17214373
182	0xbe5aae6c	-0.21355599
183	0x3c06b589	0.008221992
184	0x3e2f333d	0.1710939
185	0xbd8f4f47	-0.06997543
186	0xbbe04aa6	-0.0068448363
187	0x3e5b8c34	0.21440202
188	0xbd545876	-0.051842175
189	0x3db98afd	0.09059713
190	0xbda55b9e	-0.08074115
191	0x3d97082c	0.073746055
192	0x3dff7fac	0.12475523
193	0xbbe9b606	-0.0071322946
194	0xbdd77aea	-0.10521491
195	0x3e118b05	0.14213188
196	0xbe1ae0bf	-0.15124796
197	0x3e3a5e40	0.18200016
198	0x3c96512a	0.018349249
199	0x3e58c534	0.21168977
200	0xbe16be54	-0.14721042
201	0x3ea7f137	0.3280122
202	0x3e3ce200	0.18445587
203	0xbe44a179	-0.19202222
204	0xbdda1f4c	-0.10650501
205	0x3dc4fc12	0.09618391
206	0x3c909b58	0.017652199
207	0x3f9d5162	1.2290461
208	0x3e4add7a	0.19811049
209	0x3e035c08	0.12828076
210	0x3d74d4e0	0.059773326
211	0x3ee39b68	0.44454503
212	0x3d904bea	0.070457295
213	0x3f1cb160	0.6120815
214	0xbe8838e1	-0.26605895
215	0x3f7a869d	0.97861654
216	0xbfa709d4	-1.3049874
217	0x3da8704a	0.082245424
218	0xbf2e7ee2	-0.6816236
219	0x3f67820c	0.9043281
220	0xbd8b6cf5	-0.06807891
221	0xbe5aa850	-0.21353269
222	0xbe0495e2	-0.12947801
223	0x3da49ec1	0.080380924
224	0xbe2b240e	-0.16712973
225	0x3e07c1d4	0.13257533
226	0x3d30be4e	0.04315024
227	0x3d8f832f	0.07007443
228	0x3dfb6934	0.12275925
229	0xbe5865fa	-0.21132651
230	0x3e1599d2	0.14609459
231	0x3dd485ec	0.10377106
232	0x3dcea2d7	0.10089653
233	0x3e2fa82e	0.17153999
234	0xbde16a63	-0.1100662
235	0x3db2c927	0.08729773
236	0x3e3e501d	0.18585248
237	0x3c86396f	0.016384808
238	0x3e4fdf00	0.20299911
239	0xbd81e4f5	-0.06342498
240	0x3e253e1c	0.16136974
241	0xbcaff516	-0.02147917
242	0xbe527dcf	-0.20555805
243	0xbdca2787	-0.098708205
244	0xbe005905	-0.12533958
245	0x3de22d71	0.110438235
246	0xbe51bb73	-0.20481662
247	0xbd0e8132	-0.03479118
248	0xbe22a288	-0.15882313
249	0x3cb650e3	0.022255367
250	0xbd36036f	-0.04443687
251	0x3dccc0df	0.09997725
252	0xbd1369c1	-0.035989527
253	0xbd0362a8	-0.032076508
254	0xbd0cd81f	-0.034385797
255	0xbda45818	-0.08024615

fc1.bias f4 [64]
0	0x3e1f46f7	0.15554415
1	0x3e1e546f	0.15461896
2	0xbd86aa61	-0.06575466
3	0xbe5200ee	-0.20508167
4	0x3e1075f0	0.1410749
5	0xbd83db80	-0.06438351
6	0x3e2749f7	0.16336809
7	0xbda026da	-0.0781991
8	0x3e4d263a	0.20034114
9	0xbe1a17bd	-0.15048118
10	0x3d957b2a	0.07298882
11	0x3e143622	0.14473775
12	0x3e2111c5	0.15729435
13	0xbe242fab	-0.16033809
14	0xbd12ae1d	-0.03581058
15	0x3e2e6b59	0.17033137
16	0xbdc102af	-0.0942434
17	0xbd517b41	-0.051142935
18	0x3e255b1f	0.16148041
19	0x3dc0ea74	0.094197184
20	0xbe40fc21	-0.1884618
21	0xbd85f1e7	-0.0654028
22	0x3dcc443d	0.09973953
23	0x3da9a1f7	0.082828455
24	0x3d8c5f35	0.06854097
25	0xbe4a87fe	-0.1977844
26	0x3d6d5911	0.05794627
27	0xbdd0722c	-0.101780266
28	0xbcea2a64	-0.028584667
29	0xbe088d7c	-0.13335222
30	0xbe2d9220	-0.16950274
31	0xbd6a66e5	-0.057227034
32	0x3d4762dd	0.048678268
33	0xbe2e08b1	-0.16995503
34	0x3d9baf33	0.07601776
35	0x3c625610	0.013814464
36	0xbbb96118	-0.0056573264
37	0x3e105196	0.14093623
38	0xbdde7d38	-0.10863727
39	0xbba6acdb	-0.005086524
40	0x3d9dce3c	0.07705352
41	0xbe0a7de6	-0.13524589
42	0x3e34f50e	0.17671606
43	0xbd826d98	-0.063685596
44	0x3dc3d29f	0.09561657
45	0x3dd28a16	0.10280244
46	0xbde796c2	-0.11308052
47	0x3e3e06a7	0.18557225
48	0xbe077f25	-0.13232096
49	0x3da3da17	0.08000582
50	0x3e5e4178	0.21704662
51	0x3de172ce	0.110082254
52	0xbde9a977	-0.11409276
53	0x3dfbad47	0.122889094
54	0xbd31fcb8	-0.043453902
55	0x3d57655a	0.05258689
56	0xbda2876d	-0.07935987
57	0xbe2eb762	-0.17062142
58	0x3e621b1f	0.22080658
59	0x3d4e62a7	0.05038705
60	0xbc04057e	-0.00805795
61	0xbe5a565d	-0.21322007
62	0x3d2e0d66	0.042493246
63	0x3d669fda	0.05630479

fc2.weight f4 [32, 64]
0	0xbd2ff1bc	-0.042955145
1	0xbde11582	-0.109904304
2	0x3c9de078	0.019272074
3	0xbcdc56f0	-0.026896924
4	0x3d9f35f6	0.07773964
5	0xbd84bf4e	-0.06481801
6	0x3dd8e48c	0.10590467
7	0xbdcb437c	-0.09924981
8	0x3dff828e	0.12476073
9	0xbdd61500	-0.10453224
10	0x3dcbaf94	0.09945598
11	0xbd5a5f6c	-0.053313658
12	0xbda875ce	-0.082255945
13	0x3d8abda4	0.06774452
14	0xbdf30ddc	-0.11867878
15	0xbd3bccd0	-0.04584962
16	0x3d996618	0.07490176
17	0xbd47d094	-0.0487829
18	0xbde025e8	-0.1094473
19	0x3de72098	0.11285514
20	0x3d5bdd68	0.053677946
21	0x3cb75148	0.022377625
22	0xbde6dff0	-0.112731814
23	0xbdc2068a	-0.094739035
24	0xbd117154	-0.03550847
25	0x3d8680c2	0.06567527
26	0xbcafe3c8	-0.02147092
27	0xbdc48fac	-0.09597716
28	0x3dea7fb8	0.11450142
29	0x3dbf8434	0.093513876
30	0x3cfd45d8	0.030917093
31	0x3d58b660	0.0529083
32	0x3dc02098	0.09381217
33	0x3dc92440	0.09821367
34	0xbdf49b0e	-0.11943637
35	0xbc98a8a0	-0.018635094
36	0xbcb7aef8	-0.022422299
37	0x3deb8ada	0.11501093
38	0x3dc94698	0.09827918
39	0xbd948b10	-0.072530866
40	0xbdc088e8	-0.09401113
41	0x3d9be0cc	0.07611236
42	0xbd632e60	-0.05546415
43	0xbda2323a	-0.07919736
44	0xbcf708d8	-0.030155584
45	0x3d2c2698	0.042028993
46	0x3d6c9884	0.057762638
47	0xbdc28d2e	-0.09499584
48	0x3ddc95dc	0.10770771
49	0xbd34b9f0	-0.044122636
50	0xbca7f428	-0.020502165
51	0x3d688584	0.056767955
52	0x3d90fd78	0.07079595
53	0x3c70b5e0	0.0146918
54	0x3db9199a	0.09038086
55	0x3dc2b55c	0.09507248
56	0x3cf3b7f0	0.029750794
57	0xbde66e06	-0.11251454
58	0xbd8d7c04	-0.0690842
59	0xbd1f1618	-0.03883943
60	0xbd7f539c	-0.062335595
61	0x3da45fc6	0.0802608
62	0xbda731a6	-0.081637666
63	0x3d9f6dd0	0.07784617
64	0x3d87c6a0	0.066296816
65	0x3d957c38	0.072990835
66	0xbda620d0	-0.08111727
67	0xbd1eb458	-0.038746208
68	0x3d8b552a	0.06803353
69	0xbd4b1f6c	-0.049590513
70	0xbd423fb8	-0.04742405
71	0x3d0dcbb8	0.03461811
72	0xbd951ad2	-0.07280506
73	0xbd856254	-0.06512895
74	0x3de1f13e	0.110323414
75	0xbb1985c0	-0.0023425668
76	0x3c43a840	0.011941969
77	0xbd4fcb00	-0.050730705
78	0xbda9ab86	-0.082846686
79	0xbdbeebfa	-0.09322353
80	0xbda57ea8	-0.080807984
81	0xbd83e5d2	-0.06440319
82	0xbc31fbc0	-0.0108632445
83	0xbd9edd26	-0.077570245
84	0xbc56aac0	-0.013102233
85	0x3d529330	0.0514099
86	0x3c3e32c0	0.011608779
87	0x3d2f337c	0.04277371
88	0x3d58d1b0	0.05293435
89	0x3cb954c0	0.02262342
90	0x3dbac616	0.09119813
91	0x3da747a8	0.08167964
92	0xbca27b08	-0.019834056
93	0xbd9bd550	-0.076090455
94	0xbdfc4166	-0.12317161
95	0x3c31b550	0.010846451
96	0x3cf6a518	0.03010802
97	0xbd4f9de4	-0.050687686
98	0xbcb5c510	-0.022188693
99	0xbda988ec	-0.08278069
100	0x3ae0af80	0.0017142147
101	0xbddb5d80	-0.10711193
102	0xbd982646	-0.07429175
103	0x3de2da22	0.11076762
104	0xbdd693f6	-0.1047744
105	0xbcbb8928	-0.02289255
106	0x3d908e8e	0.0705844
107	0xbc3cdad0	-0.011526778
108	0xbc8c6658	-0.017138645
109	0xbdfb9048	-0.12283379
110	0x3ce016d0	0.027354628
111	0x3d3355a8	0.04378286
112	0xbd081070	-0.0332188
113	0xbc5c86a0	-0.0134598315
114	0xbc0d7600	-0.00863409
115	0x3cdd5f08	0.027022853
116	0xbd9bc25c	-0.076054305
117	0x3d9154be	0.070962414
118	0x3ccb9758	0.02485244
119	0xbccbe8f8	-0.024891362
120	0x3c7f7110	0.015590921
121	0x3c91bab0	0.017789215
122	0xbdd9fd94	-0.10644069
123	0xbda7abf6	-0.08187096
124	0x3dbd053a	0.092295125
125	0x3d47ab00	0.048747063
126	0x3cc57a18	0.02410607
127	0xbd85279e	-0.06501697
128	0xbdb39162	-0.08767964
129	0xbd387690	-0.045034945
130	0xbd55c628	-0.05219093
131	0x3d6847d4	0.056709126
132	0x3df9712a	0.121797875
133	0x3d505678	0.050863713
134	0x3dbe54cc	0.092935175
135	0x3d9b5de4	0.075862676
136	0x3d72e46c	0.05929987
137	0x3c2a5ed0	0.010398582
138	0x3cfe22c0	0.03102243
139	0x3d9e5fa4	0.07733086
140	0xbdc218ae	-0.094773635
141	0x3d848a56	0.06471698
142	0xbddf7900	-0.10911751
143	0xbde4b870	-0.11167991
144	0xbde19f1c	-0.11016676
145	0xbd3182f8	-0.043337792
146	0x3d117068	0.03550759
147	0xbc4dd700	-0.012563467
148	0x3da4add4	0.080409676
149	0x3b9d4a00	0.0048000813
150	0xbd05903c	-0.032608256
151	0x3d5303c8	0.051517278
152	0xbdcf5fb4	-0.10125676
153	0x3dca0ffc	0.0986633
154	0x3d7325ec	0.059362337
155	0xbda9d932	-0.0829338
156	0xbd6e81fc	-0.05822943
157	0xbd8a60ee	-0.06756769
158	0xbc7bc940	-0.015367806
159	0xbbdf0260	-0.006805703
160	0xbd641e54	-0.055692986
161	0xbdf80f82	-0.12112333
162	0xbc9e40d8	-0.01931803
163	0xbdadd134	-0.08487168
164	0x3cccbd10	0.024992496
165	0x3d8bcc34	0.06826058
166	0xba8d6f80	-0.0010790676
167	0x3d7aa968	0.061196715
168	0x3dc988fe	0.09840582
169	0x3d13fd60	0.03613031
170	0x3cc24ee8	0.023719266
171	0x3d9295be	0.07157467
172	0x3d3d99d8	0.046289295
173	0xbda3eb58	-0.08003873
174	0x3cd3acd0	0.02583924
175	0x3dfec6a0	0.124402285
176	0x3df2fa50	0.118641496
177	0x3c91aef8	0.017783627
178	0x3d90637e	0.07050227
179	0x3d874de0	0.0660665
180	0xbd30dffc	-0.04318236
181	0xbdb752b4	-0.08951321
182	0x3d313e7c	0.04327248
183	0x3c9259c8	0.017865077
184	0xbd5aba44	-0.053400293
185	0x3cd2c2d0	0.02572766
186	0xbda21880	-0.07914829
187	0x3dbdc76c	0.09266552
188	0xbde1742a	-0.11008485
189	0xbdc30e8e	-0.095242605
190	0x3c4c00d0	0.012451366
191	0xbd0f3b74	-0.03496881
192	0x3db75e66	0.08953552
193	0x3cd8b72a	0.026454527
194	0xbd52bf61	-0.051452044
195	0xbd2df394	-0.042468622
196	0x3df4b7e0	0.11949134
197	0x3d67dd70	0.056607664
198	0xbd2d0a50	-0.042246163
199	0xbddd63f4	-0.1081008
200	0x3dfee32c	0.12445673
201	0x3db1a8f0	0.086748004
202	0x3d86ded7	0.06585472
203	0x3d0f65b0	0.035009086
204	0xbcefaff0	-0.029258698
205	0x3cc5d7bc	0.024150722
206	0xbc61af10	-0.013774648
207	0x3d988443	0.07447102
208	0x3d6a622e	0.057222538
209	0x3d321385	0.043475647
210	0xbd93cd5c	-0.072169036
211	0x3df7e03a	0.12103315
212	0xbd221396	-0.03956946
213	0x3dfb9173	0.122836016
214	0xbdd50fba	-0.1040339
215	0xbbfd6d60	-0.007733986
216	0xbd654e04	-0.055982605
217	0x3dc1581d	0.094406344
218	0xbca82117	-0.020523591
219	0x3dd009d9	0.10158128
220	0xbd0c6332	-0.034274288
221	0x3d443976	0.04790636
222	0xbd0c8147	-0.034302976
223	0x3d551708	0.052023917
224	0x3d455428	0.04817596
225	0xbd4f67cc	-0.050636098
226	0x3dee6863	0.11641004
227	0xbdb9c945	-0.09071592
228	0x3d034c8e	0.03205543
229	0x3d51b900	0.05120182
230	0x3cb85ae8	0.022504285
231	0x3cce0853	0.025150454
232	0x3dd42608	0.103588164
233	0x3c276d6e	0.010218961
234	0x3da6e3ac	0.08148894
235	0xbdf4d436	-0.119545385
236	0xbdf2d605	-0.11857227
237	0xbca11e48	-0.01966776
238	0xbd8224a8	-0.06354648
239	0x3dac8f14	0.084257275
240	0x3d12e50c	0.035862967
241	0x3d9b4e5e	0.07583307
242	0xbcb9fa08	-0.022702232
243	0xbc9638d6	-0.018337648
244	0xbdd561e2	-0.1041906
245	0x3c092041	0.008369506
246	0x3d712533	0.058873367
247	0x3d86a4a0	0.065743685
248	0xbdff6e12	-0.12472166
249	0x3d817f84	0.0632315
250	0x3dee0d88	0.11623675
251	0x3dffd2b4	0.1249136
252	0xbdb67caf	-0.089105
253	0x3d77ba80	0.060480595
254	0xbdb09ea2	-0.08624007
255	0xbc749d50	-0.014930084

fc2.bias f4 [32]
0	0x3d96be46	0.073605105
1	0x3dddff6c	0.108397335
2	0xbce67910	-0.028133899
3	0xbdaa3ed4	-0.08312765
4	0x3cf5bcb6	0.029997211
5	0xbdc33b12	-0.09532751
6	0xbd0c4765	-0.034247775
7	0x3ce29ff3	0.02766416
8	0x3daaa500	0.083322525
9	0xbd848230	-0.06470144
10	0xbd5e8b6a	-0.054332174
11	0x3d6b8cef	0.05750745
12	0xbdf79cf4	-0.12090483
13	0xbdfe0cec	-0.124048084
14	0xbd4221c2	-0.047395475
15	0x3d67ba16	0.05657395
16	0x3dcd3b78	0.100211084
17	0x3deb5d48	0.11492401
18	0xbd82f47d	-0.06394289
19	0x3dac8908	0.08424574
20	0x3cd0fd96	0.025511544
21	0x3c2a1019	0.010379815
22	0xbcfd77e1	-0.030940952
23	0xbdba1bdc	-0.09087345
24	0xbd2c9345	-0.042132635
25	0x3d258e64	0.040418997
26	0x3d98e4e1	0.0746553
27	0xbdd38f0c	-0.103300184
28	0xbdb1c4aa	-0.08680089
29	0x3d97b9b4	0.07408467
30	0x3daf00d6	0.08545081
31	0x3da3e3fe	0.080024704

q.weight f4 [1, 32]
0	0xbc252ec1	-0.010081948
1	0x3d43e179	0.04782245
2	0x3ca3a058	0.019973919
3	0xbad1f9f3	-0.0016019925
4	0xbe21cf2d	-0.15801688
5	0x3cac0116	0.020996612
6	0x3e301c1b	0.17198221
7	0xbdf8493d	-0.12123344
8	0x3da78d06	0.08181195
9	0x3d0d9813	0.034568857
10	0xbda50b9b	-0.08058854
11	0x3d8dbf61	0.06921268
12	0xbe1f5b99	-0.15562285
13	0x3d19afa4	0.03752102
14	0x3dad29d9	0.084552474
15	0x3d9205d2	0.071300164
16	0xbe096eb6	-0.13421139
17	0x3da6e4d5	0.08149115
18	0xbda5624f	-0.080753915
19	0xbc494ebd	-0.012286839
20	0x3de282d9	0.110601135
21	0x3d885641	0.066570766
22	0x3d14eca4	0.03635849
23	0xbd67a862	-0.056557067
24	0x3e3265dc	0.17421669
25	0xbe0b9d90	-0.13634324
26	0xbe131ef2	-0.14367273
27	0x3c850139	0.016235935
28	0xbbbeba9b	-0.005820585
29	0xbe1ab7ec	-0.15109223
30	0xbe28e5a0	-0.16493845
31	0xbc50c822	-0.012743028
