model/maddpg/agent_1_actor.pth (torch, 12676 bytes, 5 tensors)

fc1.weight f4 [64, 5]
000000 03 d1 16 bf 2b 44 27 3f fd db c7 3e c4 9a bb be
       -0.58912677 0.6533839 0.39035025 -0.36641514
000010 c6 39 bb bd 50 90 c2 be 2b e6 42 3f e9 b0 48 3e
       -0.09141879 -0.38000727 0.7613246 0.19598736
000020 2f 5b 89 be 57 8e 84 be 3b 81 29 be c1 ef 1a 3f
       -0.2682738 -0.25889847 -0.16553204 0.60522085
000030 c8 91 8e 3e f2 16 0d bd 41 fe a4 bd c0 ee 82 bc
       0.27845597 -0.03444571 -0.080563076 -0.015982985
000040 c8 ca 98 3e e6 4b 1d bd a6 71 99 be 7f c0 71 be
       0.2984221 -0.03840246 -0.2996952 -0.23608588
000050 5f 45 3b be 9e 49 db be 06 00 ef be db ba ef 3c
       -0.18288182 -0.42829603 -0.46679705 0.029263904
000060 d7 15 d7 3e 59 76 ea 3d 3d 10 c2 be 85 01 e5 3e
       0.4200885 0.11448354 -0.37903014 0.44727722
000070 76 0c b1 be 0a 51 d1 3d 67 07 a9 be 3a 0c 7f 3e
       -0.3457982 0.10220535 -0.3301346 0.24907008
000080 4b 59 0c 3f ab cf 0d be 04 03 b5 3e 9e 0c 51 bd
       0.5482375 -0.1384875 0.35353863 -0.051037423
000090 0f 50 8b 3e 22 9a 19 be 8e db f1 be e3 50 63 be
       0.27209517 -0.15000203 -0.4723782 -0.22198825
0000a0 f9 1b 82 3e 9b 34 f3 be 26 81 cb 3e d3 5d 18 bf
       0.25411966 -0.47501072 0.3974697 -0.59518164
0000b0 95 e5 76 3e 8b 3c ad 3e 3e 14 21 3d 11 78 c0 3e
       0.24111016 0.33835253 0.039325945 0.37591603
0000c0 85 5d e4 be 6c b1 5d 3e b4 49 e2 be 02 53 08 3f
       -0.446026 0.21649712 -0.44196856 0.5325166
0000d0 58 aa 96 3e b9 2d 94 be 0d ef 26 bd 34 6a 69 3e
       0.29426837 -0.28941134 -0.04075532 0.2279442
0000e0 cb 79 66 be da c2 67 3e e5 0e b4 be 62 a4 2e be
       -0.22507398 0.22632924 -0.35167614 -0.17054895
0000f0 dc 6c 65 bd 2b 4f c6 be 69 ea 4b be 24 15 c0 3e
       -0.05601202 -0.38732275 -0.19913639 0.3751613
000100 e5 05 49 be 14 b3 ca 3d db 34 a4 3e 89 e1 47 3e
       -0.19631155 0.09897438 0.32071576 0.19519629
000110 0d bb e6 3e 51 63 a1 3e 7d cb f7 3e 32 e8 b6 3e
       0.45064583 0.31521085 0.48397437 0.35724026
000120 cd d6 06 bd fb f0 20 3e 8b a1 0a 3e 8f e4 9e bd
       -0.032919694 0.15716927 0.13538186 -0.07758438
000130 47 fe ad bb 5a 00 4d 3f 77 ef 62 be aa 63 81 bd
       -0.0053098532 0.8007866 -0.22161661 -0.063178375
000140 25 d9 1c be 6e 75 11 bd 1c 19 14 bf ba 57 cd 3d
       -0.15317209 -0.03551238 -0.57850814 0.10026498
000150 81 03 4e 3c b3 1f aa be ad dd 4f 3f d3 73 b2 3e
       0.012574078 -0.3322731 0.81197625 0.34853992
000160 78 8c 6d be ac 41 5b 3c d8 68 0e bf 8c 08 46 3d
       -0.23198116 0.013382357 -0.5562873 0.048347995
000170 b4 7b 2b 3f 0a ec 24 bf ac 7d 8c be 05 15 da 3e
       0.6698563 -0.6442267 -0.2743963 0.42594162
000180 b5 47 0c bc 73 81 89 be ae d1 ad 3e 56 21 90 3c
       -0.008562018 -0.26856574 0.33949035 0.01759402
000190 89 4a d5 3e 40 2d 00 be e3 9f 9d bd 95 dc a4 3e
       0.41658428 -0.12517262 -0.076965116 0.3219954
0001a0 7f 31 87 bd d2 a2 79 bb 06 93 f5 3d 48 e2 85 3d
       -0.066012375 -0.0038091433 0.11990933 0.065373
0001b0 e5 06 88 3e 40 42 f8 bd 39 b1 d8 be 7f f3 a9 3e
       0.2656776 -0.12122011 -0.4232271 0.33193585
0001c0 e3 c4 e8 be 86 a7 ff 3e 17 d4 66 3d 19 d1 f6 3d
       -0.45462713 0.49932498 0.05635461 0.12051601
0001d0 f3 6b b5 3e 01 da 08 3f 0c 5b 12 be b2 13 ef 3a
       0.3543392 0.5345765 -0.14292544 0.0018240123
0001e0 ac 54 c4 3e 6f ae c3 be fd 2c b8 be 59 0b 4e be
       0.3834585 -0.3821902 -0.35971823 -0.20121516
0001f0 e1 b9 69 be f6 b6 84 be f3 77 1a 3e f7 e6 fb 3e
       -0.22824813 -0.25920838 0.1508482 0.4919965
000200 cc 70 7e 3e 52 5c 38 3e 24 8f b3 3e c6 8b 8d be
       0.24847716 0.18003967 0.35070145 -0.276457
000210 87 fe b3 bd 67 f1 c2 be b8 2a 65 3e 64 20 aa 3e
       -0.087887816 -0.380748 0.22379577 0.33227837
000220 01 24 94 be 55 a1 b3 be fd a9 40 be b2 75 98 3e
       -0.2893372 -0.35084024 -0.18814845 0.29777294
000230 6b 85 31 3b e7 a1 cc 3e b1 d4 fd be a7 d3 a6 bc
       0.002708758 0.39967272 -0.49576333 -0.020364596
000240 79 82 fe 3e 64 4a dc 3e 9c c3 db bb 88 ed 7d 3e
       0.49708918 0.43025506 -0.006706668 0.24797642
000250 9b cc 88 bd 3d e1 a8 3e 70 28 ae be 38 67 a4 be
       -0.066796504 0.32984343 -0.34015226 -0.3211
000260 41 b7 85 3d 77 cc 2b 3e 40 d1 04 be c8 38 e0 3c
       0.065290935 0.16777216 -0.12970448 0.027370825
000270 81 55 26 3e c0 61 4f be 5a bf 9f 3e 13 3d 81 3d
       0.16243555 -0.20252132 0.31200677 0.06310477
000280 cc 63 bb be 49 d3 18 3e f9 bb c6 3e 91 fe 70 be
       -0.36599576 0.14924349 0.38815287 -0.2353461
000290 c5 52 cd 3d bf 1c a6 bd 3a 57 c2 3e 1a fe 4d 3f
       0.10025553 -0.08110952 0.37957174 0.80465853
0002a0 2c 2e 87 bf c1 59 ab bd 1a f7 94 be 29 59 a1 bd
       -1.0560966 -0.083667286 -0.29094774 -0.07878334
0002b0 d2 0a ee 3e 6b 14 fe 3e e0 13 8b 3e 35 34 11 bf
       0.4649263 0.49624953 0.271636 -0.56720287
0002c0 40 ad 29 3f 7c d9 d1 bd 8d 3e 18 3f 2c 6e 0b be
       0.66279984 -0.1024656 0.59470445 -0.13616246
0002d0 45 af c9 3e f6 26 c2 3e 90 27 1f 3d fa 82 b6 3d
       0.39391533 0.3792035 0.03885609 0.089117005
0002e0 a0 73 d2 bd e1 7f ee 3e 45 63 ca 3d dc c1 0a 3f
       -0.1027596 0.4658194 0.098822154 0.54202056
0002f0 6b fc a7 be b8 f7 5e 3e 67 2a 96 be 9d cd 06 be
       -0.32809767 0.21774185 -0.29329225 -0.13164373
000300 12 9e ed be 48 0f 06 3d 9f d1 2b 3e f1 7f d7 3c
       -0.4640966 0.032729417 0.16779183 0.026306124
000310 40 d4 c8 be 71 dc fb 3d 7f c5 c7 bd 2c 5c 9d 3e
       -0.39224434 0.12297905 -0.09754466 0.30734384
000320 27 08 d0 3e bf 67 34 3b 03 01 8d 3d c0 69 9f bd
       0.4063122 0.0027527658 0.068849586 -0.07783842
000330 8b e7 a6 be d4 54 99 3e e1 5b ff be 4e 98 b4 be
       -0.32598528 0.2994753 -0.49874786 -0.3527245
000340 d4 7e 3f bd b8 99 8c 3e 58 52 d8 be 9c d5 87 bd
       -0.046751812 0.27461028 -0.42250323 -0.0663254
000350 f7 70 11 3d 19 38 1e be 22 4f e7 3e e0 a7 97 3e
       0.035508122 -0.15451087 0.4517756 0.29620266
000360 5f c7 4a be c6 dd 4e be b5 0e 72 bd 14 11 90 3d
       -0.19802617 -0.20201787 -0.059096057 0.070345074
000370 4f 67 65 3e dd f9 7b be 2c f6 7f 3e ae 68 4d be
       0.2240269 -0.24607034 0.24996251 -0.20059463
000380 74 9f 6e 3e 43 8a 14 bf 4a d5 90 3d 33 f3 b0 bd
       0.23303014 -0.5802347 0.07071932 -0.086401366
000390 98 37 ef 3e 2c 85 0f be 12 96 19 3e e0 80 89 3e
       0.46722102 -0.14015645 0.14998654 0.26856136
0003a0 35 d8 9c bd 21 48 ee bd 53 f6 b3 bd f0 86 6b 3e
       -0.07658426 -0.11634851 -0.08787217 0.23000693
0003b0 d8 bf 13 bf 8c ba 78 3e da b5 a8 be 92 ba 02 3e
       -0.57714605 0.24289912 -0.32951242 0.12766483
0003c0 31 5d da be ce 42 db bd c6 a4 57 be 1a 28 c0 3e
       -0.42649224 -0.10706101 -0.2105895 0.37530595
0003d0 9e bc ca 3e f2 ee e5 be 9b 95 2b bd f1 b6 9d 3e
       0.39597028 -0.44908863 -0.04189072 0.30803636
0003e0 aa 50 ba bd 57 3c 2e bd 12 e2 39 3e 40 c7 13 3e
       -0.09097417 -0.042538013 0.18152645 0.14431477
0003f0 6d 86 cc 3c e2 44 2f 3d c3 cc 72 be ee 43 2b be
       0.024966443 0.0427903 -0.23710923 -0.16725132

fc1.bias f4 [64]
000000 ef 37 96 3e 9a 9b 0c 3f f2 69 5f be 87 6e 2b 3c
       0.2933955 0.5492493 -0.21817759 0.0104633635
000010 e9 b4 dd bd 46 f7 33 3e 90 4a e5 be a2 5d 52 3e
       -0.108255215 0.17574796 -0.4478345 0.2054353
000020 a6 27 8b be 69 26 df be a9 9a 0e bd fd 3d f5 bd
       -0.27178687 -0.43583992 -0.034815464 -0.11974714
000030 00 d9 86 be 07 da 5c 3e aa 21 e9 bd 35 f5 bb be
       -0.26337433 0.21567546 -0.11383374 -0.36710516
000040 39 3f 54 3e c0 6c 90 3e 99 44 f5 3e 52 8e 9f bd
       0.20727243 0.2820797 0.47903898 -0.07790817
000050 43 1c ba 3e 6d 5d 7c be 02 58 c3 3e ea 19 bf bc
       0.36349687 -0.24645014 0.38153082 -0.023327786
000060 17 0a e5 bd a1 21 ee be 8b de b6 be c5 3b 5e be
       -0.11183565 -0.46510032 -0.35716662 -0.21702488
000070 06 54 5b be 1d c0 8b 3e 3d 34 84 bd 5f ca 11 3e
       -0.21418771 0.27295008 -0.06455276 0.14237355
000080 58 26 18 be 7f e0 a9 3e cc b8 4a be 69 fc 7b bc
       -0.14858377 0.3317909 -0.19797057 -0.0153800035
000090 98 df 66 be 74 08 7e 3e c7 c1 d2 3d c7 36 b5 be
       -0.22546232 0.24807912 0.10290866 -0.35393354
0000a0 94 43 e2 3d 85 6f c9 be 97 3b 66 be f2 c0 a3 bb
       0.11048046 -0.39342895 -0.22483669 -0.004997366
0000b0 af 40 0b bf cc c5 85 3d 5a 4a 9a bc a9 f3 65 be
       -0.54395574 0.065318674 -0.018834282 -0.2245623
0000c0 8a 70 c2 bd 61 d3 d7 3e d4 a9 90 be 61 35 6f be
       -0.094941214 0.42153457 -0.2825457 -0.23360206
0000d0 cf 55 b8 bd 5f aa 43 bd 33 b6 9b 3e 8a 54 7c 3d
       -0.09000742 -0.0477699 0.30412444 0.06160406
0000e0 f2 d7 a0 bd e9 7e f9 be 82 3a 90 be 18 62 83 be
       -0.07853688 -0.48729637 -0.28169638 -0.25660777
0000f0 1a f0 80 3c 08 9f 49 3e c6 e2 62 be 4e c0 8f be
       0.01573949 0.19689572 -0.2215682 -0.28076404

fc2.weight f4 [32, 64]
000000 fb 60 05 3f f7 a8 20 3f 54 6c cf 3e 68 de ab be
       0.52101105 0.6275782 0.40512335 -0.3356812
000010 a7 f1 74 bd d9 16 5a 3d 19 56 1d 3e e7 cb 9e be
       -0.05980077 0.053244445 0.15364875 -0.3101494
000020 ad c2 7e 3d 3d 81 99 bc 6a ec d5 3e b1 d1 e5 bc
       0.062197376 -0.018738383 0.41781932 -0.02805409
000030 96 e2 91 be bf 11 de 3d 5d 37 2c be 6a a8 bb 3e
       -0.28493184 0.108432285 -0.16817994 0.36651927
000040 d2 3f 05 bf b9 db 99 3e 59 b1 f6 3e e2 ad db bd
       -0.5205051 0.30050448 0.4818218 -0.10726525
000050 82 c8 aa 3d 30 3d d7 3d 84 01 f8 3d 75 be 53 3d
       0.08339025 0.105097175 0.12109664 0.051695306
000060 9c 14 d8 bd 93 ac 10 3e e6 b7 ef 3c 66 e4 92 be
       -0.10550806 0.14128332 0.029262494 -0.2868988
000070 3f e0 f2 3b f7 a7 2a be 0a d1 40 3f 27 ad dd 3d
       0.007411986 -0.16665636 0.7531897 0.10824042
000080 f6 54 24 3e 4b 4d 19 3f 2c 4a d6 3d 74 40 37 3f
       0.16048035 0.59883565 0.10463366 0.7158272
000090 f0 1b 09 3c a4 35 a6 3d de e8 28 bd fb 84 dd 3d
       0.008368477 0.081157 -0.041237704 0.1081638
0000a0 48 94 1f 3d 9e 56 f7 bd 26 e1 e9 bb ff 86 ff bd
       0.03895977 -0.12077068 -0.0071374355 -0.1247692
0000b0 36 9a 64 3c b9 99 17 3f d8 09 6e 3d 9e 47 27 bd
       0.013952782 0.5921894 0.058114856 -0.040839784
0000c0 f6 0a 12 bd fb ea eb 3e 04 9d e5 3d e2 0e 26 3c
       -0.035654984 0.46077713 0.11211589 0.010135384
0000d0 39 6c 31 3e ad a9 4e 3d 28 06 f0 bd e2 e3 85 bd
       0.1732644 0.050454784 -0.11719924 -0.06537606
0000e0 f4 d9 a8 bd f0 82 80 3d 0e 96 1a bd 64 57 28 3f
       -0.08244696 0.06274974 -0.03774076 0.6575835
0000f0 b1 0a 39 3d 80 2d 96 3d bf 5d 2b 3f f4 20 c3 bd
       0.04517621 0.07332897 0.6693992 -0.0952777
000100 c7 68 38 3d 59 58 6a 3e 76 78 02 3e 28 27 0d be
       0.0450218 0.22885264 0.12741265 -0.13784468
000110 bf 98 36 be 7f 32 8f bd d0 a8 99 bd cd ec 1c be
       -0.17831706 -0.06992053 -0.075029016 -0.15324707
000120 eb 85 dc bc 31 94 3c bd ad 5c 01 3e 0f a0 da bd
       -0.026919326 -0.046039764 0.12633009 -0.1067506
000130 8a 50 74 3c 06 0c fa bd e0 49 33 bd 84 b1 32 3c
       0.01491178 -0.122093245 -0.043771625 0.010906581
000140 1d b8 b1 be c0 41 22 3e 0b 54 5b 3e 38 9c 96 bd
       -0.3471078 0.15845394 0.21418779 -0.07354015
000150 a4 cb 84 bd f8 43 d4 bd c8 e7 1b 3d 62 86 2e 3e
       -0.06484154 -0.103645265 0.03806284 0.1704345
000160 80 91 12 3b e7 4e 34 bd 40 ac e6 3c c2 66 04 be
       0.0022364557 -0.04402056 0.028158307 -0.12929824
000170 b1 c0 25 3d ca c3 f1 bd 85 58 36 be 31 ae f4 bd
       0.040466968 -0.11804922 -0.17807205 -0.11947287
000180 2b d5 a5 3c 20 be af 3c 13 d6 41 3d b3 4d c4 bd
       0.020243248 0.021452963 0.047323298 -0.095851324
000190 52 8d 89 bd d6 d0 85 bb 0a db 81 bc 29 d3 0a be
       -0.06716408 -0.004083733 -0.015851516 -0.13557114
0001a0 a8 f1 85 3d a9 c0 30 3d 09 80 b2 bc 64 f6 b1 bd
       0.06540233 0.043152485 -0.021789568 -0.086895734
0001b0 0b b6 19 3c 8c da 37 be ac ad 7a bd 3a 87 8f bd
       0.009381781 -0.17954463 -0.061200783 -0.07008214
0001c0 a9 5e 3f 3d 2d e2 43 3e 2e 50 c3 3d a7 d1 17 3d
       0.046721134 0.19129248 0.095367774 0.037065174
0001d0 10 4a c8 3d 9a c0 07 be 81 60 9d bd fc 3a 35 3d
       0.09779751 -0.13257065 -0.07684422 0.044245705
0001e0 2e 8b 0f be 46 09 56 3d b7 80 87 bc 8f 6a 08 3d
       -0.14017937 0.052254938 -0.016540868 0.033304747
0001f0 d9 c3 45 3d aa 9e 8f bd a1 e3 24 3e d9 61 35 bc
       0.048282478 -0.07012685 0.16102459 -0.011070692
000200 e8 ad c8 bd 27 43 fb bc df ca 32 be 6c 1c 7a 3d
       -0.09798795 -0.03067167 -0.17460202 0.06106226
000210 08 2a 81 3c 03 f8 77 3d f8 78 61 bd 69 4f a2 3b
       0.015767112 0.060539257 -0.055047005 0.004953314
000220 c3 fd b7 3d 86 ec e3 bd c5 f5 bb bd 30 02 9a bd
       0.08983948 -0.11129098 -0.09177736 -0.075199485
000230 37 88 86 be 47 c8 a2 bd e1 aa 13 bd a7 82 e3 bc
       -0.262758 -0.07948356 -0.036051635 -0.02777226
000240 a5 ef fc bd df 90 07 3d 0b 87 ee bd b8 3a 1a 3d
       -0.12350396 0.033097144 -0.11646851 0.037653655
000250 0c a9 da bd 50 fd ff 3d a8 df 9d 3b 03 86 10 be
       -0.106767744 0.124994874 0.0048179217 -0.14113621
000260 f4 5d 40 3d ed e7 f2 bd 5f 4e 0f 3d cc 2e d0 bc
       0.0469646 -0.118606426 0.03498685 -0.02541294
000270 ee 59 b2 bd 9a 79 ad bc df 4e a6 3d 84 4f 86 3d
       -0.08708559 -0.021176148 0.08120512 0.06558135
000280 1f 08 a0 bc d3 4a 2a bd 25 c4 5e 3d 0d e8 14 bb
       -0.019535122 -0.041575264 0.054386277 -0.002272132
000290 f4 0d 27 3d c3 b4 7a bd 2f 1d 86 bd 1a a0 d3 bd
       0.04078479 -0.061207544 -0.06548535 -0.10333271
0002a0 50 16 29 bc b1 ac cc bd 74 f9 ca 3d b2 7f 53 3d
       -0.010320261 -0.09993876 0.09910861 0.05163545
0002b0 a7 a2 ae 3d 5f fb 0b be 34 72 25 3d f9 cf 63 3d
       0.08527117 -0.13670109 0.040392116 0.05561826
0002c0 c9 27 8d bd 65 56 7a bd 78 ae cd 3d 4f b9 b3 3d
       -0.06892354 -0.06111755 0.10043043 0.08775579
0002d0 0d fe 09 be d1 f2 f9 bc f2 d4 97 bc e8 56 86 3c
       -0.13475819 -0.030511292 -0.018534157 0.016398862
0002e0 4e 71 91 3d cd 01 32 bd 88 a6 34 3d 0a 1b b9 bd
       0.07101689 -0.04345875 0.04410413 -0.090383604
0002f0 f4 b4 48 bc 52 38 e3 bc c0 31 46 be a4 a3 d3 3d
       -0.012250174 -0.027736817 -0.19354916 0.10333946
000300 e0 e2 0a be 9c b2 b5 3d 3c 1a cb bd 8b 93 de 3c
       -0.13563108 0.08871958 -0.09917113 0.027169963
000310 6a 1b 32 bb 0a 76 b6 3d d6 a1 8a 3d 4e b4 dc bd
       -0.0027176985 0.08909233 0.06769149 -0.10776578
000320 f2 1d 98 3d fa 3b 99 bc a7 01 ca 3d 5e 00 e1 bd
       0.074275866 -0.018705357 0.098635964 -0.10986398
000330 60 4d fd bc 9d 82 6b 3d 10 04 cb bb d5 bc 7f bd
       -0.030920684 0.05749761 -0.0061955526 -0.062435944
000340 f2 27 cb 3d 45 b4 3d 3d b4 2e a2 3a 90 37 1e bd
       0.09919728 0.046314497 0.0012373538 -0.038627207
000350 64 bc 5a bd 78 e1 98 3d 25 85 be 3d 17 b4 e5 3b
       -0.05340232 0.0746488 0.09302739 0.007009994
000360 7a 44 94 3d b7 e4 9b bc 21 b4 06 3d bd cc 00 be
       0.07239623 -0.019029958 0.032886628 -0.12578101
000370 9a f8 35 3d a3 78 0c 3d 7b 2e ce bd c5 7b cf 3d
       0.044426538 0.034294736 -0.10067459 0.10131029
000380 10 e7 b6 bd 61 e9 39 bc 9d c7 cd 3d 89 c7 3f 3c
       -0.089307904 -0.011347146 0.10047839 0.011705288
000390 ce d6 87 3d f2 7b 0b be 6d 18 ef bd c7 ac d7 3d
       0.066327676 -0.136215 -0.11674581 0.105310015
0003a0 9c f3 bd bd 0f 58 c8 bd 1b c5 f8 bd 0b 27 0e bd
       -0.092749804 -0.09782421 -0.1214697 -0.034705203
0003b0 cd 25 14 3d 4b 14 e4 bd d0 ba 7d bd c0 bd 8d 3d
       0.036168862 -0.11136683 -0.061945736 0.069209576
0003c0 e9 50 00 be 04 17 88 bd 40 a2 53 3d 65 58 ed bd
       -0.12530865 -0.06645015 0.051668406 -0.115891255
0003d0 f3 01 24 bc ea dc 40 bc 49 cf e5 3d 60 03 91 3b
       -0.01001023 -0.01177142 0.11221177 0.004425451
0003e0 64 37 fd 3d 9c 63 2e 3c 00 79 5d 3d 3c 1e 89 3d
       0.123640805 0.010643866 0.054070473 0.0669522
0003f0 8c bd 94 3c 4a 49 41 bd 74 5a 09 bd 44 28 c6 3d
       0.01815679 -0.047189035 -0.03353353 0.09675649

fc2.bias f4 [32]
000000 5f 55 25 3e 4d e8 09 be ee d5 01 be 4d 6f 5d bc
       0.16145848 -0.13467522 -0.12679264 -0.013515306
000010 94 12 a3 bd 08 0d bd bc da ea 10 bc 81 5e c5 3d
       -0.07962528 -0.023077503 -0.0088450555 0.09637166
000020 98 c4 29 bb 15 2f 03 3e bd 04 0b 3e 84 02 1b bd
       -0.0025904533 0.12810929 0.13576026 -0.037844196
000030 b6 98 3d bd e8 b2 55 3d 90 8a e8 bc a3 cb ae bd
       -0.046288215 0.05217257 -0.028386384 -0.08534934
000040 3c b1 92 bd 1c fe 89 bd 3e 24 b8 bd 6d e2 e8 3d
       -0.07162711 -0.06737921 -0.08991288 0.11371312
000050 6c 4f b3 bd 0e ce 1c be 7c 5f 0d be 42 df 4a 3d
       -0.08755383 -0.15312979 -0.13805956 0.04952932
000060 64 3b 76 3c 4f ac ed bc 23 5f f8 bd 12 32 c0 bd
       0.015028808 -0.029012827 -0.12127521 -0.0938455
000070 47 d9 ec 3c 24 83 36 3d d8 34 9e bd 9a 01 2d 3e
       0.0289122 0.04455866 -0.07724923 0.16895142

pi.weight f4 [1, 32]
000000 1a e2 50 3f fc 08 23 bc fc 65 a8 bd 39 dd 40 3d
       0.81595004 -0.0099508725 -0.08222577 0.047085974
000010 e6 2a 1a 3c d2 97 37 3c 19 f3 5d 3d ef e9 9e 3d
       0.009409642 0.01120563 0.054186914 0.07759463
000020 74 fa cc 3d 73 59 04 3f bd 11 23 be 5a be 16 bd
       0.10008708 0.5169899 -0.15924735 -0.036802627
000030 21 69 a1 bc ad b8 68 be e9 f0 25 bd 79 55 e9 bd
       -0.01970345 -0.22726698 -0.040512953 -0.11393256
000040 a8 3a 4d 3d 03 62 df bd 2e 23 fa 3d 53 3a 35 be
       0.050104767 -0.10907366 0.12213741 -0.1769803
000050 fc a6 b8 bd b3 02 e3 3c df 47 2c 3e ba 46 53 bd
       -0.09016225 0.027711248 0.16824292 -0.051581122
000060 c8 13 db 3e d9 3c a5 3e 2e 2a 11 3f 47 ba 08 3e
       0.4278853 0.32272986 0.56704986 0.13352309
000070 18 13 86 3d f6 14 37 bd 94 bf 11 bf 50 75 55 be
       0.065466106 -0.044697724 -0.5693295 -0.20845532
