model/maddpg/agent_0_critic.pth (torch, 16526 bytes, 5 tensors)

fc1.weight f4 [64, 20]
00000000: 10ec 143a 95b0 fe3d 8166 0abe cd88 1ebd
00000010: 0a64 1f3e 95fc 23be 716f 8abc fb51 523e
00000020: 8b78 93bc cef2 1b3e 3d73 983d 4a8c 0b3e
00000030: 8e44 61be 4a27 1e3e 14ad 3a3d a09c 7ebd
00000040: fde0 51be 199b ecbd 0c33 1abe 21a8 f0bd
00000050: e70c 1bb8 409b a7bd 54ed ab3d fd1c 46be
00000060: 9212 96bd addb 2ebe ac89 79bd a9d0 44bf
00000070: e3d3 623c 7d07 5abe 0948 cfbd ac38 b7be
00000080: 6b6f 433e 51c0 d2bd ed92 aa3d b298 1abf
00000090: 3a31 1f3f ecc3 ebbd e654 5f3e 04e9 23bf
000000a0: 619b 11be 4fda 20bd 236d 403e be77 e6bd
000000b0: 1ca7 20be 21db 0bbe 4ec7 5bbe e239 27bd
000000c0: c8e0 4fbe 6c14 f6bd 6253 0c3d 52d9 16be
000000d0: fdb9 e7bb ea8a 36be 05bb 183d 780d 233e
000000e0: f21f 80bd dadb 70bd 0b67 efbb 303f 32be
000000f0: 5ba6 2cbe 580d 3e3d 9300 28be 644c 99bc
00000100: ed69 15bd 476c ccbd fe4a fdbd 1fa7 9bbc
00000110: faa9 4e3e 6ed1 cabd 3cbc bfbd f52c 49be
00000120: 324f 04be 87aa 553d 03a3 543e 19d6 2c3e
00000130: cf0b 2f3e 7039 103e 40c8 2a3e 7bf2 bc3d
00000140: a24d 3f3e cad7 1ebd 3d13 563e 627e 0e3e
00000150: 9efc 0abe bf57 22be 4204 ec3d 2eb5 1abf
00000160: aa66 14be 89b7 acbd 2bdb 593d 8435 24be
00000170: 5592 c73d 2065 e6be 2bcb 513d 05d9 28bf
00000180: ba4e 703f f23a cdbd 4c11 9d3e 25b4 26bf
00000190: 80fb 273c 6ee4 21be 731f a2bd d658 293e
000001a0: 85fe 1cbe 73a8 2e3e 2d4e 1bbe 8162 3ebe
000001b0: ac4a 21bd 84fa 3bbe 8b74 eebc 72e7 80bd
000001c0: 4eac edbd 0c9f 5abd 2c82 2abc 440f e7bc
000001d0: 6195 4cbe e8ac 933d 13d6 51be bb0a 89bd
000001e0: e5ef 3bbe 5fb1 53be 03bc 44be 8edf 453e
000001f0: 4aa7 57bd ebb0 4fbd c0a2 643e d7ce e03d
00000200: 59ec 5a3e 21fb 503e 6578 8f3d 17a4 3a3e
00000210: 2449 5dbe c6af 85bd af04 223d 4064 323d
00000220: bdf4 113e 3992 0dbe 35cb d8bc 0a61 c3bd
00000230: 9135 0ebe 168a 923d b00c 9e3d aa5f 48be
00000240: 49e8 313e bd28 2dbe fa3f b83c 0176 f5be
00000250: c106 ce3c d998 5abe 407c 2f3e c766 0abd
00000260: 08a0 55bb 8569 5c3b cc5a 1ebe 60af 12bf
00000270: a98e 283f be76 463e 8e14 3a3e 4fda 2abf
00000280: 324a 3cbe 46e1 6e3d 4c22 fcbd c8d7 fd3d
00000290: c02f 0e3d 81a8 31be c352 f33d d02a ef3d
000002a0: bc3f f0bd 0e4d da3d 6184 eebd 1af2 f7bd
000002b0: 1de2 323d ed89 2d3e f01c db3d c02b f03d
000002c0: 5a2f 1b3d fb9c 303e 204d bdbc 8eca 63bd
000002d0: 5cb8 5bbe 3a2e 3cbe 37ff 533d 9610 aebd
000002e0: 0f49 4b3e ecd2 23be d849 d43b 3108 f53b
000002f0: 6c8b 03be a400 363d 277a 1dbd c26a b73d
00000300: 5c84 d4bd e030 e6bd 5bdb 263e 438d 58be
00000310: ee6b f33d 8a8f b7bd 9fd4 10be 8d61 3dbe
00000320: a666 d4bd 9782 babd 3d09 c93d 15b3 3dbe
00000330: f335 ccbd 1505 b5be ced9 5c3e 1342 ebbe
00000340: 57e0 1e3e c065 40be f6b0 513e e22e 88be
00000350: 823a c93d 23fa 07be e481 c5bd 5e80 b4be
00000360: fb23 3d3f a537 95bc 01f2 663e b3ea 61bf
00000370: 5435 24be 652f f83c a789 42bc c392 0cbe
00000380: f200 e03d 508f 903e 3576 2a3e 2ce8 213f
00000390: e6d4 4a3e 191b 593e 923f e83d b40f cebb
000003a0: 7cd2 953d 13ee 803e e21e c93d 2910 063f
000003b0: 06a0 59bf 87bd 39be a2a7 e3be e8a0 393f
000003c0: e7a4 30be ced5 74be d407 dfbd 5699 5c3e
000003d0: e211 303e ea75 a4be 515a 94bd 9e1f 7fbf
000003e0: 2107 2cbe faa0 76bd 2ed0 023e 1797 d3bd
000003f0: 28c0 cf3d 257b 38be 53fe 113e a5c2 3ebf
0.0005680928 0.12436024 -0.13515665 -0.038704682 0.15565506 -0.16014321 -0.016898843 0.20539086
-0.018001815 0.15229341 0.07443855 0.13627735 -0.21998808 0.15444675 0.045575216 -0.062161088
-0.20495982 -0.1155302 -0.15058535 -0.11750818 -3.6966896e-05 -0.081839085 0.08394876 -0.19346996
-0.07327761 -0.17075987 -0.06092231 -0.7688089 0.013844463 -0.21291919 -0.101211615 -0.35785425
0.19085471 -0.10290588 0.08328805 -0.60389245 0.6218449 -0.115119785 0.2180973 -0.6402743
-0.14219429 -0.039270695 0.18791632 -0.11253308 -0.15688747 -0.1365781 -0.21462747 -0.040826686
-0.20300591 -0.12015614 0.034259208 -0.14731339 -0.007071732 -0.17826429 0.03728773 0.15923107
-0.06256093 -0.058803417 -0.007305985 -0.17406917 -0.16860335 0.046399444 -0.16406469 -0.018713184
-0.03647797 -0.0998159 -0.12367819 -0.019000588 0.20182028 -0.09903227 -0.09362075 -0.19646056
-0.12920836 0.05216458 0.20765309 0.16878547 0.17094348 0.1408441 0.16677952 0.09225937
0.18681958 -0.03878001 0.20905776 0.13915399 -0.13572928 -0.15853785 0.115242496 -0.6043271
-0.14492288 -0.08433444 0.05318753 -0.1603604 0.097447075 -0.44999027 0.051219147 -0.65956146
0.9387013 -0.100210086 0.3067726 -0.6511863 0.010252833 -0.15809795 -0.07916155 0.16537794
-0.15331466 0.17056446 -0.1516654 -0.18592264 -0.039377853 -0.18357283 -0.029108306 -0.06294145
-0.1160513 -0.053374335 -0.010407012 -0.028205521 -0.19978859 0.072107136 -0.20491819 -0.066915
-0.18353231 -0.2067313 -0.19212346 0.1932356 -0.052649774 -0.05070583 0.22327709 0.109769516
0.21379222 0.20408298 0.07005385 0.18226658 -0.21609932 -0.06527667 0.039555248 0.043552637
0.14253516 -0.13825311 -0.026464084 -0.09539993 -0.13887621 0.07155244 0.07717264 -0.19567743
0.17373766 -0.16910072 0.022491444 -0.47941592 0.025149705 -0.21347369 0.17137241 -0.033789422
-0.0032596607 0.003363223 -0.15464324 -0.5729885 0.6584268 0.19381234 0.18171903 -0.6673936
-0.18387678 0.058320306 -0.12311229 0.12394673 0.034713507 -0.17349435 0.1188102 0.11678088
-0.11730906 0.10659228 -0.11646343 -0.12106724 0.04367267 0.16947146 0.10698879 0.11727095
0.037886955 0.17247383 -0.023108065 -0.055613093 -0.21457046 -0.18377009 0.051757064 -0.08499257
0.19852088 -0.15998429 0.0064785294 0.007477783 -0.12846154 0.044434205 -0.03844657 0.08955909
-0.10376808 -0.11239791 0.16294615 -0.21147637 0.1188582 -0.08962925 -0.14143609 -0.18494244
-0.10371141 -0.09106939 0.09816215 -0.18525346 -0.099712275 -0.3535544 0.21567461 -0.45948848
0.15515266 -0.18788815 0.20477661 -0.2659827 0.098256126 -0.13279013 -0.09643915 -0.35254186
0.73883027 -0.01821501 0.22553255 -0.8824875 -0.16035968 0.030296037 -0.011873639 -0.1372786
0.1093768 0.2823434 0.16646655 0.6324489 0.19807777 0.21201743 0.1134025 -0.006288493
0.07315537 0.25181636 0.098203436 0.5236841 -0.850098 -0.18138705 -0.4446383 0.7251115
-0.17250405 -0.23909685 -0.10890165 0.21542868 0.17194322 -0.3212121 -0.07243789 -0.9965762
-0.16799594 -0.060212113 0.12774727 -0.103315525 0.10144073 -0.18015726 0.14257173 -0.74515754

fc1.bias f4 [64]
00000000: d093 3b3d 341e 8a3a 9d16 48bd c07e 863d
00000010: 5862 15be 9cdf 0e3e 719c debd cb65 a9bd
00000020: f368 43be 0853 03bd cf6a aa3d c022 5d3e
00000030: a1d8 27bd 7e56 3abe 38d2 46bd 59f9 5f3e
00000040: c3a6 473e 9056 cebd b452 303d 93ea 453e
00000050: 90d0 f23c 9942 00be 859e 35be 0430 cdbd
00000060: 2fa8 b2bb 5181 a9bd aa3c 8c3b b346 26be
00000070: c870 49bd c32f 003e 2ed5 6cbe ee1b 28bd
00000080: 4ea4 2b3e 3327 89bd 7700 41be 7609 9a3b
00000090: aea9 6fbd d3c2 0cbc 48ed 05be 0e94 243e
000000a0: 8b27 43be 0341 d6bd f3d1 42be 8942 cebd
000000b0: bcd1 3dbe 9828 1bbe ddd1 dfbc 0200 693d
000000c0: 5062 373e 4be9 003e 33bc 01be 18c5 3d3d
000000d0: ab1e cbbd 8ea7 d7bd 996c 54be 7c70 abbd
000000e0: e690 06be 398e 283e b102 1dbd 7cf8 2dbe
000000f0: e80e 223e b359 2ebc e080 b33d 680d ffbb
0.04579526 0.0010537566 -0.04884969 0.065671444 -0.14588296 0.13952488 -0.108696826 -0.082713686
-0.19083004 -0.032061607 0.08321153 0.21595287 -0.040978078 -0.18197057 -0.048540324 0.21872462
0.19497208 -0.10075104 0.04304762 0.19327764 0.029640466 -0.12525405 -0.17736252 -0.10018924
-0.005452178 -0.08276618 0.0042796927 -0.16237907 -0.049179822 0.1251822 -0.23128197 -0.04104226
0.16761896 -0.0669693 -0.18847834 0.004700835 -0.05851143 -0.008591372 -0.13078797 0.16072103
-0.19058053 -0.10461619 -0.19025402 -0.10071284 -0.18537039 -0.15152204 -0.02732175 0.056884773
0.17908597 0.12588994 -0.12669449 0.04633054 -0.09917959 -0.105300054 -0.20744552 -0.08371064
-0.13141212 0.16460504 -0.038332645 -0.1698932 0.15825999 -0.010641503 0.08764815 -0.0077835806

fc2.weight f4 [32, 64]
00000000: 0802 4ebd 9f38 7fbc 804d 953a 9c12 023d
00000010: 2865 5cbb d073 73bd 8c9c 0b3d 84fd fdbd
00000020: 00d2 b1ba a05d 46bd 817c 783d a4b5 ddbd
00000030: 57d4 303e 204d 90bd 9173 2bbd 1346 4d3c
00000040: 6204 b7bd 60c2 f0bb ccba 9c3d 34f9 083d
00000050: e150 f83d f2a3 a63d 0c6e 41be d31c 013e
00000060: c59c f4bd 982e 863c d3ad ef3d b0e4 23bd
00000070: 8fed f73c 8a56 99be 68bc fa3d 4746 c7bd
00000080: f489 26be 7055 e63d 5451 6b3d c2f5 2dbd
00000090: 38ea bc3c b35e eb3c a49c a43d 14c9 6ebd
000000a0: 0f58 5f3d ff30 7a3d 5678 adbd 946a b1bd
000000b0: 971e ad3b 1351 c43c 7e10 643d e084 f7bb
000000c0: d2be 6dbe 1261 0ebe b62c ed3d 7859 febd
000000d0: 6bc0 8ebc 680a 85bb 6655 9abd 4ae5 01be
000000e0: 314b 0d3d d06c 68bd 077d 533d 81bf a5bd
000000f0: b661 cc3d 0743 933c e01a fbbc 984e 6cbd
00000100: e01b a63b 2cd8 e3bd 0e59 813d e645 a63d
00000110: 0023 ddbc c860 c1bc 54e1 39bd 0001 ab3a
00000120: 98e4 4fbd e0c3 423c 887b 0abd 8089 62bd
00000130: 645a 94bd 2810 873c 008e abbc c091 6e3b
00000140: 52fc e3bd e0c4 8a3b 70a7 0c3d 2088 80bc
00000150: 64b8 75bd 1046 22bd d493 143d 007a 3b3d
00000160: a03b 22bc 0077 833c e406 1b3d 9ae6 ccbd
00000170: 10c1 74bd 4427 a73d 1016 99bc 3c25 02bd
00000180: 9c80 3ebd 9c11 75bd 56d4 9cbd d0fd abbc
00000190: 2ceb cebd 706c 3cbc d4b1 d63d 0086 243d
000001a0: 04e1 3ebd ba72 d7bd ca35 a7bd 942a e3bd
000001b0: 407a 72bd a00e 21bc f8ba fabc b0d4 103d
000001c0: 48ba ebbc aee0 a7bd 2418 d9bd f481 1cbd
000001d0: d0f9 b03c 98dd 1abd f225 893d a0b5 c63b
000001e0: d8d0 8e3d 60b3 003d 0cb9 0cbd 5493 ac3d
000001f0: c09f 213b 06ad e13d 4011 c3bb e013 c53d
00000200: 3056 54bc c38e 923c 10d9 c0bd fae8 e3bd
00000210: 7550 bcbd 1467 023d 98cf 14bd 0450 8dbd
00000220: 1215 d73d 805e dfbd 9361 9c3d 820a 0b3d
00000230: c0a8 e7bd 7849 e43c 9c1b a3bc c6bb 03bd
00000240: 70c1 92bd 089a 26bd 96f3 a63d 50f2 a23d
00000250: 0ec8 d9bd 9cbd c9bd 0620 0a3d fce8 783d
00000260: 9c22 afbd b811 23bd 81e0 cebc e429 443d
00000270: 97b4 b43d 9d01 403c a865 eabd 32cd b53d
00000280: 4230 ec3d a66e efbd f4a9 ccbd 49e2 cbbd
00000290: da5c cf3d 0170 b1bd 34c9 1fbd 4cb6 62bd
000002a0: 1bdd cebd 0e5c 37bc 5169 8fbd 8099 cabb
000002b0: 07f0 59bd 2de2 0bbe cb33 33bd 0a0d b53d
000002c0: f496 8b3d 6c5e 5b3d 3c5e 453d 5065 4a3c
000002d0: d4d6 843d d580 93bb 7889 f53c 19bb c6bd
000002e0: e81f 6e3d 1060 473d baa4 08be 6a6b e7bd
000002f0: 8069 423c cd29 02be 1c8f cebd 1466 ad3d
00000300: 403c 803c 9c61 61bd c00b 233b e0b9 69bd
00000310: ac79 813c ce46 a0bd 4005 963c 1c77 933d
00000320: da99 a0bd 007e 5bbd d714 1abd 4665 de3d
00000330: e0f2 003d 4427 2dbd c34d 273d 7319 033e
00000340: b8f0 c6bc 24d7 f23d 032a 73bd d8ae b43d
00000350: 5f5e f43d a510 b83d 9c4b 13bd d95a c13c
00000360: 18f1 15be 7809 dc3d 8b34 68bc e414 2c3d
00000370: 9cae 2b3d df8f 90be f816 6e3d 0663 afbd
00000380: bcc7 b9be 0022 a23a ba65 f9bd 8fb6 0abe
00000390: e6ff ef3d d3d4 093e 7784 efbd 40ba 49bb
000003a0: 7348 753d fba6 38bd 1ad1 aabd 1863 93bc
000003b0: 33ac b0bd 29f7 b03d 5e07 f13d ec2b 9fbd
000003c0: a9fc 62be f2ad 27be d285 cbbd a831 a4bd
000003d0: 0438 393c 973e e63b cc44 9ebd ab34 a2bd
000003e0: fac1 d23d 4c64 c23d 2ed2 d8bc 4a70 bd3d
000003f0: 9c9b ab3d 1071 643d c0cc d53d 888c b23c
-0.050294906 -0.015577464 0.0011390895 0.03175603 -0.003362963 -0.05943662 0.03408484 -0.1240187
-0.0013566613 -0.04842913 0.06066561 -0.10825661 0.17268501 -0.070459604 -0.04185826 0.012528914
-0.08936383 -0.00734739 0.07652816 0.033440784 0.121248014 0.08136739 -0.18889636 0.12608652
-0.11943964 0.01637964 0.11703076 -0.040013015 0.030264644 -0.29948837 0.12242967 -0.09730201
-0.16263562 0.11246765 0.057450607 -0.0424707 0.023060903 0.02873168 0.08037689 -0.05829723
0.05452734 0.061081883 -0.08470218 -0.08662906 0.0052831876 0.02396444 0.05567979 -0.0075536817
-0.23217323 -0.13904217 0.115807936 -0.124194086 -0.017425736 -0.0040600784 -0.0753582 -0.12685123
0.034495536 -0.056744397 0.051632907 -0.08093167 0.099795744 0.017976297 -0.030652463 -0.05769214
0.005069241 -0.11125216 0.06315814 0.08118801 -0.026994228 -0.02360572 -0.045380905 0.0013046563
-0.050755113 0.011887521 -0.033809215 -0.05530691 -0.07243803 0.016487196 -0.020941734 0.0036402792
-0.11132111 0.004234895 0.03433937 -0.01568991 -0.0599903 -0.039617598 0.036273792 0.045770645
-0.009901911 0.016047955 0.03784837 -0.10004921 -0.05975443 0.08161786 -0.018687278 -0.03177379
-0.04650937 -0.059831247 -0.07657687 -0.02099505 -0.10103449 -0.011500463 0.10483137 0.040166855
-0.04660131 -0.10519929 -0.08164556 -0.110921055 -0.059198618 -0.009830147 -0.030606732 0.035359085
-0.02877535 -0.08197151 -0.106003076 -0.03820987 0.021603495 -0.037808985 0.066966906 0.006064132
0.069734275 0.031421065 -0.034356162 0.08426538 0.0024661869 0.1101933 -0.005952984 0.096229315
-0.012960002 0.01789034 -0.094164014 -0.11128421 -0.091950335 0.031836584 -0.03633079 -0.069000274
0.10502066 -0.10906696 0.07635798 0.033945568 -0.113114834 0.027867064 -0.019910626 -0.032161497
-0.071658015 -0.04067424 0.08151929 0.07956374 -0.106338605 -0.09850618 0.033721946 0.060769066
-0.08551523 -0.03981182 -0.025253536 0.047891513 0.08823507 0.011719135 -0.11445171 0.088770285
0.11532642 -0.116910264 -0.099933535 -0.0995527 0.10125132 -0.08663941 -0.03901024 -0.055349633
-0.10100766 -0.011191381 -0.070025094 -0.0061828494 -0.053207424 -0.13660498 -0.043750565 0.08840378
0.068159014 0.053556845 0.048185572 0.012353256 0.06486288 -0.004501442 0.029972777 -0.09703655
0.058135897 0.048675597 -0.13344088 -0.112997845 0.0118659735 -0.12711258 -0.1008589 0.084667355
0.01565373 -0.05502473 0.002487883 -0.05706203 0.015805088 -0.07826005 0.01831305 0.07200453
-0.07841845 -0.05358696 -0.03761753 0.1085916 0.031481624 -0.042273775 0.040845644 0.12802677
-0.024284706 0.11857441 -0.059366237 0.08822411 0.11932062 0.0898755 -0.03596078 0.02360289
-0.14642751 0.107439935 -0.0141726835 0.04201211 0.041914567 -0.28234765 0.058127373 -0.08563809
-0.36285198 0.0012369752 -0.12177606 -0.13546203 0.11718731 0.13460092 -0.116951875 -0.003078118
0.059883546 -0.04508112 -0.08340664 -0.017991588 -0.086265944 0.08640892 0.11768983 -0.07772049
-0.22166695 -0.16374949 -0.099376336 -0.08017284 0.011304859 0.0070265043 -0.07727966 -0.07920202
0.10290904 0.09491786 -0.026467409 0.09249933 0.083792895 0.055771887 0.104394436 0.021795526

fc2.bias f4 [32]
00000000: d1d1 8fbd 60a2 ed3c 8ba7 cd3d e618 8cbc
00000010: 1972 f6bd 8315 ca3d 78c3 ac3d 062c ec3d
00000020: d6c8 b8bd 0ac3 2abd 7c3a 57bd f86a 9e3c
00000030: c089 083b 5c5f b7bd 7e48 dbbd 3eaa 103d
00000040: f8f0 83bc c4f2 a13d 8202 d23d ba42 b1bd
00000050: ec7e 5abd c083 8a3c 3450 c43d 1421 9e3c
00000060: cc51 a93c 4616 f0bd a8ce cabd 202b d63b
00000070: c0cc de3d ac12 acbd 24ee 283d 0860 223d
-0.07022441 0.02900809 0.10041722 -0.017101716 -0.12033481 0.09867384 0.0843572 0.11531834
-0.090226814 -0.04168991 -0.05254601 0.019338116 0.0020834059 -0.08953735 -0.10707186 0.035318606
-0.016106114 0.07907632 0.102543846 -0.08655305 -0.0533437 0.016908526 0.0958561 0.019302882
0.020668887 -0.11722998 -0.09902698 0.0065359026 0.10878897 -0.08401999 0.041242734 0.039642364

q.weight f4 [1, 32]
00000000: 10fa debd 443f 1abe 03a3 99bd 5512 babd
00000010: d1f0 40bd 4f80 053e cbda 443c b4a7 363d
00000020: c532 c3bd 2bda f93d b469 243d e483 883d
00000030: 55ad 88bd 2a7f 0e3e 24dd 5ebe d2ca 8a3c
00000040: 1bbb 9a3d ec6d f43d 8d5a d5bd 960f ad3d
00000050: ef4c dabd fc26 623d 3ec2 1dbd b9a5 a53d
00000060: 91d5 f2bd 60b5 1c3e b21b d9bd 0766 dcbd
00000070: 3b36 6f3d 01cc 1e3e a00f 813d 31b1 32be
-0.108875394 -0.15063196 -0.07501795 -0.09085528 -0.04710466 0.13037227 0.012015055 0.044593528
-0.09531168 0.12199815 0.04013987 0.06665781 -0.066736855 0.13915697 -0.21764046 0.016942415
0.07555219 0.119350284 -0.10417662 0.084502384 -0.10659205 0.05521296 -0.038515322 0.0808825
-0.11857141 0.15303564 -0.106009856 -0.10761648 0.058401328 0.15507509 0.06301808 -0.17450406
