model/maddpg/agent_1_critic.pth (torch, 16526 bytes, 5 tensors)

fc1.weight f4 [64, 20]
00000000: cf38 87bc 33b4 42be 97a8 c1bd 1de1 263c
00000010: 1149 2b3e 9784 633d 3645 703e 40ba f5be
00000020: 324b e1bd 905c 45be ef7f 23be 3b56 95be
00000030: 0f99 413e 8052 7fbe 6ff2 213e 2c74 97be
00000040: f0cb 873f 1500 00be f7b8 1d3f 36d5 0bbf
00000050: 67e9 44bd b5ef 103e ca6a 263d b2d1 34be
00000060: d956 113e de73 b13d ad4d 51be 086b 213f
00000070: 251c 5c3e 52c6 5f3e a696 073d 189c 923e
00000080: 77a7 0b3e 41ce ba3e bf27 abbd 0ef4 b53e
00000090: 1986 b3bf 32ef 4dbd 3895 2fbc f560 193f
000000a0: 9af6 1d3e 26c3 a13e 5429 e43d 20a3 75bc
000000b0: 2369 343d dc5c 5a3d d50d 4e3e ced2 023f
000000c0: 3c95 023e d56c b3bc ad6e 233e 1837 8fbc
000000d0: d2c1 57be d597 2d3e 1c6e 38be c6e8 b03e
000000e0: 0e1a a6bf fd84 183c 305d 56be b55f 403f
000000f0: a6ad 04bd 27ce b23e 1360 013e fa10 583e
00000100: 1f2d 61be bd65 b03d b54c 223e 3134 2d3f
00000110: 0b63 be3d 93bc 3a3e c629 483e 7bec 813e
00000120: db12 10bd 65ec 5a3d de69 e5bd ae7b 093f
00000130: c670 92bf 7472 ddbd d91c 81be f18d eb3e
00000140: 51d0 053e 5140 31be 909e e0bd 4988 383e
00000150: 4e5c 3f3e 98f4 af3d 2a1a 4e3e b1d5 90be
00000160: 2fbe c1bd 2de1 85be 9dac 933d 5460 023e
00000170: fd81 113e 8859 4dbe 4f6a f13d 13c0 dcbe
00000180: cfc3 923f d0cd 8dbc 38e9 a5be a8f2 a8be
00000190: 6234 333e 0d28 96be 6730 eabd c2f3 0b3e
000001a0: 925f 5fbd 5b38 3cbe f8be 5e3e 56b8 81bf
000001b0: 2dfd 5bbd b4d6 1fbe 1e9b 0fbd fcb0 b6be
000001c0: 5573 7a3d 80c4 acbd cedc 24be d6f8 5bbf
000001d0: 88fd a23f f6b2 823d 1e69 da3e 1965 72bf
000001e0: 45ee a1bd 7f3a 2e3e 1218 3abd 248e 29be
000001f0: a71c 48bd 4327 42be aaf0 d3bd a635 10be
00000200: 3ef3 11be 24e7 c83d 5476 41be cfcd a33d
00000210: b769 543e 3b27 c83d 7093 e43c 21e4 02be
00000220: 7975 0f3e 16c4 e43d 7a7b c23d 0c36 3a3e
00000230: 753a cfbd ce3f a7be bea4 b93c 4f47 55bd
00000240: dac1 64be 45f2 993c 130d 983d d822 11bf
00000250: e43f 40be 0eb1 41be 2e56 a23d ff63 b3be
00000260: b746 3e3e 4ae3 edbd ff8e 673e 0c01 cdbe
00000270: aae3 b43f eb0c aabd c99b de3e 96c9 19bf
00000280: 4fb0 13be 78ed 893d 0281 a8bd e85d c13d
00000290: 5663 81bd 57aa 2c3e 8e4e af3c 51e6 503e
000002a0: d871 f4bd ccb1 393c 7de4 8bbd d3b5 2dbe
000002b0: 1816 a73d 8657 db3d 2bbc 483d 7519 62bd
000002c0: 3386 053e 3d3d 64bd 7cf0 db3d 5208 d23d
000002d0: 7521 cf3d 542c d5bd b9af 453e f971 45be
000002e0: 769f 623e 0a69 0ebe da6b 60be 9c15 77bd
000002f0: 1145 c73d f770 923c 9b95 56be 20de c63b
00000300: a44b 04be 463d 14be 1b9e 82bd c87f 943d
00000310: b0b1 d83d 36ff 5a3e a605 033e 4f57 b9bd
00000320: 33ba febd 342f 9ebd eb14 0bbe 5f58 5fbc
00000330: cd8f 723d 1e25 18bd f47c dcbd f6bb bbbd
00000340: 1f71 3a3e 69a6 333e cb1e 703d 9404 da3d
00000350: 6d3c 1abe 9062 79bd 2985 38bc 81e5 61be
00000360: 07c6 adbd dc7c 223e 2fae 373e f518 0cbe
00000370: 60e4 32be 0a12 233e 7f1d ca3d a3a8 26be
00000380: a1f3 2d3c 33f3 d6bd eebf 5dbe caea 35be
00000390: 7079 7e3d 49c9 81bb 5571 333c 70fe ed3d
000003a0: 2049 583d 6313 26be 2025 28be bdb3 c73d
000003b0: d879 2c3d f82c 0f3e d488 0fbd 058f 8f3d
000003c0: 2f69 8b3d ad0d 80be e6e1 ec3d ad25 05be
000003d0: 5bd7 8f3d 1bde 7bbe 22a7 463e a5b6 8bbd
000003e0: eee8 dbbd ca98 84bd f994 753d c861 133e
000003f0: 6792 39bd 993a f6bd d904 15be fe79 5dbe
-0.01650658 -0.19014053 -0.09455984 0.010185507 0.16727091 0.05554637 0.23463902 -0.4799366
-0.110006705 -0.19273591 -0.15966772 -0.2916735 0.18906043 -0.24933815 0.15815137 -0.2958082
1.0609112 -0.12500031 0.6161036 -0.5462221 -0.048074152 0.14153941 0.040629186 -0.17658117
0.14193286 0.08664678 -0.20439787 0.6305394 0.21495111 0.21852997 0.033102654 0.28634715
0.13638102 0.36485484 -0.0835719 0.3553776 -1.4025298 -0.050276943 -0.010716729 0.5991357
0.15426102 0.315942 0.11140695 -0.014992505 0.04404558 0.053311214 0.20122464 0.5110291
0.12752241 -0.021902481 0.15960188 -0.017482325 -0.2107003 0.1695245 -0.18010753 0.34552592
-1.2976701 0.009309051 -0.20933986 0.7514604 -0.032392167 0.34922907 0.12634306 0.21100226
-0.21989869 0.08613155 0.15849574 0.6765776 0.09296235 0.18235998 0.19547185 0.25375733
-0.035174232 0.0534481 -0.11201833 0.53704345 -1.1440666 -0.10812846 -0.25217322 0.4600673
0.13067748 -0.17309691 -0.109677434 0.18020739 0.18687555 0.085915744 0.20127168 -0.28288034
-0.09460103 -0.26148358 0.07210658 0.12732059 0.14209743 -0.20053685 0.11787855 -0.4311529
1.1466006 -0.017310053 -0.32404494 -0.32997632 0.17500451 -0.2932743 -0.11435013 0.13667205
-0.054534502 -0.18380873 0.21752536 -1.013438 -0.053708244 -0.15609246 -0.03506004 -0.35681903
0.061145145 -0.08435917 -0.16099855 -0.8592657 1.2733622 0.0638179 0.42658323 -0.9468551
-0.079067744 0.17014502 -0.04543311 -0.16558129 -0.04885545 -0.1896029 -0.103486374 -0.14082965
-0.14252946 0.098097116 -0.18892795 0.07998239 0.20743452 0.097731076 0.027902335 -0.12782337
0.14009656 0.11170213 0.094962075 0.1818468 -0.10118572 -0.32665867 0.022661563 -0.05206996
-0.22339574 0.01879228 0.07424369 -0.5669379 -0.18774372 -0.18915197 0.07926594 -0.35037228
0.18581663 -0.116156176 0.22613142 -0.4003986 1.4131978 -0.08303245 0.4347823 -0.6007322
-0.14422725 0.06734747 -0.08227731 0.09441739 -0.06317775 0.16861854 0.021399762 0.20400359
-0.119357765 0.011333894 -0.0683069 -0.16963892 0.08158511 0.10710053 0.049007576 -0.05520006
0.13039474 -0.055722464 0.10739228 0.10255493 0.10113803 -0.104088455 0.19305314 -0.19281758
0.22131142 -0.13907257 -0.21916142 -0.060323343 0.0972997 0.017876131 -0.20955507 0.00606896
-0.1291948 -0.14476499 -0.063778125 0.07250935 0.10580766 0.21386418 0.12795123 -0.09049856
-0.124378584 -0.07723847 -0.13582198 -0.013631909 0.05921917 -0.037144773 -0.107660204 -0.0916671
0.18207215 0.17543949 0.058623116 0.106454045 -0.15062113 -0.060885012 -0.011262217 -0.22060205
-0.08485036 0.15867943 0.1793754 -0.13681395 -0.1746993 0.1592485 0.09868907 -0.16275267
0.010617168 -0.10495605 -0.21655247 -0.17765346 0.06212753 -0.0039607626 0.010952313 0.11620796
0.052804112 -0.16218333 -0.16420412 0.09751079 0.042108387 0.13981998 -0.0350426 0.07009701
0.068071716 -0.25010434 0.11566524 -0.13002653 0.07023498 -0.24596445 0.19399694 -0.06821946
-0.10737787 -0.06474455 0.059956525 0.1439277 -0.045305636 -0.12022895 -0.1455263 -0.21628568

fc1.bias f4 [64]
00000000: 4bde c73d ccaa 11be dd9f 583d 9538 19be
00000010: 7823 a7bd f52c 25bd 300c 0ebe d6fd 48be
00000020: 92fa a4bd d09a 9cbd 57e2 073e 05e7 46be
00000030: 0ad7 3abe 4b45 1d3d 91c4 163e 475b a3bd
00000040: b432 5dbe 5aaf 223e 4da8 0b3e 39e2 c1bb
00000050: caad 27bd 4c3f 0bbb 80a9 a63c 9bbe 173e
00000060: a70a 57bc 3c42 04be dafd 4abd b533 d8bd
00000070: 89b4 27be dd5a c3bd 869a 2ebd 35f1 b3bd
00000080: 24e3 7c3d 72f1 0dbc 4cdc c03d 376c 133e
00000090: de36 603e 8476 27bd 5035 87bd bafd d0bb
000000a0: bf2e 553e 6e09 aebc 8459 6b3d c7ce d13d
000000b0: 2a96 a63d 5c5f 8a3d 7fc1 1cbe 2ce5 57bd
000000c0: caf5 d8bd 4a92 a5bd d9b6 283e 597a 3bbe
000000d0: 6b6f c23d c55e 1bbe aa94 bd3a 4dc7 aebd
000000e0: 54bb 40be 01b6 633e 2db3 fbbd 3ba9 323c
000000f0: 8498 02be f0ca 40bb dd50 5e3d a673 a43d
0.09759196 -0.1422531 0.052886833 -0.1496299 -0.08161062 -0.040326077 -0.13871837 -0.1962808
-0.08055605 -0.07646716 0.13269936 -0.19424064 -0.18246093 0.03839616 0.14723422 -0.07976394
-0.21601373 0.15887204 0.1363842 -0.0059168604 -0.040937223 -0.0021247445 0.020344496 0.14818804
-0.013125098 -0.12915891 -0.049558498 -0.10556737 -0.16377462 -0.09538815 -0.042627834 -0.08786241
0.061740056 -0.008663522 0.09417018 0.1439675 0.2189593 -0.04088451 -0.066019654 -0.006377903
0.20818613 -0.02124473 0.057458416 0.10244518 0.0813411 0.067564696 -0.15308188 -0.05270879
-0.105937555 -0.08084543 0.16476001 -0.1830839 0.094939075 -0.1517287 0.0014463861 -0.08534107
-0.1882146 0.22237398 -0.122900344 0.0109046055 -0.12753493 -0.0029417835 0.054276336 0.08029871

fc2.weight f4 [32, 64]
00000000: 40ec f83b 7825 c3bd 80f0 bb3c f882 9bbd
00000010: 244e 483d f84c 333d b806 573d 00fd 36bc
00000020: 388c 983c acf0 b33d d414 bfbd e8ec c83c
00000030: 30b3 583c f8ae 86bc 1817 833c b066 cabd
00000040: ea96 953d 760b debd fc1c abbd f871 7abd
00000050: 80db d53a 201b 4bbc f899 a83c b8a2 c33c
00000060: c045 7dbd 3815 8cbd eeac d1bd 8004 b73d
00000070: 6404 e23d 20d0 533c 90f8 51bc 3050 af3d
00000080: 9083 f63d 5a84 d53d 8c1c 8d3d c0de ee3c
00000090: 2099 623c e898 3bbd 4067 783b 6226 dabd
000000a0: 669d dbbd 80b7 bebc 242b 593d c0f7 a63b
000000b0: 48a8 d93c cc27 48bd f0e5 f5bc b031 533c
000000c0: 6420 d6bd ac02 363d 467e 933d d2cc b83d
000000d0: 58d6 45bd a499 373d f0f0 7ebd 505c afbd
000000e0: e0a2 c23b 46a6 aabd 6e9b bc3d b02a 5c3c
000000f0: a0c5 39bc d006 fd3c 44c0 9f3d 0c81 03bd
00000100: c005 fdbb 2020 703d 5af6 e73d ce0c c03d
00000110: 1a52 cbbd 869f fe3d 8cb6 87bd 0072 243a
00000120: 3afb 92bd a2d9 993d eacf cbbd bc21 763d
00000130: da3d f5bd 20ca b1bb 188a 70bd b8ad 0fbd
00000140: 86e5 ddbd 2c49 2f3d 144e debd b847 f73c
00000150: 1499 693d 4489 e0bd f69b e0bd 60f4 7fbd
00000160: 5414 093d 3a93 bb3d 249e db3d 6c23 e8bd
00000170: 78df a83d b85e a2bd a821 d3bd 88f0 c83d
00000180: 92f0 f0bd 5056 903c 6e0a e13d 04c7 91bd
00000190: 00d7 5c3d a059 8d3b 148c 353d 90e3 5a3d
000001a0: 3e1a 9b3d 44b0 77bd 6e97 e43d 3212 87bd
000001b0: bca2 b0bd c244 dbbd a0a4 52bc 60b6 cdbd
000001c0: 9000 403c 1442 0cbd 20ba 993c 2013 783d
000001d0: 38ea c03c 1040 36bd 666b e43d cc9b 71bd
000001e0: ea3b b1bd f040 7abc aedf aebd 9462 91bd
000001f0: 00ec a83c 9832 dc3d c0eb d4bc d87e e73c
00000200: 20e9 573d 5299 943c 7bf1 c93d f823 ec3d
00000210: 7739 c53c 56ab 2b3d ec4e 833d 3649 2f3e
00000220: 4455 d5bd 00e1 f63a 64f1 d23d f80b 843c
00000230: ee9e 29bd 22b7 c53d 947a ddbd fee4 fa3d
00000240: da9e debd fe16 8bbd 39f0 b1bd d6f5 aebd
00000250: 03a9 f33d 7fc0 8b3c 3019 bb3c 13fa aabd
00000260: d66b 8a3d cb18 a2bd 1a50 ca3d aa18 163c
00000270: b26f c0bd a463 ef3d b60b d53d b201 d2bd
00000280: e0e7 9e3d e08c 503d da05 8bbd 46ba f03d
00000290: f1af ce3d d370 90bd 20a0 543d fa1f bf3d
000002a0: f913 e23d 1ebf 8c3d 7e03 c9ba 98c4 64bd
000002b0: 8eee c7bd 2c1d 2f3d d5a1 1cbd f87d 0dbd
000002c0: 5030 a43c 0891 2f3d 5852 72bd 0c38 213d
000002d0: a47d b93d c782 453d 335c 7abd d002 8f3c
000002e0: 4b7f d6be a295 91bd a4f1 0a3d 9340 02be
000002f0: d088 99bd f877 af3c 2f93 1e3d e5e8 ea3d
00000300: 62e8 e03d b3e4 0abe 983f 983d 87d0 d7bc
00000310: 170f 913d 0cd0 603c b04e fc3d 2d7c 123d
00000320: 96e4 dd3d 0031 a23d 9cf7 62bd 060e f0bd
00000330: 9177 2f3d faee a93d b0a8 923d 76a8 f5bd
00000340: ec39 073d 90b4 5b3c 5bf8 6fbc f028 573d
00000350: 5d18 a93d 99a7 87bd df54 3abc b007 8f3c
00000360: f2af ab3d 12de 00be e20c f63c ade1 85bc
00000370: 71de 43bd b421 ecbc e083 98bd 9407 1ebd
00000380: ca09 d23d d010 d83c 3ce7 9e3d 0091 7e3c
00000390: 93ae 26bd a3d9 983d 6cbf e2bd 407e ca3c
000003a0: 81b7 cb3d a8ce d63c ccda a6bc 15bf ee3d
000003b0: 9c74 89bd 11fa 91bd 6e67 e8bd 58a1 9dbc
000003c0: 5219 8fbd e86d 903c 48bb f63c c82e 15bd
000003d0: 36d8 8dbd 42b5 5ebd aa0c d93d c8cf d4bd
000003e0: f4ab 03bf 103b 3e3c 8868 083d f1e0 95bd
000003f0: e81a ce3c 60d8 9ebc 0c91 1a3e 1737 863e
0.0075965226 -0.09528631 0.022941828 -0.0759334 0.048902646 0.043774575 0.052496642 -0.011168718
0.018621549 0.08786139 -0.093301445 0.024527028 0.013226315 -0.016440853 0.016002223 -0.09882867
0.07304175 -0.1084203 -0.08355138 -0.061143845 0.0016316026 -0.012396604 0.02058123 0.023881301
-0.061834097 -0.06839985 -0.10238062 0.08936405 0.11035994 0.012928039 -0.01281561 0.085602164
0.12036812 0.10425635 0.068902105 0.02915895 0.013830453 -0.04580012 0.0037903339 -0.10651852
-0.10723381 -0.023280859 0.053019658 0.005095452 0.0265695 -0.04886608 -0.03001687 0.012890264
-0.10455397 0.04443614 0.07201819 0.090234414 -0.048300117 0.044824257 -0.062241495 -0.08562529
0.0059398264 -0.083324954 0.09209333 0.013437912 -0.011338621 0.030887038 0.07800344 -0.03210549
-0.0077216327 0.058624387 0.11326285 0.09377442 -0.09927769 0.124327704 -0.06626615 0.0006273091
-0.07176824 0.07512213 -0.09951766 0.060090765 -0.11974688 -0.0054257065 -0.058725446 -0.03507778
-0.10834794 0.04279439 -0.10854736 0.030185565 0.057030752 -0.10963681 -0.10967247 -0.062488914
0.033466652 0.091589406 0.10723522 -0.11334881 0.08245748 -0.079282224 -0.10309154 0.09811503
-0.11764635 0.017619282 0.109883174 -0.07118037 0.053915977 0.0043136626 0.044323042 0.053439677
0.07573365 -0.060470834 0.111616954 -0.06595267 -0.08624789 -0.10706474 -0.0128566325 -0.10044551
0.011718884 -0.034242705 0.01876551 0.060565114 0.023549184 -0.04449469 0.11153297 -0.05898647
-0.08654006 -0.015274271 -0.08538757 -0.070988804 0.020620346 0.107518375 -0.02599132 0.028258726
0.05271256 0.018139515 0.09860512 0.11530298 0.024075253 0.041911446 0.064115375 0.17117772
-0.10416654 0.0018835366 0.10299948 0.016118988 -0.041411333 0.096540704 -0.108143955 0.12250708
-0.10870142 -0.06791495 -0.08688397 -0.08542983 0.11897471 0.017059563 0.022839159 -0.08348479
0.06758849 -0.07914885 0.098785594 0.009161154 -0.09396304 0.11688927 0.10402624 -0.102542296
0.077590704 0.0509156 -0.067882255 0.11754279 0.10092152 -0.070527695 0.05191052 0.09332271
0.11038966 0.0687239 -0.0015336124 -0.05585155 -0.097622976 0.04275243 -0.038240273 -0.03454396
0.020042568 0.042862922 -0.05916056 0.03936009 0.09057167 0.048220422 -0.061123084 0.017457396
-0.41893992 -0.07108618 0.033921853 -0.12719946 -0.07496798 0.02141951 0.038714584 0.11470202
0.109818235 -0.13563804 0.074340045 -0.02634455 0.07082956 0.013721477 0.12319696 0.035762955
0.10834615 0.07919502 -0.05541192 -0.11721425 0.042838637 0.08297534 0.07161081 -0.11995022
0.033014223 0.013409749 -0.014646615 0.052529275 0.082566 -0.066237636 -0.011372774 0.01745972
0.08383168 -0.12584713 0.03003544 -0.016342962 -0.04781956 -0.028824665 -0.07447028 -0.038581446
0.10255773 0.026375204 0.07758948 0.0155375 -0.04069383 0.07463386 -0.11071667 0.024718404
0.0994711 0.026221588 -0.020368002 0.1165754 -0.067116946 -0.071277745 -0.11347853 -0.019241974
-0.06987251 0.017630532 0.0301186 -0.036421567 -0.069260046 -0.05437208 0.105981186 -0.10391194
-0.51434255 0.011610761 0.033302814 -0.07318295 0.025159314 -0.019390285 0.15094393 0.26213905

fc2.bias f4 [32]
00000000: c892 a5bc fcee 92bd 4766 f5bd 5986 08bd
00000010: 6ec3 9abd 204a ae3d 66a2 963c 3346 cd3d
00000020: 8071 03bd 8499 41bd 30ca c93d 6489 193d
00000030: f5e1 5cbd 25a2 57bc feeb a7bc 9012 9dbd
00000040: 183f 843c a702 fabd 2fd7 9c3c e038 c6bc
00000050: d868 7abd d242 9b3d c091 193e 16c6 f8bd
00000060: afff c03d ce4d 89bd 23a1 3a3d 0510 01bd
00000070: 6eb8 bdbd 0734 56bd dc96 3fbd c06a 9f3d
-0.020211592 -0.07174489 -0.119823985 -0.03333125 -0.075568065 0.08510232 0.018387984 0.10023155
-0.032090664 -0.047265545 0.09853017 0.03748454 -0.053926427 -0.013161217 -0.020498272 -0.07669556
0.016143367 -0.12207537 0.019145576 -0.024197042 -0.061135143 0.07581104 0.14997005 -0.12147157
0.09423768 -0.06704293 0.04556383 -0.031509418 -0.09263693 -0.05229571 -0.04677473 0.07784033

q.weight f4 [1, 32]
00000000: 1e43 2c3e 6900 ca3d be51 b6bd db90 12be
00000010: a075 84bd b45f 03be 577d 283d f798 d6bc
00000020: 462d 15be 0258 113e ddd8 073e 1744 6ebd
00000030: aeeb 483e 2a34 a1bd 6e73 a3bd d1e9 c4bc
00000040: b374 18be 748a a13d a8ca 77bd 0436 d73d
00000050: e304 2cbd 28d4 ebbc 3a13 ee3e be76 013e
00000060: e57c 8f3c a53a c43d 4409 e03d cc83 133e
00000070: b4f9 dcbd d281 a1bd cb16 65bd b2f3 d5bc
0.16822478 0.098633595 -0.0890231 -0.1431307 -0.06467748 -0.12829477 0.04113516 -0.026195986
-0.14568052 0.14193729 0.1326632 -0.058170404 0.19621155 -0.07871278 -0.07981001 -0.024037274
-0.14888267 0.07887736 -0.060496002 0.105083495 -0.041996848 -0.028787687 0.46499044 0.12642953
0.017515609 0.09581498 0.10939267 0.14405745 -0.107898146 -0.078860894 -0.05592994 -0.02611718
