model/maddpg/agent_1_actor_20240722.pth (torch, 15902 bytes, 5 tensors)

fc1.weight f4 [64, 17]
000000 04 ae a7 bc e4 2b eb 3c 0a e6 fb bc d1 fe 6c 3e
       -0.02046872 0.028707452 -0.03074934 0.2314408
000010 bc f2 c3 3c 1c 39 49 3d e6 7e fb 3d 4c 4e 74 3d
       0.023919456 0.04912673 0.12280063 0.059644982
000020 03 d4 df bd 5b ab 5b 3e 92 ff d8 3c ad 9c 27 3e
       -0.1092911 0.21452086 0.026489053 0.16368361
000030 ae 73 ca 3c 66 0d 03 3e f0 68 21 be 21 f5 26 be
       0.024713363 0.1279808 -0.15762687 -0.16304447
000040 83 d8 13 be 02 b9 33 be 18 2c 05 be 5a 30 12 3e
       -0.14438061 -0.17551044 -0.13005102 0.14276257
000050 a8 f0 6c 3e fa a9 1a be a4 10 86 bd 72 70 6b be
       0.23138678 -0.15103903 -0.06546143 -0.22992113
000060 61 1a 53 3e 04 47 92 bd ea db b4 3d ca 7d a5 bd
       0.20615532 -0.071424514 0.08831008 -0.08080633
000070 ee 61 94 ba 89 f0 36 bc dd 04 0a 3d ce 78 56 be
       -0.0011320689 -0.0111657465 0.033696044 -0.20944521
000080 02 7a 16 3e 00 73 bd bd c6 ec 9a bd f2 26 a5 3d
       0.1469498 -0.0925045 -0.07564692 0.08064069
000090 43 47 70 be 19 b5 22 3d 56 eb 77 3e 2f 74 02 3c
       -0.23464684 0.03972349 0.24210867 0.007962271
0000a0 ba aa 23 3d 90 08 54 3c a2 6d 45 3e 13 3d 05 3e
       0.03995774 0.012941495 0.19280103 0.13011579
0000b0 86 e4 bc 3d 06 76 13 3e 70 2c 11 be 56 4a 67 3e
       0.09223275 0.14400491 -0.14177108 0.2258695
0000c0 9f 5f 21 be 71 2c e9 3d e7 1c 44 3e ec e3 30 be
       -0.15759133 0.1138543 0.1915165 -0.17274445
0000d0 59 1f 49 be bb 58 06 3e f2 fa ca bd 21 5b 0e 3e
       -0.19640864 0.13119785 -0.09911145 0.1390195
0000e0 b8 dd 4e be 66 08 f8 3d 25 c4 33 3e 30 96 24 be
       -0.20201766 0.12110977 0.17555292 -0.16072917
0000f0 a0 93 05 3e db af 72 be aa b0 00 bd df 3c 63 3e
       0.13044596 -0.23699896 -0.03141848 0.22191189
000100 f3 94 ba bd 1f dc bf bd af ac 6f be 8d 68 60 3e
       -0.09110441 -0.09368157 -0.23405717 0.21914883
000110 f3 eb 10 be b4 fd 94 bd 17 d3 de 3c 99 b0 4d be
       -0.14152507 -0.072749525 0.027200265 -0.20086898
000120 f4 58 0b 3e 20 07 f5 bd c9 5f 38 3e fd c2 0e bc
       0.13608152 -0.119642496 0.18005289 -0.008713481
000130 f2 80 11 3e ff 1b 0a 3e 93 4d 5b 3e e8 d8 4c be
       0.14209345 0.13487242 0.21416311 -0.20004618
000140 c1 22 53 3e fd db 97 3d 73 ed fd 3d ad 78 07 bc
       0.20618726 0.07415006 0.123988055 -0.008268517
000150 6e 2e 6a 3e 32 19 36 be 92 ab 48 be d5 b3 47 be
       0.22869274 -0.17783049 -0.19596699 -0.19502194
000160 ab 29 44 3d 22 7d 0f be 5c 2c 83 3d 7a 39 44 be
       0.0478913 -0.14012578 0.06404945 -0.1916255
000170 f9 c8 53 be a5 c8 1c be 9b ad 6e be 08 d8 30 3e
       -0.20682134 -0.15310915 -0.23308413 0.1726991
000180 f5 08 5f be 2d 9a 54 3e 7d de 62 3e 48 47 6f 3c
       -0.2178076 0.20761938 0.22155185 0.014604397
000190 bc 6e e8 bd 98 7c a4 3d 75 b9 67 3e 8b 58 17 bd
       -0.11349246 0.08031577 0.2262934 -0.036949676
0001a0 c5 02 58 3d d0 a3 f7 3b f3 e3 a6 bd 14 e6 d2 bd
       0.052737016 0.00755737 -0.081489466 -0.1029779
0001b0 82 0e 4a 3e ef 54 45 be 79 32 2a 3e 3d dd bc 3d
       0.19732097 -0.19270681 0.16620816 0.09221885
0001c0 73 bc 29 3e 2a 7d 00 be bc 16 1a be dd 8e ee 3d
       0.16575794 -0.12547746 -0.15047735 0.11648343
0001d0 d0 b3 3f 3e 65 5e 79 3d e6 99 12 3e 49 d0 30 be
       0.18720937 0.060881037 0.1431652 -0.17266954
0001e0 cf e6 a1 bd 33 ed f4 3d 22 e7 bb 3d 50 32 6e 3e
       -0.07905351 0.11959305 0.091749445 0.2326138
0001f0 bc 9c 3c be c4 50 e3 3c 23 e9 0c 3e dc 91 d9 3d
       -0.18419164 0.027748473 0.1376081 0.106235236
000200 99 57 1a bd 4e 0a 5d bd eb 03 dc 3d 96 47 98 3c
       -0.037681196 -0.053964905 0.10742935 0.018588822
000210 ff b2 1e 3e 41 ba 1f 3e 78 1b 38 3e 65 e8 1c 3e
       0.15497969 0.15598394 0.17979228 0.15323026
000220 51 90 73 3e cf af 1c 3e 75 a3 12 be 02 d6 03 3e
       0.23785521 0.1530144 -0.14320166 0.12874606
000230 35 86 6a be c9 c2 a2 bd 05 64 80 3d 78 d0 d5 bc
       -0.22902758 -0.079473086 0.06269077 -0.026100382
000240 a8 32 38 3e 9a 70 61 be 1d 1d 1b be 01 0b 46 be
       0.17988074 -0.2201561 -0.15147825 -0.19340135
000250 b5 a1 10 be ed 5f f8 bd 7b 70 b5 bd e0 27 2c bd
       -0.14124186 -0.121276714 -0.088593446 -0.042030215
000260 2d 9b 41 3e be 2c e8 bd e9 99 35 be 45 7a 08 3e
       0.18906851 -0.11336659 -0.17734493 0.13327892
000270 dc 44 96 3c 97 49 4f 3e e0 26 6b be bf e8 1e 3e
       0.018343382 0.20242916 -0.22964048 0.15518473
000280 ee c5 1d be 0e 22 84 bd e0 95 23 be 9e 4d 45 3c
       -0.15407535 -0.06451808 -0.15975142 0.012042431
000290 c5 0b 65 bd 41 3e d2 bc 02 f6 1d be 48 8f a3 bd
       -0.055919427 -0.02566445 -0.15425876 -0.07986313
0002a0 b4 55 8e 3c 90 29 05 be 6c 65 1b be 19 19 0e bd
       0.01737485 -0.13004136 -0.15175408 -0.034691904
0002b0 76 b7 2f be df 98 92 3c 29 d5 36 3e 7e de 8e bd
       -0.17159829 0.01789516 0.17854752 -0.06976031
0002c0 86 c0 27 be 0f aa cd 3c c7 7b 38 be 7a a7 b9 bd
       -0.16382036 0.025105504 -0.18015967 -0.09065147
0002d0 21 f5 7d 3d e8 d1 47 be 78 ea 7a 3d 30 6a ba bd
       0.06200135 -0.19513667 0.061258763 -0.09102285
0002e0 c4 12 50 be 66 78 23 3e ff 42 92 bd 88 6a 36 3e
       -0.20319659 0.15963897 -0.07141685 0.17814076
0002f0 90 49 51 3e b3 52 71 3e a8 d0 8d bc 18 c6 28 be
       0.20438218 0.23566703 -0.01731141 -0.16481817
000300 c0 06 2c 3e cd ac 58 3e 75 d3 22 be ed 48 a4 3d
       0.1679945 0.21159668 -0.15900977 0.08021722
000310 b9 27 b3 3d 8e 7f 1c be 7d 28 3b be 86 d9 4b 3e
       0.08747811 -0.15283033 -0.18277164 0.19907197
000320 a0 62 cd 3d 67 3a 60 3e cb f1 28 be ef b1 8b 3d
       0.10028577 0.21897279 -0.16498487 0.068210475
000330 4e ab 37 be bf ed e0 3d 47 45 ca bd c4 98 16 3d
       -0.17936441 0.109828465 -0.09876495 0.036766782
000340 99 57 d0 3d 16 f8 27 3e 1f 4c 2e 3e 52 83 cf 3d
       0.10172958 0.16403231 0.17021225 0.10132469
000350 a6 42 55 bc 07 03 a3 bd d4 ff 1a 3e 3c 30 cb 3d
       -0.0130163785 -0.07959562 0.15136653 0.09921309
000360 23 4f 5b be 14 38 05 be 0f 46 23 be cb b4 18 be
       -0.21416907 -0.13009673 -0.15944694 -0.14912717
000370 d3 a0 37 3e a2 8a 4a 3e 16 f0 94 3d a6 c4 e5 bc
       0.17932443 0.19779447 0.07272355 -0.02804787
000380 79 61 49 bc e5 e0 16 be 12 1b 1f be 53 03 6a 3e
       -0.012291306 -0.14734228 -0.1553767 0.2285283
000390 d5 fc 4e 3e 2e 45 81 3d 58 c3 a5 3d 0d 15 11 3e
       0.20213635 0.06312023 0.080938995 0.14168186
0003a0 a5 94 72 be bc be 58 be 0e 82 17 be 3c d1 9a bd
       -0.23689516 -0.2116651 -0.14795706 -0.075594395
0003b0 a6 93 98 bd 23 b9 55 3e 05 a5 8c 3c 19 e0 6d be
       -0.07450037 0.20871405 0.017168531 -0.23230018
0003c0 f7 84 ca bc 13 a3 86 3d c5 3d 85 3d b1 3b 3d be
       -0.024721606 0.06574073 0.06505922 -0.18479802
0003d0 e3 17 5c bd 97 7c b9 3d 2d fd 2f bd 87 1e 22 be
       -0.053733718 0.09056967 -0.042966057 -0.15831958
0003e0 7e c0 a3 bd 5e d8 f1 3d 9b d2 b6 3d 6b 61 ca 3c
       -0.07995699 0.11808847 0.089268886 0.024704656
0003f0 7c 4c 54 3e 22 7c 5f be a3 1b 15 be d5 d0 5e 3e
       0.20732301 -0.21824697 -0.14561324 0.2175935

fc1.bias f4 [64]
000000 c4 87 c5 3c f9 bd 2d bd f3 38 f5 3c 6d a8 ec ba
       0.02411259 -0.0424175 0.029934382 -0.0018055566
000010 03 79 23 3e a3 44 01 3e 01 c3 4c be 9e 27 8d bb
       0.15964131 0.12623839 -0.19996263 -0.0043077013
000020 ab f7 3d bd 15 5e 2a be b2 88 9f 3c c3 40 5a bd
       -0.046378773 -0.16637452 0.019474361 -0.053284418
000030 17 f4 8b 3d 3a aa 38 bd f9 8b 6c be 55 52 28 bd
       0.06833666 -0.045084216 -0.2310027 -0.041094143
000040 67 17 3f be b7 50 7a 3d f3 ea 0f be c4 eb da bd
       -0.18661271 0.061112132 -0.1405447 -0.106895
000050 2d b8 f2 bc 5f 23 d2 bc 40 a8 de bc eb a2 7a bd
       -0.029628837 -0.025651632 -0.027179837 -0.061190527
000060 e8 36 b2 3d 6c 90 d5 bb 33 a6 23 3d a8 2e ab bd
       0.08701879 -0.0065174606 0.03995342 -0.08358508
000070 1f 6d 1e be 35 59 e6 3d a1 78 e3 bd 0c 22 55 be
       -0.15471314 0.11247484 -0.111069925 -0.20813769
000080 3f ca 2a be d1 96 fc 3d 22 aa 10 be 5f 5e 5e 3e
       -0.16678713 0.123334534 -0.141274 0.21715687
000090 89 60 2f bd 17 c2 a7 bd 0c c7 95 bd bd 56 4f 3e
       -0.042816672 -0.081913166 -0.07313356 0.20247932
0000a0 48 c6 24 bd 6b 6e 17 be 14 7b 6f 3e 3d 6b 37 3e
       -0.04022816 -0.14788215 0.23386794 0.17912002
0000b0 6a b3 65 be 07 4f 0e be db 38 5d 3d eb 73 38 3e
       -0.22431722 -0.13897334 0.0540093 0.18012969
0000c0 2a df 11 3e 7c 05 e9 bd b5 01 93 3c 04 14 24 bc
       0.14245287 -0.11377999 0.01794515 -0.010014538
0000d0 6c d4 1e 3e 05 82 2f 3c 12 20 62 3d 9e 34 3e 3e
       0.1551072 0.010712151 0.055206366 0.1857476
0000e0 5a e6 68 3d 02 7c b3 3d 9f 60 4b be 4e dd 8a 3d
       0.056860305 0.08763887 -0.19861077 0.06780492
0000f0 38 ce cf 3d 41 64 2c be de d9 f6 3d f3 b8 07 be
       0.10146755 -0.16835119 0.120532736 -0.13254146

fc2.weight f4 [32, 64]
000000 6c 1e 6e bd 8e 29 cb bd dc 21 9e bd 66 1f d1 3c
       -0.05813448 -0.09920035 -0.07721302 0.025527667
000010 60 d8 d1 bd 6a 6f 84 bd 50 33 3c bd d7 c0 cd 3c
       -0.102463484 -0.06466563 -0.045947373 0.025116367
000020 76 87 e5 bd df 5d 4e bd 80 e9 c1 bc 52 7f 05 bd
       -0.11207478 -0.05038249 -0.023670912 -0.032592125
000030 e6 f5 dc bd 0a 94 bf 3d 2b eb b7 3d b6 ab bd bd
       -0.10789089 0.09354408 0.089804016 -0.09261267
000040 c7 77 d4 bd 1b 45 2d bc 3b f2 8b bd d0 da 43 3d
       -0.10374408 -0.010575558 -0.06833311 0.047816098
000050 98 6a e4 bd 98 fc 8e 3c 8a 90 ab 3d e3 84 08 3d
       -0.11153144 0.01745443 0.08377178 0.033329856
000060 9e 46 e6 bd e6 80 c7 3d 64 62 bc 3d 4c c6 83 3d
       -0.11243938 0.09741382 0.09198454 0.064343065
000070 8b ed ff 3d 35 7f ab 3d 39 d0 f1 bd 08 c9 31 bd
       0.124964796 0.08373872 -0.118072934 -0.04340461
000080 0a d1 dc bd 24 39 3a 3d 5c c9 f8 3d 59 06 05 3e
       -0.107820585 0.04546465 0.12147781 0.12990703
000090 10 0c 9e 3b eb b8 9b 3d 4c dc 33 bd 90 46 83 3d
       0.0048232153 0.0760363 -0.043911263 0.06409943
0000a0 e4 3c 09 3d 57 e5 b4 bc ac d1 87 bd 32 7b ac bd
       0.033505335 -0.022082014 -0.066317886 -0.08421935
0000b0 88 06 eb bc c8 0d 93 3c aa 74 fc 3d 8c dd 23 bd
       -0.028689638 0.017950907 0.123269394 -0.040006205
0000c0 4c 9d 3b 3d 46 61 88 3d 8a 5b fc bd 40 db c8 bd
       0.045804307 0.066591784 -0.12322147 -0.098074436
0000d0 f8 e5 f6 3d 75 c9 f0 3d 30 c2 96 bd ec d6 e0 bd
       0.12055582 0.11757175 -0.07361257 -0.10978493
0000e0 a6 57 8f 3d 2c d9 79 bd 85 f2 17 3c 1a d5 52 bd
       0.069991395 -0.060998127 0.00927413 -0.05147276
0000f0 8a 99 80 bd 54 f0 d5 bd fe 87 ca bd 10 40 e4 3b
       -0.06279285 -0.104462296 -0.0988922 0.0069656447
000100 8a f5 b1 3d 1e 4e a7 3d 58 0a 74 bd 6a f0 e5 bb
       0.08689411 0.081691965 -0.059580177 -0.007017185
000110 89 10 c5 3d ec 34 be bd 21 2c 25 bb 41 b7 bf 3d
       0.096222945 -0.09287438 -0.0025203305 0.09361125
000120 c4 73 6a 3d dd df 8a 3d 24 29 f6 3d 7a 55 4a 3b
       0.05723931 0.0678098 0.12019566 0.0030873702
000130 14 2f 8e 3d a1 43 4c 3d 15 b9 2b 3c 38 a9 b9 bd
       0.06942573 0.049869183 0.010481139 -0.09065479
000140 a4 89 66 bd 00 2a 99 bb 1c a9 87 3d ac 97 84 bd
       -0.056283608 -0.0046741962 0.06624052 -0.064742416
000150 8d f7 4f bc 80 90 8e 3c 1e 9e b0 bd 2e 04 9b 3d
       -0.012693298 0.017402887 -0.086239085 0.075691566
000160 a0 13 ed 3d b4 96 a5 3d 87 ee e1 3d fe e0 bd bd
       0.11576009 0.08085385 0.110318236 -0.092714295
000170 da 3b 62 bd ef 04 24 bd d3 be 89 bd f4 4d 0b 3d
       -0.05523286 -0.040043768 -0.0672585 0.03400989
000180 f7 ba f5 bc 00 f3 f2 3a 19 5d ae 3d a9 da df 3d
       -0.029996378 0.0018535554 0.08513851 0.10930378
000190 84 54 e6 bd 8d eb a7 3d 16 46 98 3d 28 09 f1 bd
       -0.11246589 0.081992246 0.07435243 -0.117693245
0001a0 00 f1 2e bc 69 01 b8 bd 62 d5 4d bc d0 7b 28 bd
       -0.010677576 -0.08984644 -0.012563081 -0.0411337
0001b0 fc d1 e4 bd 68 9f ee 3c f4 0c 33 3d c8 7b 9e bc
       -0.11172864 0.029128745 0.043713525 -0.019346133
0001c0 d9 46 1e bd d2 e0 a9 bd ea e1 d3 bd 5a cf a2 bd
       -0.038641784 -0.08294834 -0.10345824 -0.079497054
0001d0 3d 0d d1 3d ac 77 31 3d 03 46 a6 3d 30 3f 1b bd
       0.10207603 0.04332702 0.081188224 -0.037902057
0001e0 a0 63 c6 3c 30 d2 c7 3c c8 80 8a bd 77 99 d1 bc
       0.024217427 0.024392217 -0.06762844 -0.025585873
0001f0 e9 5a e4 bd c7 42 8a bd 34 36 a3 bd 12 c6 5f bd
       -0.11150152 -0.06751018 -0.07969323 -0.054632254
000200 ec 15 d6 3d 56 2f f1 bd 66 bb ad bd 98 cf 05 3d
       0.104534 -0.11776607 -0.08483009 0.03266868
000210 00 05 8f bd 4c 56 01 3d f0 06 18 bd 74 ff be bd
       -0.069833755 0.03157644 -0.03711599 -0.093260676
000220 6c 86 39 bd ec a6 e6 3d 54 ad e2 3d e0 fa e4 bc
       -0.04529421 0.112623066 0.11068216 -0.027951658
000230 40 e8 dd 3d c0 46 ee bc fc 2b 21 bd de 8f 91 bd
       0.10835314 -0.02908647 -0.039348587 -0.071075186
000240 54 de 55 bd 60 1a 1f 3d 42 c0 a3 bd a4 e3 a9 bd
       -0.05221398 0.038843513 -0.07995655 -0.08295372
000250 1c 75 24 bd 9e 1d b5 3d d0 fe cc 3d 12 cf e9 bd
       -0.040150747 0.0884354 0.10009539 -0.11416449
000260 2e 31 dc 3d 7c ee 7f bd 48 e7 a0 3d 34 09 ad bd
       0.10751568 -0.062483296 0.078566134 -0.08449021
000270 24 73 8a 3d d0 9e 9a bc 36 dc ef bd c8 16 10 3d
       0.067602426 -0.018874556 -0.11711924 0.035177976
000280 04 34 2a 3d c0 86 79 3d 8e 5f e3 bd e8 75 d1 bd
       0.041553512 0.060919523 -0.1110221 -0.10227567
000290 14 5c 31 bd 00 8a 57 ba e8 e4 e9 3d 68 c8 92 bc
       -0.043300703 -0.0008222163 0.114206135 -0.017917827
0002a0 20 1f 1f 3d 90 3a 6a bc 98 f2 1d bd dc a8 73 bd
       0.038848042 -0.014296189 -0.038561434 -0.05948721
0002b0 88 e5 64 3d 40 ee 31 bc 46 28 e6 3d 10 64 0a bd
       0.05588296 -0.010860026 0.1123815 -0.033786833
0002c0 d2 6d cd bd c0 b1 c4 bc 3e b7 f3 bd 18 9d 1a 3d
       -0.10030712 -0.024010539 -0.11900185 0.037747473
0002d0 0c 24 92 3d e0 7d 45 3c 8c 6c 92 bd 22 84 ed bd
       0.07135782 0.012053937 -0.0714961 -0.11597468
0002e0 74 dd 5d 3d 30 de 56 3d 88 5b b8 bd 1a 61 83 3d
       0.054166272 0.05245799 -0.09001833 0.06415005
0002f0 b2 33 da bd dc 3e 6e 3d 00 24 a2 3d 10 ee 05 3c
       -0.10654391 0.058165416 0.07917023 0.008174434
000300 00 3b 34 3d 40 0c 5e bb b2 c7 86 3d b0 8a fc bc
       0.04400158 -0.0033881813 0.065810576 -0.03082785
000310 ac 9e b0 bd 4c 03 56 3d 7c 2a 92 bd f0 3d 4b bd
       -0.08624014 0.052249238 -0.071370095 -0.049619615
000320 80 ea f6 ba e8 96 5b bd c0 fe 93 3b 40 9a 6c 3c
       -0.0018838197 -0.053610712 0.0045164526 0.014441073
000330 34 c8 dd bd f8 83 22 bd 24 35 9d 3d 8c 6d e0 3d
       -0.10829201 -0.039676636 0.076761514 0.109583944
000340 2c 74 b9 3d 8c 51 bd 3d 08 97 94 bc 6a e3 bb 3d
       0.09055361 0.092440695 -0.018138424 0.09174235
000350 40 b9 cb bd 70 95 e7 bc c0 8f 20 3b 8e 04 cb bd
       -0.09947443 -0.0282695 0.0024499744 -0.09912978
000360 20 e1 e8 bd e0 37 e8 3c 0c 28 ed 3d bc 19 b1 bd
       -0.11371064 0.028346956 0.11579904 -0.086474866
000370 44 df 83 3d c2 a6 99 3d d8 7f a2 3c 7e 29 bb 3d
       0.06439069 0.0750251 0.019836351 0.091387734
000380 b4 e4 82 bd da ed 9b 3d 00 59 4d 3a b2 0d df 3d
       -0.06391278 0.07613726 0.00078333914 0.10891284
000390 ec 3d 4b bd 04 6c 03 bd 2c f8 d3 3d 08 0c 0f 3d
       -0.0496196 -0.032085434 0.103500694 0.034923583
0003a0 d4 bc 75 bd ca 91 b4 bd 20 52 f5 bd ca dd b2 3d
       -0.059994534 -0.088168696 -0.11978555 0.08733709
0003b0 60 ee cb bd 40 1a c7 3b 10 ea e0 bd 72 88 d7 3d
       -0.09957576 0.0060761273 -0.10982144 0.10524072
0003c0 1e c1 ab bd b4 9b 3f bd 80 42 6e 3d 2c 2c 6b 3d
       -0.083864436 -0.04677935 0.058168888 0.057415172
0003d0 68 54 45 3d b0 98 f0 3d 70 c6 4e bc a2 e0 aa 3d
       0.0481762 0.11747873 -0.012620553 0.083436266
0003e0 70 01 5e 3c 20 be 6e bc 7c 96 bc 3d 9e 1e 97 bd
       0.013550147 -0.0145716965 0.0920839 -0.07378887
0003f0 2c 82 a7 bd dc b5 d5 3d 4a 4c ec 3d 00 a8 ff 3b
       -0.08179125 0.104350775 0.115379885 0.0078020096

fc2.bias f4 [32]
000000 c5 ef ae 3b 38 d3 bd bd cc 6c 2e bd 92 8b 83 3d
       0.0053386413 -0.092688024 -0.042584226 0.06423105
000010 3c c7 37 bd bf 93 4e 3d 87 5d 9e 3d 4b df ba 3d
       -0.04486774 0.05043387 0.07732683 0.09124621
000020 28 53 4a bd f0 ba cf bd 26 03 e8 bd 40 01 0b 3b
       -0.04939571 -0.101430774 -0.113287255 0.0021210462
000030 18 23 f2 bc 98 3a 99 bd e0 6f e6 3d 9a 2b ee bd
       -0.02955775 -0.07481879 0.11251807 -0.1162941
000040 80 10 f4 3c 90 75 d1 3b d6 ab af 3c c0 04 eb bb
       0.029793024 0.0063921884 0.021444242 -0.007172197
000050 5a dd fa 3d 84 e5 c7 bd 58 88 af bc 52 9b 3d 3d
       0.12249251 -0.097605735 -0.021427318 0.046290703
000060 30 61 a3 bd 32 7c 80 3d 91 54 d7 3d 71 37 f2 bd
       -0.079775214 0.062736884 0.10514177 -0.11826981
000070 c9 aa a9 ba a9 bd 87 3d 00 57 c2 bc 4b 65 cd 3d
       -0.0012944575 0.06627972 -0.023723125 0.10029086

pi.weight f4 [1, 32]
000000 67 c6 04 3e fb 36 05 be 8b 58 ce 3d 1d 64 1b 3e
       0.1296631 -0.13009255 0.10075482 0.15174909
000010 04 67 f6 bd 3b 1d c3 bd f2 26 23 3d ff c4 f4 bd
       -0.120313674 -0.0952706 0.039832063 -0.119516365
000020 18 2b b2 bd ee 8b 6d bd 3a 1b b0 bc cd 79 d6 bd
       -0.08699626 -0.057994775 -0.021497358 -0.104724504
000030 9b 85 e2 3d 4c 15 bb 3d 0c 68 e7 3d 36 d7 af bd
       0.110606395 0.091349214 0.11299142 -0.0858597
000040 3b 85 27 3e 3a 2d f5 3d 09 23 c4 3c ff 30 2c be
       0.16359417 0.11971517 0.023942487 -0.16815566
000050 a4 dc 56 3d df de 2a 3e 7d ad 07 3e d5 10 1d 3d
       0.052456513 0.16686581 0.13249774 0.03834613
000060 eb c0 91 3c ac e8 21 be 28 97 7f 3d 6d a0 d5 bd
       0.017792186 -0.15811414 0.062400013 -0.104309894
000070 e7 27 07 3e 36 04 0f 3e 7d 15 9c bd e5 7d 4e 3d
       0.13198815 0.1396645 -0.07621286 0.05041303
