model/maddpg/agent_1_critic.pth (torch, 16014 bytes, 5 tensors)

fc1.weight f4 [64, 18]
000000 9d df 14 3e f2 be b5 be 6d ff 66 3e c1 4e 74 3d
       0.14538427 -0.35497242 0.22558375 0.059645418
000010 a9 20 1b 3f 65 7e 55 3d e1 cd c2 bd b4 d3 6c be
       0.6059671 0.052122492 -0.095119245 -0.23127633
000020 26 91 4e bf 89 ed 60 3e 2d aa d7 3e f3 b1 52 be
       -0.8069023 0.21965612 0.4212202 -0.20575695
000030 a3 8b 01 bd 97 1d 05 be e2 cb 93 be 63 ce c6 be
       -0.03162731 -0.12999569 -0.28866488 -0.38829336
000040 80 6c 24 be f9 f2 df be 93 eb 52 be ae e2 9b be
       -0.16057014 -0.4374006 -0.20597677 -0.3044638
000050 a7 b4 b8 3b 00 c7 57 bc ab b1 05 3e 7f 7e 3b 3e
       0.00563677 -0.013170004 0.13056056 0.18309973
000060 9b ec 2c 3e dc 64 83 3e aa 0c 52 c0 f8 6c cb 3d
       0.16887133 0.25662887 -3.282023 0.099328935
000070 4a d5 41 bd 39 1c 8d 3e 45 6a 85 3e c7 c3 ed bd
       -0.04732255 0.27560595 0.2605764 -0.11609607
000080 fb d3 b1 bd 71 ec 89 be 10 fe 6c be b5 b2 b4 3d
       -0.0868301 -0.26938203 -0.23143792 0.08823148
000090 62 52 1e be fb 0c f5 be 3a f3 40 be 62 40 b0 bc
       -0.15461114 -0.47861466 -0.18842784 -0.021515075
0000a0 fa 6f 83 3f 9b 3a db 3d 81 29 26 be b0 da b0 be
       1.0268548 0.107045375 -0.1622677 -0.34541845
0000b0 67 09 d1 3e cf 0e 0c be ea 60 5e bd 32 79 af bc
       0.40827486 -0.13677524 -0.054291643 -0.021420095
0000c0 9f c7 04 bc 1c 9c c6 be e3 21 84 3d 6e 79 b6 be
       -0.008104234 -0.38790977 0.06451776 -0.35639518
0000d0 ab 77 e0 3d 06 fe e7 3d 01 b4 23 3d ec c5 92 3e
       0.10960325 0.11327748 0.039966587 0.28666627
0000e0 93 98 b2 3d 65 73 71 3e 69 a3 27 bf 18 21 50 be
       0.087205075 0.23579176 -0.6548372 -0.20325124
0000f0 d9 23 82 3e 2c 1f b1 be 61 69 da 3d ce ac 0a 3c
       0.25417975 -0.34594095 0.10664631 0.008464051
000100 30 b3 88 3d cc 33 57 3e 45 72 a1 bd 17 2a c0 3c
       0.06674802 0.21015853 -0.07883123 0.02345757
000110 52 0d 89 3d 01 8e dd 3e 25 f5 9d 3e 5c b5 de 3e
       0.06691994 0.43272403 0.30851093 0.4349774
000120 68 f7 f7 bd e4 9e 98 bc 20 9c 02 3e dd 93 4f be
       -0.12107736 -0.018630452 0.1275487 -0.20271249
000130 7b 71 22 bd 2b 62 54 3e 5d 56 e3 bc 41 0a 13 3e
       -0.039659005 0.20740573 -0.027751142 0.1435938
000140 51 56 5a 3d 27 cc 1e be ae 6a 6a bd b7 e5 db bc
       0.053304974 -0.15507565 -0.057230644 -0.026842935
000150 07 98 50 3e f2 c2 4b 3e 28 b0 18 3d ea f5 47 be
       0.20370494 0.19898584 0.03727737 -0.19527403
000160 cc 01 ec 3c da fd 42 be bb ac 0a 3e a6 75 b3 3e
       0.02880945 -0.19042149 0.13542454 0.35050696
000170 a9 12 b2 bd 35 57 74 3d 81 26 5c bd da 5a 10 be
       -0.086949654 0.05965348 -0.053747658 -0.14097157
000180 b3 59 b1 be 9f b1 0c be 3c fd 7b 3e f8 a9 7b 3e
       -0.34638748 -0.13739632 0.2460832 0.24576557
000190 d6 1b 50 bc 64 62 96 be f2 f2 84 3e 3b bb 03 be
       -0.012701949 -0.2937194 0.25966603 -0.12864392
0001a0 1e a2 49 be 5f a4 f1 bc e8 6e 1b be 11 9f be 3f
       -0.19690749 -0.029497324 -0.15179026 1.4892293
0001b0 70 a1 12 3c dc 62 42 bd d7 19 44 bd 8b 1f 14 bd
       0.0089496225 -0.04745756 -0.047876205 -0.036162894
0001c0 7a 71 2c 3f 26 52 02 3e 73 93 87 bd 11 70 54 3e
       0.6736065 0.1272665 -0.066199206 0.20745875
0001d0 47 6f ae 3f 14 bd 93 bd 15 78 bd 3c 5b 47 b6 3d
       1.3627709 -0.07213798 0.023128549 0.08900329
0001e0 a7 9d 33 be 4e 80 a6 be 38 7c 8d be ad 6f ee bd
       -0.17540608 -0.32519764 -0.27633834 -0.11642394
0001f0 d3 ab 3c be 3a b7 99 be 8a f6 f2 3d 74 dd 98 be
       -0.1842492 -0.30022603 0.1186343 -0.29856455
000200 70 ac 35 be d8 e7 58 be 1b 2a 1a 3f dd 31 8a 3e
       -0.17741561 -0.21182191 0.602205 0.26991168
000210 86 37 7d be bc c7 7c 3d ca a0 b7 3f 11 01 95 3e
       -0.24728212 0.06171392 1.4345944 0.29102376
000220 2c 2d af bd 92 f0 ba bd 85 ab 28 3e ce 7a 7d be
       -0.08553538 -0.091279164 0.1647168 -0.24753878
000230 b3 1b 72 3e b4 c7 ad 3e 96 3a 0d be b8 7b 14 3f
       0.23643379 0.33941424 -0.1379188 0.5800128
000240 9a b1 2e 3c ea a0 3a 3e 35 35 c6 bd 88 9b 1b 3d
       0.010662461 0.18225446 -0.09678117 0.037990123
000250 4c ee 5e be 1a 66 11 be 05 58 0a 3e c3 1f 22 be
       -0.2177059 -0.14199105 0.1351014 -0.15832429
000260 2c 36 39 3f a7 45 7f be e3 94 83 3e 78 a6 b4 be
       0.72348285 -0.24928914 0.2569953 -0.35283256
000270 2b 85 af 3d cc f6 8d 3d 78 d6 c2 3d f6 83 53 be
       0.08570322 0.069318384 0.09513563 -0.20655808
000280 f1 02 5a 3f e0 19 ce bf a1 25 d1 bd bb 71 20 be
       0.8516074 -1.6101646 -0.10212255 -0.15668385
000290 3d f9 68 3c ab 1b 6b bc e3 25 33 3e de a9 5a 3d
       0.014219579 -0.014349858 0.17494921 0.053384654
0002a0 78 d9 10 3b d6 bb 86 3e bd a5 fa 3f d0 5c 40 be
       0.0022102278 0.26315182 1.9581829 -0.18785405
0002b0 a8 68 82 be d9 7f 2f be 64 4b a1 3c ff 4f 00 bd
       -0.2547047 -0.17138614 0.01968927 -0.03132629
0002c0 70 d0 8b be 9d 29 b9 be 50 e9 82 3c 09 27 76 bd
       -0.27307463 -0.3616456 0.015980393 -0.06009582
0002d0 84 77 2f 3e 56 87 04 3f df 23 cd bd aa 87 99 3c
       0.17135435 0.51769006 -0.100166075 0.018741447
0002e0 e7 46 64 bf af 6a 8a 3d 30 1f 00 3e 3f 97 47 be
       -0.8917069 0.067586295 0.12511897 -0.1949129
0002f0 c0 17 5e bf b8 91 5c 3e b2 2b 8e be 20 13 8c be
       -0.8675499 0.21539962 -0.27767712 -0.2735834
000300 3f f5 80 3e 4f 60 82 3e 87 a5 84 bd 76 c3 0b 3f
       0.25187108 0.25464103 -0.06476884 0.54595125
000310 47 ba 98 bd 51 23 e1 3e c6 cb 7c be 14 4b 15 3e
       -0.074574046 0.43972257 -0.24687108 0.14579421
000320 e9 cd 35 3e f6 17 ed 3d 91 a4 21 be 99 69 e2 bd
       0.1775433 0.11576836 -0.15785433 -0.110552974
000330 2a c8 80 3c ba bc 06 bd ba 90 0f c0 97 ef 78 be
       0.015720446 -0.032894827 -2.2432084 -0.24310146
000340 26 50 4d 3c d0 b8 2d 3e bd c0 88 bd 38 fc 8e 3e
       0.012531316 0.16965032 -0.06677387 0.27926803
000350 53 f2 3c be 7a a4 3c 3d e2 76 b5 bd ed 08 a5 3d
       -0.18451814 0.046055295 -0.08860566 0.08058343
000360 09 ff 79 3e d9 53 1e bc 99 34 c2 3d f5 34 fc b9
       0.24413694 -0.0096635455 0.094826885 -0.00048104642
000370 93 35 91 3e 61 cf 17 be 8d 40 5c 3d 74 ed 6f 3e
       0.28361186 -0.14825203 0.053772498 0.23430425
000380 f0 58 58 c0 63 ec 22 bc f8 c2 bb bd 7e 7f 84 3e
       -3.3804283 -0.009944054 -0.09168047 0.2587852
000390 8a 87 6f 3e ad 9c 93 bd c2 bc e3 3d 17 47 7b 3e
       0.23391548 -0.07207618 0.11119987 0.24538837
0003a0 d9 67 23 3f 01 d4 e9 3e ff 55 84 bc bb 42 91 be
       0.63830334 0.4566956 -0.016154287 -0.28371224
0003b0 48 95 ce 3d 82 08 3c bc 61 f9 a7 3e f7 2d 1d 3e
       0.10087067 -0.011476638 0.32807449 0.15349565
0003c0 6f ef 66 be 01 2e 5d 3f dc ae 86 c0 c5 c2 f7 3d
       -0.22552274 0.8639832 -4.208845 0.12097696
0003d0 08 98 aa ba 62 ef 36 3f b8 62 ad 3d 63 da 6e be
       -0.001301528 0.7145902 0.08466095 -0.23325495
0003e0 9e b9 8f 3d 5f 11 bc 3e 35 65 9d be b4 51 94 3f
       0.070178255 0.36732003 -0.30741277 1.1587434
0003f0 87 e0 d0 3d 34 e6 f4 be 66 98 bd 3d bb de 39 3e
       0.10199075 -0.4783188 0.09257583 0.18151371

fc1.bias f4 [64]
000000 cc 70 cb 3e ea d6 b3 3e fc 82 19 3f ee 68 f9 3b
       0.39734495 0.35124904 0.5996549 0.0076113855
000010 cf b4 b3 3d d1 b6 8c be 46 16 63 3e 93 8e 82 3e
       0.08774721 -0.27483228 0.22176465 0.254994
000020 92 f0 77 bd c3 42 da bc ca b8 bd be 4e 70 4f 3e
       -0.06053216 -0.026643163 -0.37055045 0.20257685
000030 d1 52 a9 3e ce bd 91 3e d2 e9 4d 3e 6a a9 27 3e
       0.33070996 0.28465122 0.20108727 0.1637322
000040 f7 88 89 3e ef c2 10 bd b9 db 33 be c5 84 2b bf
       0.26862308 -0.035342153 -0.17564286 -0.66999465
000050 95 e8 ed be 1e e0 81 be 18 80 22 3e c5 86 e9 bd
       -0.46466509 -0.253663 0.15869176 -0.114026584
000060 cd 12 52 3e f5 36 89 bd 14 55 4d 3e 13 32 ac 3e
       0.20514984 -0.06699935 0.20051986 0.33631954
000070 df ac e2 be 9c aa 9c be c5 0b 0c be f0 e0 51 3e
       -0.44272515 -0.30598915 -0.13676365 0.20495963
000080 35 60 66 be e7 97 04 3d 29 a6 53 3e b9 d2 52 3d
       -0.22497638 0.032371428 0.20668854 0.051470492
000090 c1 25 6d 3c bd 75 79 be 67 f8 76 bd 09 2c 06 be
       0.014474333 -0.2436132 -0.06029549 -0.13102736
0000a0 97 b7 01 3f 86 3b 27 be 85 e5 d9 be a2 2b 36 3d
       0.5067076 -0.163313 -0.42557922 0.044475205
0000b0 86 4d c8 be 99 0c 39 3d b1 41 cc bd 40 6b 9f 3e
       -0.39121646 0.04517803 -0.09973467 0.31136513
0000c0 ff a8 aa 3e a0 ec a9 3e 9d 7a f7 be 6f b8 96 3e
       0.3333206 0.33188343 -0.48335734 0.29437587
0000d0 e5 ed 0e 3c e5 6e 6e be 8b bf 9b 3d ff 44 96 3e
       0.008723711 -0.2328449 0.07604893 0.29349515
0000e0 b2 9f 92 be 7b 47 5b be 21 be da be 14 72 d2 3e
       -0.28637463 -0.21413986 -0.42723182 0.4110266
0000f0 e3 bd 78 3d 30 9f 8c 3e 91 73 e4 3d 8b df 79 bc
       0.060727965 0.274652 0.11154855 -0.015251051

fc2.weight f4 [32, 64]
000000 7c 82 53 bd 7f 92 31 3d fa 4e d4 3d c8 54 0d 3d
       -0.05163811 0.0433526 0.10366626 0.03450468
000010 30 75 81 bc b3 1b 25 be b9 8e b4 bd c4 7d 42 bd
       -0.01580295 -0.16123848 -0.08816285 -0.04748322
000020 80 0b b7 bb 40 87 98 3d 3e 6d f0 bd 4b 61 23 3d
       -0.0055860877 0.07447672 -0.11739586 0.039887708
000030 6c f0 cf bd 9f cf 11 3d f0 87 77 bd 9f 03 0d 3d
       -0.10153279 0.035598394 -0.060432374 0.03442728
000040 8a 12 a2 3d 56 61 ae bd e9 72 dd bc b8 6b 48 bd
       0.07913692 -0.08514659 -0.027032332 -0.048930854
000050 40 ba 2f bb 98 b5 9a 3c 7e f9 6f bc 55 4e de bd
       -0.0026813895 0.018885419 -0.014646886 -0.108547844
000060 c2 ca c4 bd 38 5a 18 be 80 7e 4d 3d e9 4f ee bc
       -0.096089855 -0.14878166 0.050169468 -0.029090839
000070 49 61 24 be 22 6c 97 3d d8 0e c6 bc b0 84 d8 bd
       -0.16052736 0.073936716 -0.024177 -0.10572183
000080 25 86 d5 bd df 15 6a bd 64 cc e7 bd 29 7a f0 bc
       -0.10425977 -0.057149764 -0.11318281 -0.029355126
000090 4a 18 95 bd 22 89 ac 3d 41 47 d2 bd b4 26 f7 bd
       -0.072800234 0.084245935 -0.10267497 -0.12067929
0000a0 59 44 03 3d 83 d1 d0 3c b5 be c6 bc 30 7e 74 bc
       0.032047603 0.025490528 -0.024260858 -0.014922664
0000b0 b1 a5 48 bc 5b 28 a9 3d fb 4d 0b be 0f c0 13 be
       -0.012246535 0.0825965 -0.13603966 -0.14428733
0000c0 27 38 22 3d c6 5b 25 be 5f 90 d1 bd a8 50 c5 bc
       0.039604332 -0.1614829 -0.10232615 -0.024086311
0000d0 9f ec ab 3d f7 be 32 bd 28 06 25 bd ac 08 d9 bd
       0.08394741 -0.04363915 -0.040289074 -0.10597357
0000e0 d8 ce 00 be 6f 79 6c 3d da 65 dc bd de 9d c7 3d
       -0.12578905 0.057732996 -0.10761614 0.09746908
0000f0 a5 58 01 be b6 89 ed bd e8 e8 b2 bc d5 7e 7b 3d
       -0.12631471 -0.11598532 -0.021839574 0.061400253
000100 19 80 13 3d 01 0a 29 3e 71 74 d5 bd 2a e6 2c 3e
       0.036010835 0.16507722 -0.104226 0.16884676
000110 2e c0 ec 3d 19 f9 8c bc f9 c5 0a be 91 4c 3a be
       0.11560093 -0.017208623 -0.13552083 -0.1819327
000120 07 80 41 3d b0 c4 b6 bd b7 76 21 3e 24 58 bc 3c
       0.047241237 -0.08924234 0.15767942 0.022991247
000130 08 f2 86 3e a8 96 0e bd 0d 4c 9f bd 51 41 03 3e
       0.2635653 -0.034811646 -0.077781774 0.12817885
000140 94 fb 5b 3e e8 6e d1 3d e7 ef 18 bd d6 7c 59 bc
       0.21482688 0.10226232 -0.037338164 -0.013274392
000150 40 c2 0f 3f 9c 1a c7 3c 8a e8 d3 bd 83 3f 65 3e
       0.56155777 0.02430468 -0.10347088 0.22387509
000160 12 ff af bd f8 82 a3 3d fc ff 70 3e 02 9c 87 3d
       -0.08593573 0.07983965 0.2353515 0.06621553
000170 1b e5 fc 3d 70 05 a1 bc b1 7e b1 bd 66 3f 0d 3f
       0.12348386 -0.019655913 -0.086667426 0.55174863
000180 6c 5c b9 3d 3a 49 0c 3d 50 f6 48 3e c7 8a 2d 3d
       0.09050831 0.03424952 0.19625211 0.042368677
000190 2d 88 fe bd de 22 52 be 12 bb 63 3d 6c d0 dd 3d
       -0.12428317 -0.20521113 0.055598326 0.10830769
0001a0 40 8a 9b 3d 74 94 5f 3d cb c7 8d 3e 95 e3 1c 3e
       0.075947285 0.054584935 0.27691492 0.1532119
0001b0 a3 c6 2e 3e 6b 3c 66 bd 29 f6 9c bd f4 bb 82 3d
       0.17067961 -0.056209963 -0.07664139 0.063835055
0001c0 ff 15 37 bd 88 7c c2 bd fe 98 e6 bd 55 db ec bd
       -0.04469871 -0.09496409 -0.1125965 -0.11565272
0001d0 73 df 13 bd 7c 88 d6 bd 64 8e c1 bd ea 05 ec bd
       -0.03610177 -0.10475251 -0.09450987 -0.115245655
0001e0 3d 0e 80 3d ef 78 08 3e 3c e5 a5 3e e8 8c a3 3e
       0.06252716 0.13327383 0.32401454 0.3194344
0001f0 5f 14 dc bd d6 87 7c be 82 f6 84 bd a5 47 a4 3d
       -0.10746073 -0.24661192 -0.0649233 0.080214776
000200 a3 ab 5b 3e 23 d7 e6 be d8 d7 53 3e 0d 4a 99 be
       0.21452193 -0.4508601 0.20687807 -0.2993931
000210 d4 3c 58 bd b3 66 f9 3d 6e fd df 3c 69 8e 9e 3d
       -0.052792385 0.121777914 0.027342524 0.07742006
000220 e9 aa 85 3e 8c 93 c5 3d 42 86 55 3d 9d e7 82 bd
       0.26106957 0.09647283 0.05212999 -0.06391833
000230 79 2e 72 bf 1e 88 11 bf 0e b8 23 3e 71 5b 8c be
       -0.9460216 -0.56848323 0.1598818 -0.27413514
000240 e9 d2 62 bd 40 ac 0f be ee 3e 0f 3e d1 59 b3 bd
       -0.05537692 -0.14030552 0.1398885 -0.087573655
000250 57 24 8e be 14 54 55 3e ea 1e bd be db 72 46 be
       -0.277621 0.20832855 -0.36937648 -0.19379751
000260 f6 4b f7 bd 62 45 04 3d f8 f7 2e bf 49 11 3a 3d
       -0.12075035 0.03229273 -0.6834712 0.04542664
000270 a7 cf a2 3d 0d 32 fa 3d 7b a5 22 be 88 b1 ee bd
       0.07949763 0.12216578 -0.15883438 -0.11654955
000280 d7 18 9c bd e2 eb 87 3d d1 e8 d8 be b3 62 1d 3e
       -0.07621925 0.06636788 -0.42365125 0.15369682
000290 ed 40 f6 3d b3 b1 1b 3e f4 34 c3 bd 7a 85 ad be
       0.12024102 0.15204506 -0.095315844 -0.33890897
0002a0 81 4f bc be 97 7c eb 3b b8 7c 80 be 1d 4a 3b be
       -0.36779407 0.007186483 -0.25095153 -0.1828999
0002b0 d0 a0 3e be 47 fc 8d bd 36 93 45 bc 94 84 1f 3e
       -0.18616033 -0.06932884 -0.012059024 0.15577918
0002c0 a8 da e5 bd da bc ee 3d 7e 5d 34 bd be 57 00 be
       -0.11223346 0.11657114 -0.044034474 -0.12533471
0002d0 5c b6 25 3e 33 22 32 3e a2 e6 cd 3d bb 16 03 3d
       0.16182846 0.17395858 0.10053755 0.0320041
0002e0 b0 82 c6 3c b1 a9 e0 bd 6c ea 07 3b e9 38 4d be
       0.024232239 -0.10969866 0.0020739092 -0.20041241
0002f0 dc a7 32 3e 10 97 41 3d a0 8b a2 bd 0c 1b 00 3e
       0.17446846 0.047263205 -0.079367876 0.12510318
000300 38 ba cc bd b0 d1 80 be 73 d1 3b 3e c4 4f 16 be
       -0.09996456 -0.2515998 0.18341617 -0.14678866
000310 d2 a3 94 3d ed a4 e5 bd f4 0b d9 3d 00 3d e0 3d
       0.07257809 -0.11213098 0.10597983 0.10949135
000320 8d ec 76 3e d7 c1 5d 3e df b3 8d be ea 70 9c bd
       0.24113674 0.21655975 -0.27676293 -0.07638724
000330 aa 9c 27 be 2e e3 7a 3e fb 49 93 bf 18 76 d9 3c
       -0.16368356 0.24500725 -1.1506952 0.02654557
000340 ff 46 57 bc 16 24 d2 3e a8 05 05 be d9 3f 5c be
       -0.013139485 0.41043156 -0.12990439 -0.21508731
000350 3c 8f ba be 24 5a 84 bd 16 26 73 be 44 78 e6 3d
       -0.36437404 -0.064625055 -0.23744997 0.112534076
000360 76 cd e9 bd 27 b5 13 3c 00 7d 45 3d 49 bd 69 3d
       -0.11416142 0.009015358 0.048214912 0.057065282
000370 7e 28 d6 3d de 5a 5b 3d 55 51 2e 3e da 87 9d be
       0.10456942 0.053553455 0.17023213 -0.3076771
000380 ea 6f 06 bc 78 2f 1e 3d 20 c6 9c be 14 67 82 3c
       -0.008205393 0.03861949 -0.30619907 0.015918292
000390 e3 f3 cc 3d 16 b7 92 3e e4 91 d6 bc 54 7b b9 bd
       0.10007455 0.28655308 -0.026192613 -0.09056726
0003a0 93 21 b3 be d3 02 d0 3d bd b5 bf bd df d2 a4 3e
       -0.34986553 0.10156789 -0.09360836 0.32192132
0003b0 39 4c d6 bd 45 eb 43 be 90 5e fb 3b 97 bb 00 3e
       -0.10463757 -0.19132717 0.007671185 0.1257156
0003c0 d6 93 3c 3d a5 71 a9 3e a7 69 54 be 03 a9 37 3f
       0.046039425 0.33094516 -0.20743428 0.71742266
0003d0 2c a0 15 3e f4 41 8a bd d0 d9 3b 3d 77 45 2a 3e
       0.14611882 -0.06750861 0.04586202 0.16628061
0003e0 5f 32 93 3d 88 97 1a 3e b1 f9 11 be 52 8b 06 bf
       0.07187342 0.15096867 -0.14255406 -0.52556336
0003f0 9e 9d f5 3c 4d 5e fd 3c 6e a4 db 3d d1 3f fc 3d
       0.029982384 0.030928755 0.10724722 0.123168595

fc2.bias f4 [32]
000000 fd c6 1e be dd b2 37 be bb a7 7b 3e 02 95 c8 3e
       -0.15505596 -0.17939325 0.24575703 0.39176184
000010 68 9c be bc 2d 9f 8a 3d 9f a0 96 bb e6 54 26 bc
       -0.02326794 0.067686416 -0.0045967842 -0.010152077
000020 59 57 00 3e 5f e0 c7 3d 5b fc a3 be 64 49 8a 3e
       0.1253332 0.09759592 -0.3202847 0.27009118
000030 82 78 69 3d e5 36 95 bc e2 d0 30 3e e9 20 01 be
       0.05699969 -0.018214652 0.17267182 -0.1261021
000040 4f 4e e1 bc 49 8a d8 bd 7f 5e e7 3d 93 0d 3e bd
       -0.02750316 -0.10573251 0.112973206 -0.046399664
000050 44 c3 89 be e2 43 a9 3c f2 96 fe bd c7 4c 8a be
       -0.26906788 0.020662252 -0.12431134 -0.270117
000060 5a be 99 bc f3 0f 82 3d 5f c8 cd bd 2d c3 5e 3e
       -0.018767525 0.06350698 -0.100479834 0.21754141
000070 05 af 39 bc aa a3 06 be 56 6a 67 3e ae 2a d5 3d
       -0.011333232 -0.1314837 0.22599158 0.10408531

q.weight f4 [1, 32]
000000 6e 30 d3 3d 98 ad 0a be c7 ba 09 3f 78 98 14 3f
       0.103119716 -0.13542783 0.53800625 0.5804515
000010 4b 93 08 3f 1c 42 18 3e 6b c5 70 3d 82 54 97 3e
       0.5334975 0.14868969 0.058782022 0.29556662
000020 76 da 74 be e5 24 05 bf 07 00 20 3f 00 0b 1f bf
       -0.23911461 -0.5200942 0.6250004 -0.6212616
000030 eb 2d 70 3c 5f b5 b5 be 32 58 b3 3e 65 bb 81 be
       0.014659385 -0.35489938 0.35028225 -0.25338283
000040 df e6 78 be b4 82 70 be f3 53 7d be a8 6d ee 3e
       -0.2430682 -0.2348736 -0.24739055 0.46568036
000050 b0 46 28 3f d7 45 bd 3e 53 76 34 3e 3e 83 b7 be
       0.6573286 0.36967346 0.17623262 -0.35842317
000060 47 b7 4b 3e 58 83 29 bf 3e 0d 73 be 55 cc 9e bf
       0.19894134 -0.6621604 -0.2373552 -1.2406107
000070 1f 09 05 be db 32 81 3d 4b a3 85 be 75 be 6f 3d
       -0.1299176 0.06308528 -0.26101145 0.058531243
