model/maddpg/agent_2_target_actor.pth (torch, 12746 bytes, 5 tensors)

fc1.weight f4 [64, 5]
0	0x3e92346d	0.28555623
1	0xbe6825f1	-0.22670723
2	0x3ec97106	0.39344043
3	0xbe93a979	-0.28840235
4	0x3ec175a3	0.37785062
5	0xbd5acf18	-0.053420156
6	0xbe00f312	-0.12592724
7	0x3eb61a9a	0.3556717
8	0x3e6eaca4	0.23308045
9	0xbe70ca0e	-0.23514578
10	0xbe9eb451	-0.30996946
11	0xbea8bcf5	-0.32956663
12	0xbe9699fd	-0.2941436
13	0xb9aa8e43	-0.0003253092
14	0xbe474b34	-0.19462281
15	0x3eff1016	0.4981696
16	0x3ea3f2c6	0.3202116
17	0xbe3609f0	-0.17777228
18	0x3dc7c8c5	0.097550906
19	0xbcc29776	-0.023753863
20	0xbe586a5b	-0.21134321
21	0x3e9f04dc	0.31058395
22	0xbeafb594	-0.3431822
23	0x3f2ff854	0.68738294
24	0xbd2af19a	-0.041734315
25	0xbe629874	-0.22128469
26	0xbe22bc01	-0.1589203
27	0x3e94c2a7	0.29054758
28	0xbe0ab982	-0.13547328
29	0xbe8f79eb	-0.28022704
30	0x3eeac5a9	0.45853928
31	0x3e6a1698	0.22860181
32	0xbea23a80	-0.31685257
33	0x3d60f326	0.054919384
34	0xbe1c4cfb	-0.1526374
35	0x3cd5ffbc	0.02612292
36	0x3d3e412b	0.046448868
37	0xbe79335e	-0.24336001
38	0x3c7c1efa	0.015388245
39	0xbd58cc13	-0.052928995
40	0xbea46f28	-0.32116055
41	0xbe93e39b	-0.28884587
42	0x3dbe67fd	0.09297178
43	0xbe3a255d	-0.18178315
44	0xbdbfc1b2	-0.09363116
45	0x3dfd6bda	0.12374087
46	0xbe41126c	-0.18854684
47	0x3eb32d62	0.34995562
48	0xbe888152	-0.26661164
49	0x3db3fe6e	0.08788763
50	0xbe1a6b17	-0.15079914
51	0x3e970337	0.2949464
52	0x3db2f32e	0.08737789
53	0x3df38ddd	0.11892293
54	0xbd15f357	-0.03660902
55	0xbe801b76	-0.2502095
56	0x3eebd359	0.46059683
57	0xbe93c77b	-0.2886313
58	0xbdae99cd	-0.08525429
59	0x3efe3599	0.49650267
60	0xbe962a08	-0.29328942
61	0x3e9e93c2	0.30972105
62	0xbe079535	-0.13240512
63	0xbdf4cdda	-0.119533256
64	0xbec1503e	-0.37756532
65	0x3f023bd6	0.5087255
66	0x3d465fc6	0.04843118
67	0xbd2c3aed	-0.042048384
68	0x3f00c5c5	0.5030177
69	0x3e3c4cce	0.18388674
70	0x3e0611d8	0.13092744
71	0xbeb0c7d8	-0.3452747
72	0x3d230010	0.03979498
73	0x3e83f9f4	0.25776637
74	0x3db47450	0.08811247
75	0xbe90fd07	-0.28318045
76	0xbc06e187	-0.008232481
77	0xbdf43d42	-0.119257465
78	0xbd816792	-0.063185826
79	0xbd9959a8	-0.07487804
80	0x3d1471cb	0.036241334
81	0xbeab50e0	-0.3346014
82	0x3ee57be9	0.44821098
83	0x3bbd5309	0.005777721
84	0xbe1c9883	-0.15292554
85	0xbe8b5737	-0.27214977
86	0x3e6129f8	0.21988666
87	0xbf2a0324	-0.6641104
88	0xbdac1ca1	-0.08403898
89	0x3d4a0ad7	0.049326744
90	0xbe8f4dee	-0.27989143
91	0x3dde1e26	0.10845594
92	0xbeac422d	-0.33644238
93	0xbcdece55	-0.027197996
94	0xbe44af57	-0.19207512
95	0x3ef894cc	0.48551023
96	0xbed42076	-0.41431016
97	0x3d8ced3e	0.06881188
98	0x3e8cd94d	0.27509537
99	0xbd0fef89	-0.035140548
100	0x3e047a9c	0.12937397
101	0x3e01ec61	0.12687828
102	0xbe0d6ef6	-0.1381186
103	0xbef7184b	-0.48260722
104	0x3d98787a	0.07444854
105	0xbf00776f	-0.5018224
106	0xbee46e61	-0.44615462
107	0x3ecf2653	0.40458927
108	0x3e6ad638	0.2293328
109	0x3e291c08	0.165146
110	0x3e10635d	0.14100404
111	0x3e0e9a04	0.1392594
112	0x3ec2235b	0.379176
113	0x3d90eb10	0.070760846
114	0x3db92482	0.090401664
115	0x3e8ee78d	0.27911034
116	0xbeeee481	-0.4665871
117	0xbeadc978	-0.3394277
118	0x3e47b3f2	0.19502237
119	0xbdc78efc	-0.09744069
120	0xbe9286c7	-0.28618452
121	0xbe492983	-0.19644742
122	0x3ee86fc5	0.45397773
123	0x3e5bedcf	0.21477436
124	0xbd8a77e2	-0.06761147
125	0xbe291c80	-0.16514778
126	0x3e9f958d	0.31168786
127	0xbeb2c2cb	-0.3491424
128	0x3d4c981e	0.049949758
129	0xbd8b8094	-0.06811634
130	0xbf21eaa0	-0.63248634
131	0x3ed33a14	0.41255248
132	0xbe6a04d9	-0.22853412
133	0x3e90eb74	0.28304636
134	0xbe00e980	-0.12589073
135	0x3eefd7cd	0.4684433
136	0xbd7ad7d7	-0.061240997
137	0x3e96dca3	0.29465207
138	0xbea0dd8e	-0.31419033
139	0xbdbb0a62	-0.0913284
140	0x3e849e15	0.25901857
141	0x3ec29cf2	0.38010365
142	0x3e1d25ec	0.15346497
143	0xbeb1d156	-0.34730023
144	0x3e58b854	0.21164066
145	0xbefdb74f	-0.49553916
146	0x3f1ab4f2	0.6043235
147	0xbf15c586	-0.5850452
148	0x3e16d7e5	0.14730795
149	0x3a2ae41a	0.0006518975
150	0xbeacbb60	-0.33736706
151	0x3f1697cc	0.58825374
152	0xbe8572bb	-0.26064095
153	0x3e725b3a	0.23667613
154	0x3eaca455	0.33719125
155	0xbe81039a	-0.2519806
156	0x3ec233d7	0.37930176
157	0xbdb97e20	-0.090572596
158	0x3dc1ffee	0.09472643
159	0xbeb89bf4	-0.36056483
160	0x3e84a8a9	0.25909927
161	0xbe425563	-0.18977885
162	0x3e0351f7	0.12824236
163	0xbcf4333d	-0.029809589
164	0xbebf5348	-0.37368226
165	0x3defb8ad	0.11705146
166	0xbe9b4023	-0.3032237
167	0x3e479b54	0.19492847
168	0xbe86bf11	-0.26317647
169	0xbec57820	-0.3856821
170	0x3e69a95e	0.22818515
171	0x3ea5a104	0.32349408
172	0xbe0142be	-0.12623116
173	0x3e370d4f	0.1787617
174	0x3f21e60a	0.63241637
175	0x3d83d077	0.06436246
176	0xbd86c6e8	-0.06580907
177	0xbe8a957b	-0.2706717
178	0xbe5a39d7	-0.21311127
179	0xbbad0113	-0.005279669
180	0x3e7e7918	0.24850881
181	0x3dd21dfa	0.10259624
182	0xbc0a5ee4	-0.008445475
183	0x3ea0f4d5	0.31436792
184	0x3dc2fdb0	0.09521043
185	0x3eda0a1a	0.42585832
186	0xbdf47200	-0.11935806
187	0xbe6377a5	-0.2221361
188	0xbe56e9b0	-0.20987582
189	0xbe7c326a	-0.24628606
190	0xbef39cb5	-0.47580495
191	0x3e1c7e57	0.1528257
192	0x3efc8aa6	0.4932453
193	0xbe6a422d	-0.22876807
194	0x3ebf7391	0.37392858
195	0xbd5992b0	-0.053118408
196	0x3e6d848d	0.23195095
197	0x3e801ec4	0.25023472
198	0x3e7885bd	0.24269767
199	0x3e7bc755	0.24587758
200	0x3ec3bfad	0.38232175
201	0xbd8549e5	-0.06508235
202	0xbcb2a9e4	-0.021809526
203	0xbe7347d2	-0.23757866
204	0x3d732fcb	0.05937175
205	0x3f026966	0.50942075
206	0x3e43c37b	0.19117539
207	0xbe0a845d	-0.13527055
208	0x3e60b1b8	0.21942794
209	0x3e512dbe	0.20427606
210	0x3e507bca	0.20359722
211	0xbee4e909	-0.44709042
212	0xbda68696	-0.08131139
213	0x3e59d267	0.21271668
214	0x3eb4a4a0	0.3528185
215	0xbe500b2c	-0.20316762
216	0x3df5d27c	0.12003037
217	0xbebf25f9	-0.37333658
218	0x3ec510f2	0.3848949
219	0xbbde1356	-0.0067772074
220	0x3eeac10e	0.45850414
221	0xbe012df1	-0.12615182
222	0x3d60f104	0.05491735
223	0xbdc74b81	-0.09731198
224	0x3e7aad8a	0.24480262
225	0x3e0c065d	0.13674302
226	0xbde52cd8	-0.11190194
227	0x3ecec676	0.4038579
228	0x3e04f4ae	0.12983963
229	0xbed5dc89	-0.41769817
230	0x3c8d4b39	0.017247783
231	0x3d6d7336	0.0579712
232	0xbf0bd574	-0.5462258
233	0xbe59a857	-0.21255623
234	0xbd36d395	-0.044635374
235	0x3f12438c	0.5713432
236	0x3e4a1651	0.19735076
237	0x3d88a8dd	0.06672833
238	0xbe06cc67	-0.13163911
239	0xbd8a3916	-0.067491695
240	0xbc8849ae	-0.016636696
241	0xbe4f9e3f	-0.2027521
242	0x3e92e80c	0.28692663
243	0xbeb4be2a	-0.35301334
244	0xbdb0c495	-0.08631245
245	0x3e08143f	0.13288973
246	0x3e1b8583	0.1518765
247	0xbe1d4600	-0.15358734
248	0xbcef692c	-0.029224955
249	0x3efd1fb6	0.49438256
250	0xbe25e9d2	-0.16202477
251	0x3eb2acb9	0.34897402
252	0xbedc8ffc	-0.430786
253	0xbda2c6cc	-0.07948074
254	0xbd9a4836	-0.075333044
255	0xbf0aea56	-0.5426382

fc1.bias f4 [64]
0	0x3e4db4ff	0.20088576
1	0xbeb7ae1e	-0.35875028
2	0xbe722507	-0.23646937
3	0xbc522b48	-0.012827702
4	0x3e8945fd	0.2681121
5	0xbb3af0e1	-0.0028524923
6	0x3e8a74a3	0.27042112
7	0x3ea3cc28	0.31991696
8	0xbed39193	-0.41322002
9	0x3e858837	0.26080486
10	0xbc9c629c	-0.01908999
11	0xbd9b426d	-0.07581029
12	0xbebe16cd	-0.3712677
13	0x3f1175dc	0.56820464
14	0x3e92ca3e	0.28669924
15	0x3e2c37bd	0.16818137
16	0xbe722106	-0.2364541
17	0x3e55e74e	0.20889017
18	0xbeaa5c2f	-0.33273456
19	0x3e7182bd	0.23585029
20	0x3e49a3d7	0.19691406
21	0xbd9e2c6c	-0.077233166
22	0x3e7847a2	0.24246076
23	0xbe88782d	-0.26654187
24	0x3ea4cb58	0.3218639
25	0x3e9aae0f	0.3021092
26	0x3f22b5c1	0.63558584
27	0xbe9a7080	-0.30163956
28	0x3ca0f479	0.019647824
29	0x3ea873fc	0.3290099
30	0x3d64d135	0.055863578
31	0xbdc39664	-0.09550169
32	0x3ed65cfb	0.41867813
33	0x3dbc81ae	0.09204422
34	0xbe827e90	-0.25487185
35	0xbe408145	-0.18799312
36	0xbeabe2ab	-0.3357137
37	0x3e97296c	0.2952379
38	0x3e97e8e7	0.29669878
39	0x3d8cefea	0.068816975
40	0x3e4cb5dd	0.1999125
41	0xbe7272e1	-0.23676635
42	0xbec7a21b	-0.38990864
43	0xbeb99620	-0.3624735
44	0xbbeb71b7	-0.0071851867
45	0x3e550ebf	0.20806406
46	0xbc71f369	-0.014767506
47	0x3df441c9	0.1192661
48	0x3eb5aba9	0.3548253
49	0xbccf2582	-0.02528644
50	0x3f0994d5	0.53742725
51	0xbe5a113f	-0.21295641
52	0x3ebec61d	0.37260523
53	0x3a09001a	0.00052261504
54	0x3cd3ef38	0.025870904
55	0x3f1508c8	0.58216524
56	0x3e79b0d1	0.24383856
57	0xbeb7efaa	-0.35925037
58	0x3e37b863	0.17941432
59	0x3eeda3cc	0.4641403
60	0xbe888ddf	-0.2667074
61	0xbe6e897d	-0.23294635
62	0x3e5b4d61	0.21416236
63	0xbd531953	-0.051537823

fc2.weight f4 [32, 64]
0	0xbc209c80	-0.0098029375
1	0xbe01f0af	-0.1268947
2	0x3db27245	0.087132014
3	0x3d618448	0.055057794
4	0xbdd891a8	-0.10574657
5	0xbde163dd	-0.110053755
6	0xbd428d53	-0.04749806
7	0xbdee08f9	-0.11622805
8	0xbd6eeac1	-0.058329348
9	0x3bf686ce	0.007523394
10	0x3da32258	0.07965535
11	0xbdeb520d	-0.11490259
12	0x3dc40a92	0.095723286
13	0x3d4f9360	0.050677657
14	0xbdc8e77f	-0.098097794
15	0x3d53df4f	0.051726636
16	0x3d5884f4	0.05286117
17	0x3cfa417d	0.030548805
18	0x3da34e18	0.079738796
19	0xbdad7e4d	-0.084713556
20	0x3d712575	0.058873612
21	0xbcd9b4b0	-0.026575416
22	0x3c317ff0	0.010833725
23	0xb9f5e962	-0.00046903925
24	0xbd03eb54	-0.03220685
25	0xbcf4f476	-0.029901724
26	0xbdddd4fc	-0.10831639
27	0x3d6c2308	0.057650596
28	0x3df46b08	0.11934477
29	0xbe101a14	-0.14072448
30	0xbe039adb	-0.12852041
31	0xbd23e739	-0.040015433
32	0xbdfbc4fe	-0.12293433
33	0xbd76c6de	-0.06024825
34	0xbdd3d398	-0.10343093
35	0xbd97ca0c	-0.07411584
36	0x3ccb316e	0.024803843
37	0x3d201838	0.039085597
38	0xbddb2108	-0.106996596
39	0x3da4c324	0.080450326
40	0xbdcb4173	-0.09924593
41	0xbd946100	-0.07245064
42	0x3daeb85c	0.085312575
43	0x3c3ea745	0.01163656
44	0xbdcaed13	-0.099084996
45	0xbe075847	-0.13217269
46	0x3d7097a8	0.05873838
47	0x3dde54a7	0.1085599
48	0x3de75996	0.11296384
49	0x3d87a7f6	0.06623833
50	0x3d89b366	0.06723671
51	0xbe03179b	-0.12801974
52	0x3c5a4727	0.013322628
53	0x3dd7dd54	0.10540262
54	0x3d9b4447	0.07581382
55	0x3c81608a	0.015793104
56	0xbe0d4e73	-0.13799457
57	0xbb889460	-0.0041680783
58	0x3c0ea4a2	0.008706244
59	0x3d52076f	0.05127662
60	0xbd6da431	-0.058017913
61	0xbe05ec9b	-0.13078539
62	0x3cc85388	0.024453893
63	0x3c113d7b	0.008864756
64	0xbe5e8f40	-0.21734333
65	0x3c6278d1	0.01382275
66	0xbc775137	-0.015095047
67	0xbdbda26e	-0.09259497
68	0x3e933ae6	0.28755873
69	0x3d820dfb	0.06350323
70	0xbb199d34	-0.0023439648
71	0x3d8a8db6	0.067653105
72	0x3e37be86	0.17943773
73	0xbdf8a700	-0.12141228
74	0x3d670289	0.056398902
75	0x3ecc3dca	0.3989089
76	0xbc0b32c0	-0.008495986
77	0xbe0711a1	-0.13190319
78	0x3d5d7aa7	0.05407205
79	0x3ea79c71	0.32736543
80	0xbe734d69	-0.23759998
81	0x3e45b612	0.19307736
82	0x3db17f1f	0.086668245
83	0xbce59c16	-0.02802853
84	0xbc847c89	-0.016172664
85	0xbe579294	-0.21052009
86	0xbd023d98	-0.03179702
87	0xbd08da45	-0.033411283
88	0xbe081557	-0.1328939
89	0x3e8c4aac	0.2740072
90	0x3ed7967c	0.42106998
91	0xbd5b137b	-0.053485375
92	0x3dbb5a1a	0.09148045
93	0x3e15eebc	0.14641851
94	0x3ea45ad9	0.3210056
95	0x3ddd8e0a	0.108181074
96	0x3e0321fa	0.1280593
97	0x3d21ad13	0.039471697
98	0x3e99bb2b	0.3002561
99	0x3e5cd228	0.21564543
100	0x3d298a12	0.04139144
101	0x3de1ea8e	0.11031066
102	0xbd3a8e71	-0.045546
103	0x3e29f539	0.16597451
104	0xbe6f2bf1	-0.23356606
105	0xbd88ccb8	-0.06679672
106	0x3e64e499	0.22352828
107	0x3d757ab3	0.05993147
108	0x3c5b318e	0.013378514
109	0xbd098c23	-0.03358091
110	0x3e48492d	0.19559164
111	0xbe68106a	-0.22662511
112	0xbe44ceaa	-0.19219461
113	0x3e839eb5	0.2570702
114	0x3e034a41	0.12821294
115	0x3e597ff0	0.2124021
116	0xbc040dff	-0.008059978
117	0x3dc00033	0.09375038
118	0x3e6004b0	0.21876788
119	0x3f06ae5b	0.52609795
120	0x3e43b70b	0.19112794
121	0x3b3eed80	0.002913326
122	0x3e2fa7e1	0.17153884
123	0x3e689031	0.22711255
124	0x3e986865	0.29767147
125	0x3d486696	0.04892596
126	0xbe42518f	-0.18976425
127	0xbc1d0d8f	-0.009585752
128	0xbe402293	-0.18763189
129	0xbb98a5f7	-0.0046584564
130	0x3dff9c5e	0.124809965
131	0xbd8fbe3c	-0.07018706
132	0x3dd8afa3	0.10580375
133	0x3dd39450	0.10331023
134	0x3d809cda	0.06279917
135	0x3e3b4e4b	0.18291585
136	0x3e49a558	0.1969198
137	0x3dd6124c	0.104527086
138	0x3e025383	0.1272717
139	0x3ec17ab6	0.37788934
140	0x3dd517c6	0.10404925
141	0xbdde703e	-0.10861252
142	0x3de386d2	0.11109699
143	0x3ebe6a56	0.37190503
144	0xbe8870be	-0.26648515
145	0x3e5f9ef3	0.21837978
146	0x3e17a1aa	0.14807764
147	0xbe80b889	-0.2514079
148	0x3d3f1d70	0.046658933
149	0xbe209a4d	-0.15683861
150	0x3c8dca50	0.017308384
151	0x3e0966b2	0.13418081
152	0x3cfee3d1	0.03111449
153	0x3e4c557d	0.19954486
154	0x3f1d759c	0.6150758
155	0xbdaa1cea	-0.08306296
156	0xbdc13e46	-0.09435706
157	0x3e3feeb6	0.18743405
158	0x3e50ba3c	0.20383543
159	0x3d643d56	0.055722557
160	0xbce36427	-0.027757717
161	0x3bdaa606	0.0066726236
162	0x3e879c3d	0.26486388
163	0x3d3d97f5	0.046287496
164	0x3e08fd71	0.1337793
165	0xbc6c2303	-0.014412644
166	0x3da5a619	0.08088321
167	0x3e13f080	0.14447212
168	0xbe883c7a	-0.2660864
169	0xbc1cac63	-0.009562585
170	0x3e8b9432	0.27261502
171	0xbd32e8da	-0.043679096
172	0xbdd83c41	-0.105583675
173	0xbcf757c6	-0.03019322
174	0x3e8e5994	0.27802718
175	0xbe6e11cf	-0.23248981
176	0x3c2fd201	0.010731221
177	0x3d9c4a55	0.07631365
178	0x3e928b83	0.28622064
179	0x3da41b91	0.080130704
180	0x3d1e01e4	0.03857602
181	0x3d7c6c0c	0.06162648
182	0x3e1c4294	0.15259773
183	0x3ec39563	0.3819991
184	0xbc53f847	-0.012937612
185	0xbdea983c	-0.11454818
186	0x3d9b40f8	0.07580751
187	0x3ecde2e3	0.40212163
188	0x3e74cc34	0.23906022
189	0x3e11936c	0.14216393
190	0xbd98693a	-0.074419454
191	0x3d4e4430	0.050357997
192	0xbd53e2d4	-0.051729992
193	0x3dbf7909	0.093492575
194	0xbc0a25db	-0.008431877
195	0xbc560b2c	-0.013064187
196	0xbd1a6a50	-0.037699044
197	0xbb2fafa1	-0.0026807564
198	0xbd70de5e	-0.058805816
199	0xbe14b880	-0.14523506
200	0xbdb832d2	-0.08994068
201	0xbd63efd8	-0.055648655
202	0xbd8245a0	-0.06360936
203	0xbd92baca	-0.071645334
204	0xbddd74d4	-0.10813299
205	0x3dada5c0	0.0847888
206	0xbd238271	-0.03991932
207	0x3dc02732	0.09382476
208	0xbdf6fb36	-0.120596334
209	0xbd09aacf	-0.03361016
210	0x3db67ab1	0.0891012
211	0xbc004156	-0.007828077
212	0xbe1a8a58	-0.15091836
213	0xbdea5532	-0.11442031
214	0x3db36f08	0.08761412
215	0xbdf0c2a2	-0.11755873
216	0x3daa964e	0.083294496
217	0xbdb6f7b2	-0.08933963
218	0x3b3f6880	0.0029206574
219	0x3cc0bbb2	0.023527
220	0xbdf474ee	-0.11936365
221	0xbe1af308	-0.15131772
222	0xbd34d934	-0.044152454
223	0xbe15bca8	-0.14622748
224	0x3d901e5f	0.07037043
225	0x3dadbd30	0.0848335
226	0xbd23e289	-0.040010963
227	0xbd4fccbb	-0.050732356
228	0xbdf9f61a	-0.12205143
229	0xbdbfc5fe	-0.09363936
230	0xbdf979f0	-0.12181461
231	0x3d409670	0.04701847
232	0xbe0dbe2b	-0.13842075
233	0x3d5872cc	0.052843854
234	0x3d7e6fd8	0.06211838
235	0x3db6f0a9	0.08932621
236	0x3dc9134c	0.09818134
237	0xbc3985fe	-0.01132345
238	0x3db4efc5	0.08834795
239	0x3cb11f35	0.021621326
240	0xbde06b7a	-0.109579995
241	0xbd17e3f8	-0.037082642
242	0xbdb85e4a	-0.09002359
243	0x3dd4b25c	0.10385582
244	0xbe027007	-0.12738048
245	0xbda9bc68	-0.08287889
246	0xbd8dcfbf	-0.0692439
247	0x3bcd8e82	0.006273092
248	0xbd230445	-0.039798994
249	0x3cc17500	0.02361536
250	0x3d18043f	0.037113424
251	0x3dacd654	0.08439317
252	0xbde032c9	-0.109471865
253	0x3d515487	0.051106002
254	0x3cd1e710	0.025622874
255	0x3d4b71e2	0.049669154

fc2.bias f4 [32]
0	0xbdfdf076	-0.1239938
1	0x3ddf29ce	0.108966455
2	0x3c58ffc0	0.013244569
3	0xbe0583eb	-0.13038604
4	0xbbedcc3b	-0.007257012
5	0xbe0cfadb	-0.13767569
6	0xbe4a645b	-0.19764845
7	0x3e1cfca8	0.15330756
8	0xbdd7d788	-0.10539156
9	0x3e179d7a	0.14806166
10	0x3d3b009d	0.04565488
11	0x3e2ece13	0.17070799
12	0xbe2aaba5	-0.1666704
13	0x3c8fd1ce	0.017556097
14	0xbd9ec880	-0.07753086
15	0x3d3ca1a2	0.046052583
16	0xbcc98f13	-0.024604356
17	0x3d1537ff	0.036430355
18	0xbd0db749	-0.034598622
19	0x3df99736	0.12187044
20	0xbb1a3095	-0.0023527492
21	0x3e0fd02e	0.14044258
22	0x3dec74ac	0.11545691
23	0xbde93829	-0.11387665
24	0xbd529824	-0.051414624
25	0xbd493d6f	-0.049130853
26	0xbe1160a4	-0.14197022
27	0xbc882245	-0.016617903
28	0x3de01644	0.10941747
29	0xbd212ad5	-0.03934749
30	0x3de71642	0.11283542
31	0x3d3ecc8c	0.04658179

pi.weight f4 [1, 32]
0	0x3d23c08c	0.03997855
1	0xbe236112	-0.15954998
2	0xbe86d221	-0.2633219
3	0x3d8cd622	0.0687678
4	0xbdf8630b	-0.12128266
5	0x3ea2bad5	0.31783167
6	0x3db104a6	0.08643465
7	0x3e8c58bf	0.27411458
8	0x3dd6cf35	0.1048874
9	0xbe6600e0	-0.22461271
10	0xbe3337bd	-0.17501731
11	0xbe77f689	-0.2421514
12	0x3d9d6ef7	0.076871805
13	0x3bae3261	0.005316064
14	0xbdc148ab	-0.094376884
15	0x3d85f990	0.06541741
16	0x3c33a741	0.010965169
17	0xbda8629d	-0.08221934
18	0xbe11af51	-0.14227034
19	0x3d29e514	0.04147823
20	0x3e5b002f	0.21386789
21	0xbe237a60	-0.15964651
22	0xbe18b020	-0.14910936
23	0x3c68a2f1	0.0141990045
24	0x3e151736	0.14559636
25	0x3e4e06d3	0.2011979
26	0x3e689671	0.22713639
27	0xbedfa2ea	-0.4367898
28	0x3da17cdc	0.07885143
29	0x3d2807dc	0.04102312
30	0xbb8869b7	-0.004162993
31	0x3d2ccb90	0.04218632
