model/maddpg/agent_1_target_critic_20240722.pth (torch, 25454 bytes, 5 tensors)

fc1.weight f4 [64, 54]
-0.11210822 -0.018333282 -0.07007138 0.046448585 0.07598992 0.13726398 -0.08101508 0.19726102
-0.0485702 0.00029787282 -0.051091794 -0.059186555 0.09607856 0.049862787 -0.10757525 0.13978004
0.037907165 0.05315776 0.005005046 0.10588815 -0.034771483 0.013760877 0.040137067 0.106561914
0.33335355 -0.05177255 0.2124265 -0.0041294578 0.14315158 -0.018426068 0.06929443 0.058919605
0.028135749 0.17910227 0.041252986 0.17586207 -0.13065714 -0.032354683 -0.020034457 0.14571798
0.09577497 0.3149225 0.08459471 0.19719163 -0.06437735 0.06066902 0.105042964 0.057196118
0.100114554 0.014198075 -0.11121795 0.06435205 0.44703773 -0.08870764 -0.13427676 -0.12585904
0.071848266 0.036463313 -0.009996272 0.11579664 -0.11770674 0.0021169602 -0.046384145 -0.11628933
-0.11521127 -0.10385575 0.017082203 -0.04299713 -0.16004835 0.07616262 -0.07500272 0.025272515
-0.076302536 -0.13310859 -0.06558024 -0.03563004 0.056747694 0.08953391 0.039199553 -0.07214003
-0.09401522 -0.09866306 -0.054501005 -0.11991737 -0.11810636 -0.13109586 -0.0150417825 -0.06056282
-0.007363613 -0.09898326 -0.06205388 -0.0568737 -0.090152405 -0.059595983 -0.15430768 0.066602774
0.074029 -0.10975499 0.025537048 -0.14927639 -0.13428117 0.018283188 -0.07526183 0.01898951
0.032461595 -0.054687057 -0.42642856 0.036948178 0.09381669 -0.14397487 -0.06360832 0.034935612
-0.04539078 -0.0049699135 -0.11279844 -1.4741693 0.037000272 -0.25504783 -0.00657404 -0.0045230286
-0.15382376 -1.0937086 0.07559423 -1.5434241 -0.11447447 0.07850992 -0.058469135 0.10538047
0.12282522 -0.11202438 0.084897116 0.039385382 -1.6028266 0.10773603 -0.05535426 0.09153124
0.04663468 0.06680366 -1.1470865 -0.06980637 -1.5390317 -0.58679426 -0.13331468 0.08392163
0.0010387718 -0.065135114 -0.0075911437 -0.07842561 -0.032332394 -1.4033142 -0.020739092 -0.20464528
-0.03697592 -0.084781446 -0.14525284 -1.1318073 0.08380938 -1.3288574 0.08029978 0.027111823
0.46108368 -0.5066221 -0.13652532 0.11818085 -0.064547054 -0.07106334 0.10411339 -0.13773976
0.10284158 0.028080985 -0.120357916 0.086834736 -0.074976385 -0.080591895 0.08066937 -0.05710708
-0.12411077 -0.014356957 -0.042552356 -0.0425721 0.050490953 0.11607605 -0.11103947 -0.13181357
-0.0017229543 0.084460974 -0.06832152 0.10023387 0.11339384 0.03871567 0.07917032 -0.0955713
0.0741434 0.101633094 -0.10653037 -0.056052078 0.08769677 0.026832825 0.072193585 -0.08739354
-0.0008217504 -0.103863806 -0.052973866 0.06979896 -0.13424097 -0.068480216 0.10394352 -0.046872206
-0.108483166 -0.038886294 -0.069624625 0.07091581 -0.14221162 -0.07180691 0.06366937 0.03851525
0.019887883 -0.009302283 0.110660486 0.18949378 0.058482707 0.13693185 0.0879449 -0.21655935
0.13057941 0.14038756 0.071189605 0.046612024 0.1169552 -0.03503739 0.12471527 -0.08901399
-0.11653116 -0.063307524 0.14148575 -0.024386797 0.17993796 -0.053022463 0.1728744 -0.013196764
-0.1684385 -0.096144296 0.12742163 0.10185851 0.067022435 -0.07904572 0.14457674 -0.0932184
-0.094073415 -0.17560343 -0.12095964 0.12473566 0.053565808 0.09218484 0.11117222 0.22101824
00000000: ff98 e5bd ae2f 96bc 9581 8fbd df40 3e3d
00000010: 9aa0 9b3d ee8e 0c3e 3ceb a5bd cbfe 493e
00000020: 8cf1 46bd d02b 9c39 a145 51bd 9a6d 72bd
00000030: d6c4 c43d ec3c 4c3d 6a50 dcbd 8022 0f3e
00000040: 8b44 1b3d f4bb 593d 5e01 a43b e3db d83d
00000050: 8b6c 0ebd 4d75 613c c466 243d 223d da3d
00000060: 51ad aa3e 740f 54bd 5586 593e 6750 87bb
00000070: 5496 123e 44f2 96bc 3dea 8d3d af55 713d
00000080: f17c e63c 9666 373e e4f8 283d 3015 343e
00000090: fcca 05be 5886 04bd 4d1f a4bc 1837 153e
000000a0: ab25 c43d 863d a13e fe3f ad3d 9aec 493e
000000b0: 46d8 83bd 1480 783d c420 d73d 7a46 6a3d
000000c0: dc08 cd3d 0b9f 683c 3dc6 e3bd 02cb 833d
000000d0: 21e2 e43e 5aac b5bd d97f 09be 31e1 00be
000000e0: 2f25 933d 8e5a 153d 67c7 23bc ca26 ed3d
000000f0: 3b10 f1bd b3bc 0a3b 4dfd 3dbd 1a29 eebd
00000100: e3f3 ebbd 53b2 d4bd faef 8b3c c21d 30bd
00000110: b7e3 23be 26fb 9b3d 079b 99bd 4e08 cf3c
00000120: 8144 9cbd 9e4d 08be ef4e 86bd cef0 11bd
00000130: 4570 683d 8e5d b73d b68f 203d 27be 93bd
00000140: 0d8b c0bd dc0f cabd 723c 5fbd 3d97 f5bd
00000150: bfe1 f1bd fe3d 06be cf71 76bc b810 78bd
00000160: 774a f1bb bcb7 cabd 362c 7ebd 66f4 68bd
00000170: d3a1 b8bd eb1a 74bd d502 1ebe 0967 883d
00000180: 849c 973d 39c7 e0bd 1233 d13c e9db 18be
00000190: 0181 09be a0c6 953c e022 9abd e48f 9b3c
000001a0: 73f6 043d 89ff 5fbd d854 dabe f956 173d
000001b0: f722 c03d 266e 13be 1445 82bd a518 0f3d
000001c0: afeb 39bd a8da a2bb de02 e7bd 94b1 bcbf
000001d0: 998d 173d a195 82be 0b6b d7bb ea35 94bb
000001e0: fa83 1dbe a5fe 8bbf 26d1 9a3d ec8e c5bf
000001f0: 9771 eabd cfc9 a03d 557d 6fbd b7d1 d73d
00000200: ca8b fb3d 0a6d e5bd 8ade ad3d 9152 213d
00000210: 6c29 cdbf b5a4 dc3d 26bb 62bd bb74 bb3d
00000220: 0204 3f3d 5bd0 883d bbd3 92bf a4f6 8ebd
00000230: fefe c4bf 2638 16bf a583 08be 1bdf ab3d
00000240: 6627 883a 8f65 85bd 21bf f8bb 9b9d a0bd
00000250: f96e 04bd cd9f b3bf 07e5 a9bc 888e 51be
00000260: 1074 17bd e5a1 adbd 29bd 14be 10df 90bf
00000270: 41a4 ab3d 0018 aabf 3674 a43d 9d19 de3c
00000280: 2913 ec3e fcb1 01bf 4bcd 0bbe cd08 f23d
00000290: 3f31 84bd a889 91bd 6739 d53d a70b 0dbe
000002a0: 9b9e d23d 180a e63c 367e f6bd 69d6 b13d
000002b0: 388d 99bd 5d0d a5bd fc35 a53d 1de9 69bd
000002c0: ca2d febd 7139 6bbc 614b 2ebd 1560 2ebd
000002d0: 9acf 4e3d 48b9 ed3d a968 e3bd 23fa 06be
000002e0: c1d4 e1ba e0f9 ac3d 27ec 8bbd 6a47 cd3d
000002f0: 083b e83d 5394 1e3d 0c24 a23d e3ba c3bd
00000300: 7fd8 973d 0325 d03d 982c dabd dd96 65bd
00000310: 5d9a b33d 83d0 db3c 3bda 933d 62fb b2bd
00000320: bc6a 57ba 8cb6 d4bd 20fb 58bd c2f2 8e3d
00000330: 7776 09be 5b3f 8cbd 57e0 d43d 12fd 3fbd
00000340: 6c2c debd 3c47 1fbd 5b97 8ebd 4f3c 913d
00000350: ec9f 11be 800f 93bd 1665 823d 2bc2 1d3d
00000360: eaeb a23c 9a68 18bc f7a1 e23d a80a 423e
00000370: 908b 6f3d dd37 0c3e 751c b43d bcc1 5dbe
00000380: 9cb6 053e c2c1 0f3e dbcb 913d 40ec 3e3d
00000390: 3586 ef3d 5e83 0fbd b86a ff3d f74c b6bd
000003a0: e4a7 eebd 60a7 81bd a4e1 103e d2c6 c7bc
000003b0: a841 383e 152e 59bd fd05 313e 3d37 58bc
000003c0: 247b 2cbe 4de7 c4bd d17a 023e 329b d03d
000003d0: 0f43 893d b9e2 a1bd ed0b 143e 4ae9 bebd
000003e0: 90a9 c0bd 63d1 33be b0b9 f7bd 6975 ff3d
000003f0: d267 5b3d 68cb bc3d 43ae e33d 9b52 623e

fc1.bias f4 [64]
0.0137465345 0.07156858 -0.06633198 -0.13887374 0.06224868 -0.09117544 0.039088648 -0.0035204145
-0.048923362 -0.023867045 -0.06613403 0.10335107 -0.012267825 0.0020672115 0.12286516 0.04865267
0.042129662 0.062426344 0.005239416 0.10222944 0.027775971 0.009101522 -0.0066920947 0.04097766
0.0020823367 0.041499704 -0.064218886 0.024305802 -0.12775688 -0.09084021 0.115674555 0.032657184
0.11134151 -0.13432594 -0.129796 -0.1366043 -0.10827455 -0.12065597 0.02446061 -0.06074056
-0.079757005 -0.13683352 0.10776856 -0.021685444 0.06333118 0.08934136 0.047490235 0.05553984
-0.0012905838 -0.10799843 0.12507564 -0.12475499 -0.111838125 0.09601211 -0.06936222 -0.14841379
-0.07926414 -0.06409058 0.029549304 0.036978576 0.05886132 -0.029697698 0.06704458 -0.108552165
00000000: 2539 613c 8c92 923d 10d9 87bd eb34 0ebe
00000010: 79f8 7e3d 30ba babd 6b1b 203d c1b6 66bb
00000020: dd63 48bd d284 c3bc 4771 87bd baa9 d33d
00000030: fdfe 48bc 0e7a 073b bba0 fb3d 0648 473d
00000040: 2790 2c3d c4b2 7f3d 68af ab3b ab5d d13d
00000050: 6f8a e33c 8d1e 153c 5c49 dbbb 31d8 273d
00000060: d077 083b 98fb 293d 3185 83bd f61c c73c
00000070: b3d2 02be 6f0a babd c8e6 ec3d 8ac3 053d
00000080: 0507 e43d bd8c 09be 3ee9 04be ffe1 0bbe
00000090: 0cbf ddbd 7a1a f7bd 9e61 c83c 18cb 78bd
000000a0: a457 a3bd 161e 0cbe c3b5 dc3d aca5 b1bc
000000b0: c7b3 813d 9af8 b63d 1f85 423d be7d 633d
000000c0: ce28 a9ba 482e ddbd d413 003e 8b7f ffbd
000000d0: 630b e5bd ffa1 c43d c80d 8ebd c9f9 17be
000000e0: 3d55 a2bd ec41 83bd 6211 f23c d976 173d
000000f0: 9118 713d 9648 f3bc ab4e 893d 9950 debd

fc2.weight f4 [32, 64]
0.11308657 0.08398414 -0.043924753 0.120530024 -0.015814561 0.099866554 0.083011836 0.09586783
-0.028289603 0.09339114 0.015309327 -0.048612386 -0.09828115 0.05997041 0.0679761 -0.009960483
0.0004921279 -0.037192404 0.05845787 -0.101880506 0.10761179 -0.13662823 -0.11025865 -0.0306422
0.010566004 -0.11053059 0.006150767 0.09360508 0.082865894 -0.06644851 0.082683295 0.053387057
-0.06517583 0.06742744 -0.072236806 0.0087927645 -0.0021591221 -0.090396576 -0.01016777 0.08970561
-0.03349373 0.03266317 0.09394208 0.104965284 -0.106756866 0.013902006 0.0616687 -0.06636482
0.062010095 -0.089053884 -0.074337155 -0.08944419 0.049552348 0.09418921 -0.042718347 -0.00012532341
0.0047927536 -0.012508011 0.11101487 -0.12644646 -0.074343085 -0.008355509 -0.0016918713 -0.030977538
-0.0028898802 -0.00420955 0.09400208 -0.016732063 -0.07229665 -0.12390933 -0.11748158 0.018255897
0.016673308 0.07504718 -0.064064994 0.103102215 0.113623194 -0.09768997 -0.09402723 0.06311712
0.032975603 0.036945213 -0.057805568 -0.04387003 0.118996695 -0.077076785 -0.036924183 0.118929535
-0.08890635 -0.043322776 -0.057919566 0.0056949235 -0.08450707 0.12317473 -0.09927113 0.07689643
-0.05335627 -0.043261576 0.085108005 -0.0018732233 0.016746033 -0.045233265 -0.10336093 0.02862145
0.07269385 0.08991854 -0.093632676 0.09930765 0.033313166 0.035964984 -0.08792938 0.020594854
0.051353395 -0.09082468 -0.011930208 -0.015669003 -0.093529694 -0.01963948 -0.029233718 -0.09698276
-0.037433084 -0.022618955 -0.1197409 -0.036791038 -0.021060295 -0.027683862 0.12744741 -0.055791527
-0.112548485 0.07033392 0.07926234 0.0076901936 0.18921204 0.0105791 -0.0840077 -0.042621646
-0.010628602 -0.017990874 0.055235863 0.07020018 0.09008124 -0.10285704 -0.044803508 0.0040405593
-0.015374871 0.0054668537 -0.05601259 -0.05680909 -0.066596195 -0.052822426 -0.20974521 0.021500781
-0.02310418 0.08360491 0.087414205 -0.004008319 0.045879733 0.09742513 -0.009505644 -0.14291528
-0.004308511 0.03748542 -0.1345701 0.07515743 0.10713758 -0.017283106 -0.043267053 -0.03250998
-0.05124929 0.09390468 0.10236486 -0.06217816 -0.027290668 0.0043427064 -0.09065293 -0.12005565
0.09409334 0.077565074 0.111252025 -0.094498694 0.07404011 -0.1342903 0.10326331 -0.13008943
0.030706381 -0.12184123 -0.018636104 0.08651203 0.06035814 -0.008848553 -0.016341282 -0.039299123
-0.12359743 0.010244604 -0.16219558 -0.020824015 -0.057469923 -0.056272242 -0.12559122 0.08803822
0.02083154 -0.12238671 -0.088381484 0.018570496 -0.0007224189 -0.09028314 -0.10609265 -0.033812627
0.036409345 0.011140537 0.011392653 -0.03653966 0.061616175 0.05066157 0.0299204 -0.12820004
-0.13310699 -0.15428603 -0.09310746 -0.022306222 -0.11042577 0.09114684 0.05615729 -0.09238766
-0.1269707 -0.03738503 -0.051584706 0.11555657 0.002150903 0.08037433 -0.091922745 0.038240325
-0.15304327 -0.10052052 -0.11546251 -0.04444108 -0.07791813 -0.08075208 0.060831547 -0.01489163
0.12157427 0.015075013 -0.09282635 -0.11185849 -0.1617411 -0.1042113 -0.039728586 -0.09935471
0.011624825 -0.048175618 0.04868456 -0.12185234 -0.01637183 0.026125237 0.028826974 -0.05775677
00000000: ee99 e73d e0ff ab3d 71ea 33bd 72d8 f63d
00000010: 8a8d 81bc d686 cc3d 1c02 aa3d 5a56 c43d
00000020: 99bf e7bc db43 bf3d f9d3 7a3c c81d 47bd
00000030: a147 c9bd 88a3 753d 0e37 8b3d 4b31 23bc
00000040: 2502 013a 1057 18bd 8571 6f3d baa6 d0bd
00000050: 9263 dc3d 45e8 0bbe 49cf e1bd 5a05 fbbc
00000060: 081d 2d3c dd5d e2bd 608c c93b 05b4 bf3d
00000070: 98b5 a93d 2816 88bd dc55 a93d 63ac 5a3d
00000080: e87a 85bd 6617 8a3d e4f0 93bd 870f 103c
00000090: 0f80 0dbb d721 b9bd b896 26bc 93b7 b73d
000000a0: b930 09bd d1c9 053d b564 c03d 0af8 d63d
000000b0: 58a3 dabd 3dc5 633c 5298 7c3d 47ea 87bd
000000c0: 4cfe 7d3d e261 b6bd 143e 98bd 842e b7bd
000000d0: 67f7 4a3d 46e6 c03d 6ff9 2ebd 3f69 03b9
000000e0: 880c 9d3b 67ee 4cbc c45b e33d 2e7b 01be
000000f0: 3041 98bd 8be5 08bc c8c1 ddba 9bc4 fdbc
00000100: 2564 3dbb 44f0 89bb 2a84 c03d ae11 89bc
00000110: 4410 94bd 2dc4 fdbd 2f9a f0bd 648d 953c
00000120: 7696 883c 56b2 993d 8234 83bd 4127 d33d
00000130: 47b3 e83d ae11 c8bd 5991 c0bd 8c43 813d
00000140: 6d11 073d dd53 173d 88c5 6cbd 10b1 33bd
00000150: 8ab4 f33d 6fda 9dbd d03d 17bd 5491 f33d
00000160: 8814 b6bd 3973 31bd 113d 6dbd 7b9c ba3b
00000170: 0b12 adbd 0843 fc3d aa4e cbbd e07b 9d3d
00000180: 1b8c 5abd 0d33 31bd 1b4d ae3d f286 f5ba
00000190: fa2e 893c 8446 39bd e5ae d3bd 8877 ea3c
000001a0: 83e0 943d 3627 b83d 7dc2 bfbd cf61 cb3d
000001b0: 6373 083d 0550 133d 5214 b4bd 8ab6 a83c
000001c0: f057 523d 4a02 babd eb76 43bc 485c 80bc
000001d0: 7f8c bfbd fae2 a0bc 8d7b efbc e69e c6bd
000001e0: 6f53 19bd 634b b9bc b83a f5bd 33b2 16bd
000001f0: a486 acbc 44c9 e2bc 9381 023e a885 64bd
00000200: d27f e6bd 3b0b 903d 4b54 a23d 05fe fb3b
00000210: cdc0 413e f653 2d3c 3b0c acbd 0994 2ebd
00000220: 9623 2ebc 9961 93bc 003f 623d 1dc5 8f3d
00000230: 837c b83d b6a6 d2bd e283 37bd ab66 843b
00000240: e2e6 7bbc 4b23 b33b 756d 65bd a6b0 68bd
00000250: 9663 88bd 545c 58bd 73c7 56be 6822 b03c
00000260: fa44 bdbc 0d39 ab3d 3806 b33d 3858 83bb
00000270: 63ec 3b3d d486 c73d 90bd 1bbc 6258 12be
00000280: 692e 8dbb 508a 193d bfcc 09be 23ec 993d
00000290: f36a db3d 4d95 8dbc cb38 31bd 2f29 05bd
000002a0: c7ea 51bd 1951 c03d aba4 d13d 87ae 7ebd
000002b0: ae90 dfbc 434d 8e3b 3ea8 b9bd bddf f5bd
000002c0: 02b4 c03d 70da 9e3d 1ad8 e33d 8888 c1bd
000002d0: 57a2 973d 6583 09be b77b d33d 2a36 05be
000002e0: f38b fb3c e587 f9bd beaa 98bc 382d b13d
000002f0: 193a 773d 85f9 10bc 27de 85bc 1ef8 20bd
00000300: a620 fdbd fcd8 273c 9916 26be 2097 aabc
00000310: 9565 6bbd b97d 66bd fc9a 00be 624d b43d
00000320: e8a6 aa3c e2a5 fabd 5a01 b5bd 2721 983c
00000330: b660 3dba 5ee6 b8bd 1a47 d9bd 1c7f 0abd
00000340: f721 153d cd86 363c 40a8 3a3c 9caa 15bd
00000350: 3e61 7c3d 8282 4f3d a01b f53c df46 03be
00000360: 334d 08be 28fd 1dbe 20af bebd 8abb b6bc
00000370: e826 e2bd 32ab ba3d 3005 663d be35 bdbd
00000380: 9b04 02be 0c21 19bd 7c4a 53bd eca8 ec3d
00000390: 2af6 0c3b 4c9b a43d fe41 bcbd e3a1 1c3d
000003a0: 60b7 1cbe b4dd cdbd 9c77 ecbd da07 36bd
000003b0: 8a93 9fbd 5961 a5bd 802a 793d 06fc 73bc
000003c0: eefb f83d 30fd 763c be1b bebd 1016 e5bd
000003d0: 759f 25be bc6c d5bd 71ba 22bd 7b7a cbbd
000003e0: 0d76 3e3c cc53 45bd 7669 473d b88d f9bd
000003f0: 371e 86bc 9804 d63c 8c26 ec3c 5d92 6cbd

fc2.bias f4 [32]
0.071143426 -0.03243379 -0.011298425 -0.035087984 0.027951306 -0.07893254 -0.073168874 0.11829543
-0.08295298 -0.027483406 0.052714176 -0.052314118 -0.11289839 -0.078437775 -0.08860019 -0.005784974
-0.018760923 0.041413028 -0.04510787 -0.031855818 -0.06416699 -0.047359526 -0.04996197 0.10937574
0.08379564 -0.096863605 -0.10863115 -0.048760723 0.010432119 -0.082875684 -0.039184693 -0.057015356
00000000: a5b3 913d 4bd9 04bd 071d 39bc 6bb8 0fbd
00000010: 23fa e43c 62a7 a1bd 90d9 95bd e044 f23d
00000020: 41e3 a9bd e124 e1bc d2ea 573d 5447 56bd
00000030: 4537 e7bd fca3 a0bd 0474 b5bd e18f bdbb
00000040: 82b0 99bc b5a0 293d 08c3 38bd 3f7b 02bd
00000050: fc69 83bd 10fc 41bd eca4 4cbd 6300 e03d
00000060: 0c9d ab3d 6d60 c6bd 027a debd 53b9 47bd
00000070: 7aeb 2a3c baba a9bd 2180 20bd ef88 69bd

q.weight f4 [1, 32]
0.092677265 0.030957593 -0.025214529 0.002365899 0.038009334 0.036135864 0.002848704 0.01909305
0.058524176 0.09698115 -0.15450945 0.0019890626 -0.032302897 0.07352731 0.03672968 0.18789564
-0.10015054 0.016804673 0.002807493 -0.07942282 0.0031440284 0.015674772 0.051623072 -0.059205234
-0.12211401 -0.07271926 0.12039263 0.106183834 -0.07334023 -0.005519193 -0.127148 0.15986462
00000000: 94cd bd3d c79a fd3c b38e cebc 330d 1b3b
00000010: adaf 1b3d 3303 143d 53b1 3a3b 0769 9c3c
00000020: 0cb7 6f3d 0e9e c63d ba37 1ebe ef5a 023b
00000030: 0b50 04bd 7c95 963d dc71 163d b767 403e
00000040: ba1b cdbd f4a9 893c ebfd 373b 6ea8 a2bd
00000050: 0b0c 4e3b 6168 803c b772 533d 3081 72bd
00000060: e916 fabd d6ed 94bd 6990 f63d e976 d93d
00000070: 6733 96bd 59da b4bb 1633 02be 8db3 233e
