model/maddpg/agent_0_critic.pth (torch, 16014 bytes, 5 tensors)

fc1.weight f4 [64, 18]
00000000: e65e a7bd 57fa 58be ca4b f9bd da19 183e
00000010: 09ae 09bd e016 babd abe6 62be 5e54 ec3e
00000020: a66f efbf 7f77 59be f102 62bd 3726 743d
00000030: 1167 8a3d 712d aabd 61b3 113e da18 91be
00000040: 1197 cfbe b46b dcbe d28e f4bd 465a de3e
00000050: 9c69 70be 9b5f 633e 3ee1 37bf 8f78 b2bd
00000060: d7e4 593e d7f4 3ebe 18a8 bdbe fdeb 65be
00000070: 6d1d 2abe 2949 483e 2e9c f1bc dadd 393d
00000080: da4a d83d 58b0 7b3d e834 8abe 4019 19bf
00000090: 064d 3bbe d660 c4bd f627 753e d527 29be
000000a0: fcfa 963e 87b9 c63d fe23 51be dc87 103e
000000b0: 8c25 39c0 a7c7 333d 1897 ac3c 752b 973e
000000c0: 3799 d2bd 9907 3f3e ab06 c0bb d746 d0be
000000d0: b951 a23d ee42 0fbe f151 db3d ed22 f5bd
000000e0: c1b0 d63d 5d33 123e 1ce0 0c3f 8274 6b3d
000000f0: 60c9 05be 1129 4fbe 2f29 31bf 83d3 44be
00000100: c9de f43c 2e59 933e 72c3 fd3d d3ea 3bbe
00000110: 75a6 6cbe c285 783c 7664 933d 8594 20bf
00000120: 0f1b 493b 5ef3 0fbd 5efd 3a3d 7849 a43d
00000130: cd6c 8ebd e5ed 713e f514 fd3d 13b9 03be
00000140: 9e00 0c3e 9d8b a0be 1715 863e c1b4 013d
00000150: 8dad 2c3e 7b78 0ebe 9fa4 8fbc 1876 3abe
00000160: 73d7 9a3e d73c 77bb 2aba eebc d414 b03c
00000170: 5b26 fd3d 6e7b 763d 7e8b 3d3c 9896 25be
00000180: 083b 633e 6582 9d38 f601 49c0 c6a6 50be
00000190: 6784 cc3b 8ed0 813e 272a 65be 3bef edbd
000001a0: 9ff7 36be 7fc0 803e ea9f babe 3a64 023e
000001b0: 278e ffbd 88ac 503e 6ce3 2b3e 4662 8d3e
000001c0: 969b 4b3d 58b1 ff3c 5b88 913e d6c5 90be
000001d0: 1ab1 7bbe adad 6bbe a229 dcbe 0f1f 103d
000001e0: 3365 013e f523 013e acfb c43e 20db 8a3e
000001f0: 0e00 0d3f 61f8 eebd 512f 903c da45 da3d
00000200: d265 533e cda3 be3d 9062 a4be 64be 6cbc
00000210: 0594 58be 215b bf3d 9eaf 823f 6bdb 6d3e
00000220: d7c7 613e c250 2abe 2884 633e fc0d 6bbe
00000230: f7a2 383e f0b1 6ebf c601 ea3e 183b b3bf
00000240: c94f 81be f93a e0be e3e5 abbd 42aa 17bf
00000250: 1753 953f 4ef8 443d 4c44 98be 7500 30be
00000260: 866a b9bf 505b 15be 62c0 4e3d 9a3f 893c
00000270: 15d5 083d b0fb c8be 07bc 3dbe 2767 1fbe
00000280: 5bf5 22be 7374 9abc 03b9 9a3d 0fd9 cf3d
00000290: 5aee 82be 6731 993e 61cb d3be 6a2d ff3c
000002a0: 8a7c 903e f8d8 efbe dca5 1840 8948 c1bd
000002b0: bb4c 0abe f404 83bd 7482 c1bd 2732 ac3e
000002c0: 5147 e73c 1946 0bbe fb59 993e 6398 b2be
000002d0: 4872 f73c 2d6d ea3e be3a 33bd e922 873e
000002e0: 7222 25bf 401c dfbd 44d0 243d f9b1 debe
000002f0: bd5c 4f40 0cdd c9bd a51a 603d 861e 2ebf
00000300: 0572 3ebe 284e f2bc fb5f 9abd 5bf4 a2bd
00000310: 7f14 67be 5443 cfbe 1972 383e d7fd 7ebd
00000320: f401 22be 10fc babd ce1d cc3e 35e9 bd3c
00000330: 4c06 3c3e 6235 1dbe e812 25c0 a47e 113e
00000340: a3dc b43e b45e 153f ce23 1e3e fd80 353e
00000350: 5c8d ef3d 52ad 3cbf ca74 483e 230e 20bf
00000360: 738c 883c 163b 92be 7d65 2a3d 8510 923d
00000370: 683f e93e 65fc b83d caac 003d 1be6 7fbe
00000380: 2775 95bf 1f21 6e3e 65aa babc e923 1a3e
00000390: 157a 903d 955c 76be 90d3 953e 1da6 493f
000003a0: 67b6 26bf 71e9 e83e b4e8 a2bd 61ac cebe
000003b0: d46a 113e 4656 40be 7de8 383f c056 ffbd
000003c0: 06a6 0fbe 157b 94bd 0d41 f0be c6b5 80bd
000003d0: 4870 243e 050a 2e3e 9771 89bc 977f b3be
000003e0: 775e a2bd 43bd c7bd f897 65bf a74e 1fbe
000003f0: ca8d 4abc 74fd 4abe 99c8 4abc a319 423e
-0.08172397 -0.21189247 -0.12172659 0.14853612 -0.03361324 -0.09086394 -0.22158305 0.46158117
-1.8705947 -0.2123699 -0.055178586 0.059606757 0.067579396 -0.083094485 0.14228584 -0.28339273
-0.40544942 -0.4305092 -0.11941303 0.43428248 -0.23477787 0.2220444 -0.7182807 -0.08714401
0.21278702 -0.18648086 -0.37042308 -0.22453304 -0.16612788 0.19559158 -0.029493418 0.04537759
0.10561152 0.06144747 -0.2699349 -0.59804153 -0.18291101 -0.095887825 0.23941025 -0.16519101
0.2948836 0.09703355 -0.20423886 0.14114326 -2.8929167 0.043891575 0.02106814 0.29525343
-0.1028313 0.18655242 -0.00586017 -0.40679047 0.079257436 -0.13990375 0.107089885 -0.11969552
0.10482932 0.14277406 0.55029464 0.057484157 -0.130651 -0.2023051 -0.69203466 -0.1922131
0.029891388 0.28778976 0.12390794 -0.18351297 -0.23110373 0.015168609 0.07196896 -0.6272662
0.0030686294 -0.035144202 0.045651786 0.080218256 -0.06954346 0.23625906 0.12357513 -0.12863569
0.1367211 -0.31356516 0.26187965 0.03166652 0.1686308 -0.13913147 -0.017534552 -0.18209112
0.302425 -0.0037725472 -0.029141504 0.021494307 0.12360831 0.060176305 0.011568902 -0.16170728
0.22190487 7.510631e-05 -3.1407447 -0.20376119 0.0062413695 0.25354427 -0.22379361 -0.11617895
-0.17867897 0.25146863 -0.3645013 0.12733546 -0.12478285 0.20378315 0.16785973 0.2761404
0.049708925 0.031212494 0.28424343 -0.28275937 -0.24579278 -0.23015471 -0.43000513 0.03518587
0.1263626 0.12611373 0.3847326 0.27120304 0.5507821 -0.11668468 0.017600687 0.106578544
0.2064431 0.09308586 -0.32106447 -0.01444969 -0.21150215 0.09343553 1.0209844 0.23228233
0.22048889 -0.16632369 0.22218382 -0.22954553 0.18030916 -0.9324026 0.45704478 -1.4002409
-0.25256184 -0.43794993 -0.08393457 -0.5924417 1.1665982 0.048088364 -0.29739606 -0.17187674
-1.4485633 -0.14585614 0.05047644 0.01675396 0.033406336 -0.39254522 -0.18528758 -0.15566693
-0.15913908 -0.018854355 0.075548194 0.101488225 -0.25572473 0.29920503 -0.41366103 0.031149585
0.28220016 -0.46845222 2.3851233 -0.09437663 -0.13505833 -0.06397429 -0.0944871 0.33632013
0.028232248 -0.13600959 0.29951462 -0.34881887 0.03020586 0.4578642 -0.043757193 0.26393822
-0.64505684 -0.1089406 0.04023768 -0.43495157 3.2400353 -0.098566145 0.05471291 -0.68015325
-0.18598182 -0.029578283 -0.07537838 -0.07956763 -0.22566412 -0.40481055 0.18012275 -0.0622538
-0.15821058 -0.09130108 0.3986649 0.02318249 0.18361777 -0.15352395 -2.579279 0.14208466
0.35324582 0.5834763 0.15443346 0.17724986 0.11696884 -0.73701966 0.19575801 -0.6252157
0.016668534 -0.28560704 0.041600693 0.07132057 0.45556188 0.090325154 0.031414784 -0.24990122
-1.1676377 0.23254822 -0.022786329 0.15052761 0.07054535 -0.24058755 0.29262972 0.78769094
-0.65122074 0.45490602 -0.07954541 -0.4036589 0.14200908 -0.1878291 0.7222975 -0.12467718
-0.14028177 -0.072500385 -0.4692463 -0.062846705 0.16058457 0.1699601 -0.016777797 -0.3505828
-0.07928174 -0.09752896 -0.8968501 -0.15557347 -0.012362907 -0.19823247 -0.012376928 0.18955092

fc1.bias f4 [64]
00000000: 4180 173e 28e4 9ebe 2e27 8f3e 6d73 e6bd
00000010: 7cd4 33be 3d33 ad3d d755 103e 7a5c f0bc
00000020: 25f3 503f 355a ccbd 6823 89be 068c b13e
00000030: 6290 8f3e bc8a 1f3f 3e26 5fbd a79e c33d
00000040: 16b4 583e dc9b 24be 099e c33d 3060 30be
00000050: acef e1be 6083 e03c 67c5 09be 88e0 fc3e
00000060: 1975 76bd f049 3b3d 277c 0cbe a00b 963a
00000070: f64a 75bc 5684 e6bc 1d2f 9f3e 2abe 5dbe
00000080: 8163 30be 9511 e43c d0fe f43e b56f 98be
00000090: bea7 343e fcfe bd3d cd9e 963e 4976 dd3e
000000a0: 27f3 95be 8fd7 93bd 8b83 8cbc d17c 843d
000000b0: 837a af3c 27f5 debd 20bd 883d c164 b7be
000000c0: 8a28 f33d 8e0a 153f a53e 3c3e e1dd d7bc
000000d0: cc94 18bf 26fd b2bd d7eb e4bd b429 89bd
000000e0: 6eb4 c0be 476f cd3c 4742 673e d7d1 1cbe
000000f0: 5fd3 3c3d ed18 b43d 6779 04bd b503 6ebe
0.14795019 -0.31033444 0.2795958 -0.112524845 -0.17561525 0.084570386 0.14095245 -0.029340971
0.8162101 -0.09978143 -0.26784825 0.34677142 0.28039843 0.62321067 -0.05447983 0.09551745
0.21162447 -0.1607508 0.09551627 -0.17224193 -0.44128168 0.027406394 -0.1345421 0.49390054
-0.060170267 0.04572481 -0.13719235 0.0011447556 -0.014971485 -0.028139275 0.31090632 -0.21654573
-0.17225458 0.027840415 0.47850657 -0.29772726 0.17642114 0.0927715 0.2941803 0.43254307
-0.29287073 -0.07218849 -0.017152568 0.06469119 0.021420723 -0.10886603 0.06676698 -0.35819057
0.118729666 0.5821923 0.18383272 -0.026350917 -0.59602046 -0.087396905 -0.111777954 -0.06697407
-0.37637657 0.025077475 0.22583877 -0.15314423 0.046100017 0.08793817 -0.03234234 -0.23243602

fc2.weight f4 [32, 64]
00000000: 4bcf b53e 8fd2 e8bd bd6a 203e a932 0abe
00000010: e442 babd 8ad2 bd3d 68b5 b43e 6985 303e
00000020: cb76 00be 7f9f 133e 3a06 32be d589 4e3d
00000030: c8ae 38bd 937e 63be 5c1a 18bd 17c6 d03d
00000040: b6e0 1bbe c0d9 333d 94fc a23d d777 033d
00000050: aaf3 a43e 8642 283e 9673 283d 216f 8f3e
00000060: 9a92 14be 7bcc 1bbd 9034 fcbd fdee f43d
00000070: bfec a23e 8d0f 14bd 34cf 163d e0b5 f2bb
00000080: 2fea bf3d 119c 0abe 8b29 a33d e539 fdbd
00000090: e409 95be c663 da3e 9a9e a3bd a358 a0bc
000000a0: fdf2 a53d 78b3 cc3c 9d11 873c a8fb 3b3d
000000b0: 0cd0 a03e dc0f d9bd 4895 8f3d 72b9 6e3e
000000c0: 0c38 9fbe 0e6d 373d cdaf 863e bc23 6cbe
000000d0: bc8e 32bd 2025 72bd 1dfb 15be 5850 053d
000000e0: 18e3 73be 2569 e93d 679f a63d a512 75bd
000000f0: ef39 6d3e f823 453e c4f5 04bf e200 67bd
00000100: a085 c13e 22d9 dabc f6e5 163d 18c6 21bb
00000110: cff9 fc3d 8257 253e 1d74 193e 8456 5e3b
00000120: c7c5 36bd 43bb d8bc 619f 613d 80b4 013d
00000130: 34e7 103d 813c c23c b0bf febc 74e0 2d3e
00000140: 1e7c dd3d 702f b53d 3e7b dc3d 2cc4 f1bc
00000150: 8480 c63e d631 3ebd 2d83 683e b7b5 073e
00000160: 517b 813d ee6d d2bd 3285 a23d 31b6 9e3d
00000170: 57ec 273e 7755 5dbc 1bca 0abd 4c7b 853d
00000180: a40c 3e3e a0cf dfbd b526 8d3d 0698 1a3e
00000190: e0aa 81be 6a33 703e 031a 1a3d f00d b6bd
000001a0: 43ee 333e 68c2 52bc 97db e8bc 4cda 94bc
000001b0: 0896 053e 2c0e 1ebd 9d51 10be 947f 483c
000001c0: 16c8 31bd b2cf 2a3c d88b b23d cc7d dd3d
000001d0: 388a a13d 6974 873c ab8d 183e 3f75 8f3d
000001e0: 5cc6 073e e370 523e 1eff 5b3d 3eda ac3c
000001f0: 25e5 1d3d bb45 6d3d 4d25 9ebe 7043 7abd
00000200: cee8 6f3e 2785 2e3e 02fa 613e 4295 fa3d
00000210: 826c dbbc 2afb 7c3e 01eb 2fbe b44b 703e
00000220: 77e7 c33d 428f 2fba 15d9 7fbd a4d1 103e
00000230: 3f4c 0ebc c717 b3bd 445c e43d 09d8 80bd
00000240: 00e9 083e 24c0 0bbd 2b8c 62bd e9c2 c5bd
00000250: ee97 a23e 3c2d 613c 41e1 c0bc 020b 0f3e
00000260: 0d77 bf3d e6b7 993d 6097 7fbd ad43 10bd
00000270: 2fd6 d8bc 4b44 583d 52fb a43d 6a3f b6bd
00000280: 9cfd 4a3e 6990 8cbe 1e04 b0bc 9364 04be
00000290: d59a 34be 0945 c23d ae99 dabd 9784 23be
000002a0: 8894 223f 1bc5 85be 3739 2e3e 51f8 cabd
000002b0: b425 f6bd b554 673d dacb 29bf 7950 de3e
000002c0: 7619 5abe f5f1 f03d db7f a23d 9b15 f1bd
000002d0: 4e5b 58bd bc56 8a3c a61c 973c e067 be3d
000002e0: 9acf 91bd b788 173e 74e7 263e 4a8b 483d
000002f0: 650d 633d 37c4 01bc eb88 bebe 4ed1 fdbd
00000300: 205d 0d3d 7c10 283e 1d5d 83bd 34b3 df3e
00000310: 240e 84bd a7c2 f5bd 3713 293f 6b15 da3e
00000320: e37d 193c e920 b7bd 9ea3 6d3c d388 59bd
00000330: 20c7 a3be ef7e a93a 501a 26bd e3dd 88bd
00000340: cdb1 c63e 9039 82bd ee2e cfbd 7be5 b3bd
00000350: 8092 20bd 0200 b23d ea16 fbbd 3787 aebe
00000360: debb a4be fbfa 003d 204b 843d 49a5 53bf
00000370: 678e febe 78f8 66b9 ff69 043e c098 103c
00000380: dbc4 113e 7efb 5abd 6b70 bd3c 2fee 10be
00000390: 7b93 1d3f 1e71 31be 8981 823e f1fc 703d
000003a0: cb2b a1be 7025 693e 2e9b dd3f 8234 5e3d
000003b0: 315a d33d 7ef5 95bd 3d4b 91bd 7358 a1bd
000003c0: f327 413e 347f 81bd 0413 77be 4ab0 cabe
000003d0: 452d 1cbe 836a c4bd 85cc 413e dbd7 c5bd
000003e0: 45b7 89bf 5e91 93bd ebff 11be 59be c63d
000003f0: b813 7bbd baef 4a3e 988b 89be f072 94bb
0.35509714 -0.11368286 0.15665717 -0.13495888 -0.090947896 0.09268673 0.35294652 0.17238392
-0.12545316 0.14416312 -0.17385188 0.050424416 -0.04508856 -0.22216253 -0.037134513 0.10194033
-0.15222439 0.043908834 0.07958332 0.03209671 0.3221715 0.16431627 0.041125856 0.28014472
-0.14509049 -0.038036805 -0.12314713 0.11959646 0.31821248 -0.036147643 0.036818698 -0.007406935
0.09370839 -0.13536097 0.07966908 -0.12364558 -0.29109108 0.42654246 -0.07989235 -0.019573515
0.08102987 0.024987921 0.01648789 0.045894295 0.31408727 -0.10598728 0.07010895 0.2331293
-0.31097448 0.044781737 0.26306 -0.23060507 -0.043593153 -0.059117436 -0.14646573 0.032547325
-0.23817098 0.11397008 0.08135872 -0.059832234 0.23166631 0.19252002 -0.5193751 -0.056397326
0.3779726 -0.026714865 0.0368404 -0.0024684723 0.12352335 0.16146663 0.149857 0.003392608
-0.04462221 -0.02645648 0.055083636 0.03166628 0.035376742 0.023710491 -0.031097263 0.16980153
0.10814689 0.088469386 0.10765694 -0.029512487 0.38769925 -0.046434246 0.2270629 0.13252912
0.06322349 -0.10274874 0.07935561 0.07749594 0.1639875 -0.013509146 -0.03388415 0.06517658
0.1855951 -0.10928273 0.068921484 0.15097055 -0.2532568 0.23457113 0.037622463 -0.08889377
0.17571358 -0.012863733 -0.028425021 -0.018170498 0.13045514 -0.038587734 -0.14093633 0.012237448
-0.043403707 0.010425495 0.08718079 0.108150095 0.07887691 0.016535 0.14897792 0.07004785
0.13259262 0.20550875 0.053710096 0.02110016 0.038548607 0.05792783 -0.30887833 -0.06109947
0.23428652 0.17042981 0.22068027 0.122355 -0.026785139 0.24705186 -0.1717949 0.23466378
0.09565633 -0.00066970673 -0.062462885 0.14142472 -0.008685171 -0.087447695 0.11150411 -0.062912054
0.13370132 -0.034118786 -0.055309456 -0.09656317 0.31756538 0.013743695 -0.02354491 0.13969043
0.09348879 0.07505779 -0.06240022 -0.03522079 -0.026469318 0.052799504 0.08055748 -0.08898814
0.19823307 -0.27453926 -0.021486338 -0.12928991 -0.17637189 0.09485824 -0.10673843 -0.15968548
0.6350789 -0.26126942 0.17014013 -0.09910644 -0.1201891 0.056477267 -0.6632668 0.4342077
-0.21298775 0.117649 0.07934543 -0.11771699 -0.05282145 0.016887061 0.018446278 0.09297156
-0.07119675 0.14798246 0.1629923 0.04896096 0.055432696 -0.007920316 -0.37213835 -0.12393437
0.03451264 0.16412538 -0.06414244 0.4369141 -0.064480096 -0.120000176 0.66044945 0.42594466
0.009368393 -0.08941824 0.014504341 -0.053109 -0.31987858 0.0012931506 -0.040552437 -0.066829465
0.38807526 -0.063586354 -0.10116373 -0.08784004 -0.039202213 0.08691408 -0.1226023 -0.34087536
-0.3217458 0.031489354 0.064596415 -0.8267408 -0.4971802 -0.00022027071 0.1293106 0.008825481
0.1423525 -0.053462498 0.023124894 -0.1415336 0.6155316 -0.17328307 0.25489452 0.058834974
-0.31478724 0.22768188 1.7312982 0.054249294 0.10319937 -0.073222145 -0.07094429 -0.078781985
0.18862896 -0.0632309 -0.24128348 -0.39587623 -0.15251644 -0.09590628 0.18925674 -0.09660312
-1.0759054 -0.07205461 -0.14257781 0.09704275 -0.061298102 0.19818011 -0.26864314 -0.004530303

fc2.bias f4 [32]
00000000: 43d9 b9bd 6ba5 913d 9cc9 883d f415 f93e
00000010: 002e 673e f49f 8fbd bc16 a2bd 5bc1 5c3e
00000020: 1ca7 be3e 03d1 ec3d e820 3c3d 4044 bf3e
00000030: 9827 413e ad6a 00bd 3333 91bd 2ec6 cb3b
00000040: 0e83 623e 9617 55bd 9d44 6f3e d640 02bf
00000050: 45ca 1ebe 5123 6c3e 0fdf 923c 0ae1 a43e
00000060: e048 0fbd 64f4 c8bc 3d65 93be 366f dfbd
00000070: a42f d4bd c344 fdbd bc33 493e a6ad 303d
-0.090746425 0.07111629 0.06679079 0.4864956 0.22576141 -0.070129305 -0.079144925 0.21558134
0.3723687 0.11563303 0.04592982 0.37356758 0.1886276 -0.031351734 -0.070898436 0.006218693
0.22120306 -0.052024446 0.23366018 -0.5088018 -0.15506847 0.23060347 0.017928628 0.3220294
-0.03498161 -0.024530597 -0.28788176 -0.10909884 -0.10360649 -0.12366631 0.19648641 0.043134354

q.weight f4 [1, 32]
00000000: ad6a e2be 72bf 40be 324c 0fbe f78e 493f
00000010: 7424 923d 5983 753f c19a a03d 9b60 7f3e
00000020: 7c82 e53e 5494 303e ca20 fe3d 0b81 2fbf
00000030: 4ee2 bb3e b360 89be b16a 103e f939 6bbc
00000040: 2601 49bf c772 37be 1768 853e a3e9 16bf
00000050: c672 ecbd 3f81 40bf e226 6dbf 746c 47bf
00000060: d6fa 033e 9c87 ecbd e2ae f2be 150e 0b3e
00000070: b1a6 0d3f 5f30 703f 7a12 11bf 478a 33be
-0.44222012 -0.1882303 -0.1399391 0.7873377 0.07135859 0.95903546 0.07842017 0.24939196
0.44826114 0.17244083 0.12408598 -0.6855628 0.36696094 -0.26831588 0.141032 -0.0143570835
-0.7851738 -0.17914878 0.26055977 -0.5895025 -0.11545329 -0.75197214 -0.92637455 -0.7789986
0.12888655 -0.11549303 -0.4739905 0.1357959 0.55332476 0.9382381 -0.5666882 -0.17533217
