model/maddpg/agent_0_target_actor.pth (torch, 12746 bytes, 5 tensors)

fc1.weight f4 [64, 5]
0.21765327 0.050588932 -0.17724873 -0.33933702 0.38550085 -0.019777052 0.017658547 0.31618124
0.044108815 -0.28163975 0.27119097 0.18791501 -0.14972775 -0.060245268 0.18235089 0.059512626
-0.2500976 0.30363777 0.069337234 -0.24849316 -0.14391182 0.1395875 0.2729642 -0.28967738
-0.15859248 0.15495956 0.1540044 -0.078890175 -0.003638483 0.12127582 -0.15978754 0.40216038
0.1612717 -0.35629457 -0.38740823 -0.1508811 0.21251237 0.2608138 -0.48276085 -0.375985
-0.1736745 0.38443577 0.43020403 0.38863444 0.010445585 0.16856731 0.3074813 -0.06590454
-0.3341544 -0.21144098 -0.12780365 -0.32503188 0.15550047 -0.3610838 0.107165895 0.3491152
0.036482736 -0.32096386 -0.12631206 0.028407693 -0.28503415 -0.2803343 0.3610242 -0.5479788
-0.4464616 0.2199924 -0.33709773 0.20307799 -0.40403667 -0.27911985 0.29048502 -0.26364112
0.2109105 -0.07955432 -0.042887703 -0.15687764 0.26089427 0.24679598 0.17204896 0.2568926
0.31818536 0.42535082 -0.26976562 -0.3588346 -0.4458221 -0.040349588 0.1004708 0.1582572
-0.29203475 0.058207154 0.037756413 0.43674898 0.0350254 -0.26917633 -0.5175447 0.1202428
0.006724191 0.17098224 -0.42230207 0.355811 -0.015012557 0.4295535 0.35406423 -0.3706046
-0.00030803683 -0.30863163 -0.37637836 0.3230292 -0.09209262 -0.26780543 0.0714188 -0.08425609
0.17501588 -0.01966211 -0.056536738 -0.024318624 -0.10052593 0.10452318 0.020746067 -0.6388224
-0.012388883 -0.16421765 -0.0062270844 -0.4436542 0.24815746 -0.08379266 0.7999994 0.1092394
-0.12089287 -0.31970027 -0.103306495 0.27657923 0.13037114 -0.1547569 0.15221475 0.08114147
0.29724717 0.37390423 0.00682671 0.14588603 0.0027916306 0.28847337 -0.020100847 -0.8019604
-0.58766365 -0.12582366 0.60020447 0.20415282 -0.26496527 -0.6495512 0.35335997 -0.37630796
0.2582091 0.08657072 0.1625068 -0.3238964 0.45625168 0.40946794 0.087323494 -0.18442813
0.33845925 -0.24572793 -0.12931699 0.024510412 0.42745125 -0.2669054 -0.41147092 0.37975588
-0.41426522 -0.20042801 -0.002708533 0.3309745 0.0603872 -0.42931032 -0.38710424 -0.21993613
0.40906262 0.29097378 0.121721365 0.1994932 -0.2968627 0.06485104 0.2852875 0.2676087
-0.37671515 0.119320795 -0.19127968 0.009226017 0.17278136 0.13633457 0.1567579 -0.03701352
0.1964165 0.34489572 0.17646112 -0.046018504 0.13636126 0.21266359 0.04328781 -0.35579
-0.045726676 0.44838682 0.059038274 -0.13441233 -0.28499246 0.084259816 0.4336257 -0.016314086
-0.08994685 -0.5142903 0.23206122 0.011245778 -0.12001518 0.114509195 -0.1581529 0.26847014
-0.44508958 0.41513863 -0.3490747 -0.11698959 0.009934195 0.16114505 0.08898498 -0.35652405
-0.096302204 -0.050731994 2.5498765 -0.23699783 1.2155749 0.9949419 0.06712868 0.36497745
0.42943802 0.080772765 -0.31190622 -0.10411935 0.17724726 0.10710332 0.14895587 0.048480786
0.03220051 0.5492186 -0.0075829052 -0.13348995 0.05259202 -0.14095543 0.7113017 0.11545021
-0.71026456 -0.50157213 0.006673282 0.022839498 0.042448048 -0.3420252 0.3007817 0.22108833
00000000: 80e0 5e3e 5736 4f3d b180 35be 95bd adbe
00000010: 5e60 c53e 7c03 a2bc a8a8 903c 82e2 a13e
00000020: 72ab 343d 1633 90be 8bd9 8a3e cb6c 403e
00000030: 3b52 19be bec3 76bd 31ba 3a3e 83c3 733d
00000040: cb0c 80be 6976 9b3e ae00 8e3d fe74 7ebe
00000050: 9f5d 13be 07f0 0e3e f7c1 8b3e 9850 94be
00000060: 1166 22be b8ad 1e3e 54b3 1d3e 2c91 a1bd
00000070: 9d73 6ebb 755f f83d 589f 23be f7e7 cd3e
00000080: 6924 253e 3e6c b6be 5f5a c6be 9380 1abe
00000090: d89c 593e 6389 853e 6e2c f7be 1b81 c0be
000000a0: bad7 31be c4d4 c43e b443 dc3e 18fb c63e
000000b0: f523 2b3c e99c 2c3e 306e 9d3e f6f8 86bd
000000c0: 4916 abbe fc83 58be f6de 02be 946a a6be
000000d0: 843b 1f3e fadf b8be cb79 db3d 3abf b23e
000000e0: ec6e 153d 6055 a4be f357 01be 40b7 e83c
000000f0: ffef 91be fa87 8fbe 2ad8 b83e 5748 0cbf
00000100: 9d96 e4be b045 613e 1398 acbe adf3 4f3e
00000110: e5dd cebe cce8 8ebe 74ba 943e f8fb 86be
00000120: ecf8 573e 60ed a2bd 04ab 2fbd 88a4 20be
00000130: ef93 853e 16b8 7c3e 9a2d 303e 6d87 833e
00000140: 31e9 a23e 95c7 d93e b81e 8abe 2bb9 b7be
00000150: cb42 e4be 9c45 25bd a3c3 cd3d 2d0e 223e
00000160: 9485 95be a06a 6e3d 78a6 1a3d 909d df3e
00000170: cb76 0f3d 7bd1 89be cf7d 04bf db41 f63d
00000180: 9a56 dc3b f815 2f3e fa37 d8be dc2c b63e
00000190: 3af7 75bc 70ee db3e e847 b53e e3bf bdbe
000001a0: 0180 a1b9 f704 9ebe aab4 c0be 1564 a53e
000001b0: 0e9b bcbd cb1d 89be 0544 923d 758e acbd
000001c0: 5d37 333e 6f12 a1bc 1193 67bd da37 c7bc
000001d0: 8ae0 cdbd 4010 d63d a8f3 a93c dd89 23bf
000001e0: befa 4abc ac28 28be 920c ccbb a526 e3be
000001f0: fd1c 7e3e 7c9b abbd c3cc 4c3f e8b8 df3d
00000200: ae96 f7bd c1af a3be 5b92 d3bd cb9b 8d3e
00000210: 0380 053e 9878 1ebe 2fde 1b3e 802d a63d
00000220: c830 983e 6070 bf3e 98b2 df3b 2663 153e
00000230: caf3 363b c8b2 933e 88aa a4bc 474d 4dbf
00000240: 2071 16bf ebd7 00be 00a7 193f 700d 513e
00000250: 87a9 87be fd48 26bf 99eb b43e 70ab c0be
00000260: fc33 843e fd4b b13d 2f68 263e c0d5 a5be
00000270: d299 e93e c8a5 d13e a9d6 b23d bada 3cbe
00000280: 884a ad3e 1aa0 7bbe ac6b 04be 0fca c83c
00000290: e4da da3e d3a7 88be 51ac d2be 5d6f c23e
000002a0: 921a d4be 003d 4dbe a581 31bb 7d75 a93e
000002b0: 9258 773d 90ce dbbe 8732 c6be f036 61be
000002c0: a870 d13e 84fa 943e 0d49 f93d f247 4c3e
000002d0: 63fe 97be 9fd0 843d 3411 923e 0204 893e
000002e0: cfe0 c0be 765e f43d d2de 43be b828 173c
000002f0: 99ed 303e 4a9b 0b3e 2585 203e 7d9b 17bd
00000300: 6821 493e 2c96 b03e 39b2 343e e67d 3cbd
00000310: 49a2 0b3e 7cc4 593e 8f4e 313d 1b2a b6be
00000320: e54b 3bbd f592 e53e 1ed2 713d 63a3 09be
00000330: 88ea 91be 6990 ac3d 3004 de3e 1ea5 85bc
00000340: 0e36 b8bd 87a8 03bf 75a1 6d3e 3640 383c
00000350: 85ca f5bd cc83 ea3d d5f2 21be eb74 893e
00000360: c8e2 e3be 0d8d d43e ebb9 b2be 3d98 efbd
00000370: 09c3 223c 3503 253e c23d b63d 528a b6be
00000380: 173a c5bd 5acc 4fbd 2d31 2340 8faf 72be
00000390: f597 9b3f 83b4 7e3f c37a 893d 53de ba3e
000003a0: 4ddf db3e 316c a53d 2cb2 9fbe 873c d5bd
000003b0: 4e80 353e fc58 db3d e387 183e ca93 463d
000003c0: afe4 033d 9799 0c3f 057a f8bb 97b1 08be
000003d0: bb6a 573d 9f56 10be de17 363f 2971 ec3d
000003e0: e6d3 35bf 0867 00bf 8cab da3b e619 bb3c
000003f0: 01de 2d3d ed1d afbe 0f00 9a3e fb64 623e

fc1.bias f4 [64]
-0.37315375 -0.38634437 0.017522011 -0.195875 0.13749835 0.20058694 0.19341055 0.15596686
-0.25593993 0.032004185 -0.054211035 -0.23998567 -0.5639231 -0.2919529 -0.1403884 -0.27547687
-0.16640814 0.077699564 -0.63521034 0.2549633 0.38897404 -0.40644598 0.44119322 -0.5924678
-0.45544997 -0.2638149 -0.083487935 0.30892035 -0.73141825 -0.39530584 -0.2821976 -0.49260753
-0.10278028 0.08410466 -0.49432713 0.24482854 -0.24709949 0.1877779 -0.30006966 -0.3285094
-0.028266134 -0.5732095 -0.46328798 -0.34204307 0.21848027 -3.000989 -0.12516925 -0.020432772
-0.32264772 -0.39633402 0.33079565 0.2938562 -0.2295514 0.18416636 0.1844326 -0.32445672
-0.0012417434 0.031122701 0.4087157 -0.23048468 0.038844567 0.28806394 -0.28982368 -0.47320026
00000000: 020e bfbe eece c5be 528a 8f3c 7593 48be
00000010: 5ecc 0c3e aa66 4d3e 6a0d 463e c7b5 1f3e
00000020: 8f0a 83be d216 033d 640c 5ebd cebe 75be
00000030: 445d 10bf da7a 95be fac1 0fbe 4e0b 8dbe
00000040: e566 2abe f320 9f3d 259d 22bf 8d8a 823e
00000050: 9b27 c73e b019 d0be 14e4 e13e f8ab 17bf
00000060: bd30 e9be bf12 87be b9fb aabd cf2a 9e3e
00000070: 3a3e 3bbf 8765 cabe 347c 90be 0e37 fcbe
00000080: 787e d2bd 103f ac3d 7218 fdbe 55b4 7a3e
00000090: a607 7dbe da48 403e bba2 99be 6232 a8be
000000a0: 618e e7bc dcbd 12bf 1534 edbe 4520 afbe
000000b0: 4bb9 5f3e 3410 40c0 5e2c 00be a162 a7bc
000000c0: 1532 a5be 4bec cabe 0c5e a93e 5274 963e
000000d0: 860f 6bbe 1b96 3c3e e6db 3c3e 311f a6be
000000e0: ffc1 a2ba 09f5 fe3c 2f43 d13e 2d04 6cbe
000000f0: 7b1b 1f3d 1e7d 933e c563 94be 4e47 f2be

fc2.weight f4 [32, 64]
-0.06165827 0.0018891543 0.027731739 -0.09958035 -0.028540686 0.073808126 -0.0046792715 -0.0119638285
-0.07543087 -0.05729297 0.005496508 -0.09248228 0.044137098 -0.0552951 -0.043937534 0.058844104
-0.06581697 0.024604356 0.14270335 0.091699496 -0.012404576 0.022479447 0.084052816 -0.10774183
-0.07290512 0.10570037 0.04930482 0.10930765 0.13216373 0.14174074 -0.07623501 -0.111769624
-0.012263924 -0.0954736 -0.10171208 -0.017138308 0.074834816 0.056848913 0.111565724 -0.121068016
0.10010497 0.054956093 -0.1381108 -0.022744894 0.1052593 -0.33929232 0.090176225 -0.053428724
0.13357338 0.11905033 0.028077446 0.034597233 -0.11362706 0.09532376 0.023688555 0.122955926
0.07087734 -0.035984308 -0.05209866 0.010007769 -0.060079493 -0.10730599 0.07486184 0.17566921
-0.006943785 -0.029455125 0.03707133 0.12416649 -0.1413399 0.065359905 0.09403722 0.01594286
0.058685392 0.0738193 0.03858417 -0.052979082 -0.038158 0.10281178 -0.078279 0.10634889
-0.019858196 -0.11642028 -0.04431107 0.030949354 0.06806584 0.02137769 0.024563536 -0.095168225
-0.16642901 -0.039520342 0.035554763 0.08323893 -0.059251733 0.06407468 -0.0030612499 0.069655165
-0.0857577 -0.06988531 0.03874473 -0.11431549 -0.052076813 -0.036218986 -0.04747373 -0.006074786
-0.1519525 0.083379894 -0.04862943 -0.03557743 -0.11617888 -0.04214965 -0.0144575685 -0.14615148
0.08247763 -0.09250538 0.07936925 -0.09711926 -0.006023735 0.061059535 -0.09474373 0.063623175
0.10717489 -0.057912335 -0.119981125 0.056264043 -0.108667195 0.01899375 0.059504434 0.081961304
-0.08381206 -0.0076404214 0.111407414 -0.120005086 0.0280808 0.039381474 0.04118772 -0.08293003
0.004212767 0.052497894 -0.097778164 0.012263283 0.12972741 -0.11534351 0.0670688 -0.083227545
0.050836325 0.06066548 0.11989002 0.10024114 -0.034759432 0.036532283 0.029359207 0.047607273
0.036268905 0.12398039 -0.05158843 -0.008830205 0.08842618 -0.013534224 0.09526192 0.1139327
-0.032926198 0.025832146 -0.07569222 0.118209794 -0.11826806 -0.044935822 -0.11677418 -0.07765356
0.106392525 -0.058611453 -0.04779391 -0.0025298595 -0.0109757865 -1.0246705 -0.032489076 -0.0028703064
0.018553918 0.17914118 0.11954804 0.09467798 0.10063729 -0.053229094 -0.06473474 0.12811509
-0.070534185 0.057910487 0.11209181 0.069334865 0.08757992 -0.10759431 0.064019784 0.24760462
0.067915305 0.053793445 -0.02978222 0.114993215 0.042375326 0.04321532 0.027134135 0.074484214
-0.09093672 -0.107883394 -0.08184749 0.06439912 0.098279685 -0.0062294602 -0.0800409 -0.04153903
-0.035059214 0.013421729 0.027481034 0.08691609 0.11903222 -0.046741143 0.00694941 0.11918925
-0.04501552 -0.05894226 0.008601204 0.031858608 0.0421225 0.02687873 0.00013580918 -0.07851659
0.1104171 -0.056803152 0.11364092 0.014641383 0.12259328 -0.052617133 0.055477753 0.033562124
-0.0050679 0.09191142 -0.10783285 0.021214738 -0.0713982 -0.12474282 0.052226663 -0.02865301
-0.042706832 0.106096 0.0858306 -0.07513112 -0.08650862 -0.093912125 0.06636353 -0.096268535
-0.09213482 -0.105361655 0.05292715 0.030666009 -0.08525908 0.029197708 -0.10796596 -0.11901434
00000000: 628d 7cbd 809d f73a ac2d e33c c8f0 cbbd
00000010: 28ce e9bc b728 973d 9354 99bb ef03 44bc
00000020: 807b 9abd 09ac 6abd 0d1c b43b 5a67 bdbd
00000030: 1ac9 343d 1d7d 62bd d8f7 33bd 8406 713d
00000040: 0ccb 86bd 138f c93c d420 123e f2cc bb3d
00000050: 903c 4bbc d126 b83c e223 ac3d c0a7 dcbd
00000060: 484f 95bd 7079 d83d daf3 493d b0dc df3d
00000070: ee55 073e 7c24 113e 1a21 9cbd 79e7 e4bd
00000080: a0ee 48bc aa87 c3bd 6c4e d0bd a365 8cbc
00000090: ff42 993d 68da 683d 927c e43d 82f2 f7bd
000000a0: d603 cd3d a419 613d eb6c 0dbe 8053 babc
000000b0: 3092 d73d b9b7 adbe 50ae b83d 14d8 5abd
000000c0: 76c7 083e a9d0 f33d ac02 e63c d4b5 0d3d
000000d0: 4eb5 e8bd 1a39 c33d 800e c23c 51d0 fb3d
000000e0: 2428 913d 4864 13bd 6865 55bd a0f7 233c
000000f0: ea15 76bd 3ec3 dbbd 2a51 993d a1e2 333e
00000100: b188 e3bb e04b f1bc 1bd8 173d 004b fe3d
00000110: 68bb 10be 6adb 853d 9696 c03d 9a9a 823c
00000120: 1860 703d 932e 973d 6f0a 1e3d 9800 59bd
00000130: 904b 1cbd fc8e d23d be50 a0bd 72cd d93d
00000140: a8ad a2bc c16d eebd 867f 35bd 8089 fd3c
00000150: 1a66 8b3d 4420 af3c 7839 c93c 8fe7 c2bd
00000160: 5e6c 2abe 15e0 21bd dfa1 113d 2c79 aa3d
00000170: f2b1 72bd 9639 833d 409f 48bb 5ea7 8e3d
00000180: bca1 afbd 0820 8fbd cbb2 1e3d 3d1e eabd
00000190: 7f4e 55bd 5c5a 14bd d073 42bd 000f c7bb
000001a0: 7099 1bbe 14c3 aa3d a72f 47bd a4b9 11bd
000001b0: 31ef edbd 1da5 2cbd 70df 6cbc bca8 15be
000001c0: 08ea a83d 7673 bdbd 588c a23d 76e6 c6bd
000001d0: c062 c5bb 9019 7a3d 0009 c2bd de4c 823d
000001e0: 827e db3d 7c35 6dbd aab8 f5bd 2075 663d
000001f0: e88c debd c898 9b3c ecba 733d 54db a73d
00000200: a8a5 abbd 805c fabb 9229 e43d 3ac5 f5bd
00000210: b509 e63c 784e 213d 74b4 283d 38d7 a9bd
00000220: 400b 8a3b 0808 573d eb3f c8bd f0eb 483c
00000230: 43d7 043e 3839 ecbd 5e5b 893d 3473 aabd
00000240: c039 503d 5e7c 783d e688 f53d 3a4b cd3d
00000250: e85f 0ebd e0a2 153d b882 f03c d8ff 423d
00000260: b48e 143d 6ee9 fd3d 644e 53bd 90ac 10bc
00000270: c918 b53d a6be 5dbc ae18 c33d 8c55 e93d
00000280: 9fdd 06bd f09d d33c 8604 9bbd fa17 f23d
00000290: 8636 f2bd a00e 38bd 4d27 efbd d408 9fbd
000002a0: 53e4 d93d 9012 70bd 8cc3 43bd 00cc 25bb
000002b0: c9d3 33bc 6728 83bf 4413 05bd c01b 3cbb
000002c0: 63fe 973c c970 373e 9ad5 f43d 87e6 c13d
000002d0: ec1a ce3d c006 5abd a693 84bd 9a30 033e
000002e0: 3a74 90bd 8c33 6d3d 6490 e53d 70ff 8d3d
000002f0: 1a5d b33d 685a dcbd ce1c 833d 118c 7d3e
00000300: 2e17 8b3d 8456 5c3d d8f9 f3bc 9081 eb3d
00000310: c091 2d3d 8c02 313d 6848 de3c 2e8b 983d
00000320: 083d babd f8f1 dcbd a89f a7bd b0e3 833d
00000330: dc46 c93d 8020 ccbb 7cec a3bd d424 2abd
00000340: 409a 0fbd d0e6 5b3c e81f e13c 1001 b23d
00000350: 2ac7 f33d a473 3fbd e0b7 e33b 7e19 f43d
00000360: 3262 38bd 706d 71bd 10ec 0c3c 2c7e 023d
00000370: a488 2c3d c830 dc3c 0068 0e39 4ecd a0bd
00000380: 5c22 e23d 6caa 68bd 92bc e83d 69e2 6f3c
00000390: 3012 fb3d 1085 57bd a43c 633d 7078 093d
000003a0: a010 a6bb 0e3c bc3d 78d7 dcbd 88ca ad3c
000003b0: 3839 92bd 2a79 ffbd a0eb 553d b8b9 eabc
000003c0: 5ced 2ebd dc48 d93d f4c7 af3d 58de 99bd
000003d0: 6e2b b1bd 0055 c0bd 9ae9 873d 7028 c5bd
000003e0: 2eb1 bcbd dac7 d7bd 24ca 583d 4837 fb3c
000003f0: 509c aebd 0830 ef3c 421d ddbd cabd f3bd

fc2.bias f4 [32]
0.06075563 -0.06528168 0.24301358 0.029463127 -2.5080442 -0.038117394 -0.048545983 -0.058491025
0.17399581 -0.028020265 2.8036659 -0.06947114 0.0123806875 -1.7908053 -0.07084155 -0.1472348
-0.111718215 -0.12485778 -0.11395935 -0.09307833 2.2586148 -0.10437119 0.05705455 -2.0935678
0.035767477 -0.07753044 -0.014231508 -0.21831042 0.025355559 0.075722635 -1.4584025 -0.002012858
00000000: e5da 783d 67b2 85bd 8dd8 783e a85c f13c
00000010: cc83 20c0 fc20 1cbd 27d8 46bd 4994 6fbd
00000020: f52b 323e c18a e5bc 436f 3340 e346 8ebd
00000030: 5ed8 4a3c 1c39 e5bf 6015 91bd b8c4 16be
00000040: 85cc e4bd 70b5 ffbd 8563 e9bd da9f bebd
00000050: 258d 1040 90c0 d5bd 08b2 693d 04fd 05c0
00000060: eb80 123d 48c8 9ebd 452b 69bc c48c 5fbe
00000070: 76b6 cf3c 7814 9b3d efac babf 27ea 03bb

pi.weight f4 [1, 32]
0.16272902 0.035453808 0.1878852 0.15063603 -1.3930614 -0.038143095 -0.016673578 0.04441947
0.17667355 0.22799766 1.3551679 0.036096048 0.050107993 -0.8800072 -0.07249774 0.019071361
0.017774401 -0.12385629 0.04161842 -0.021702351 1.3249135 0.06027097 -0.040776506 -0.78912866
0.067212865 0.010227095 0.0642304 0.00019898817 0.035863962 0.17024297 -0.62546986 -0.07383718
00000000: 70a2 263e 0338 113d fa64 403e 5540 1a3e
00000010: d64f b2bf ef3b 1cbd 0797 88bc 31f1 353d
00000020: e9e9 343e 3878 693e 2476 ad3f 73d9 133d
00000030: 0a3e 4d3d 2748 61bf b279 94bd 8b3b 9c3c
00000040: 9f9b 913c 5ea8 fdbd 1478 2a3d 21c9 b1bc
00000050: c496 a93f b1de 763d 4405 27bd 5604 4abf
00000060: e6a6 893d 8c8f 273c 3a8b 833d 7ba7 5039
00000070: 17e6 123d 2c54 2e3e cb1e 20bf f337 97bd
