model/maddpg/agent_2_target_critic_20240722.pth (torch, 25454 bytes, 5 tensors)

fc1.weight f4 [64, 54]
00000000: 91d6 ccbc 734e 02be e064 8e3b 337d 3abb
00000010: 9cae 19be 1dc0 3bbc 7863 873c 5422 7f3e
00000020: 2fc0 21bd c220 9ebd 58f2 c7bd f531 08be
00000030: 7df3 9ebd c87d ea3d 4d4a df3d 7614 b63e
00000040: 8c30 19be 50ee c03c b370 b83d edbe 07be
00000050: 571f 763d 0a95 f5bd 6c08 f4bd 52e7 3a3b
00000060: c28d 293e 4f65 eebc d59e 0d3c faeb 17be
00000070: 766f 1fbc 760e bbbb a390 fc3d 44f4 f2bd
00000080: b5b2 8e3e fdd5 163d 959a ff3c 24a0 c4bd
00000090: e484 1bbe a02b b7bd 21a7 c0bc 0829 953c
000000a0: 183d e0bd bd75 dd3d f471 f0bd fc33 b7bd
000000b0: 9aa1 413d 52d6 e5bd df79 f3bd 109d 12bc
000000c0: 6430 013b a68b 863e 99cc 813d 6b86 223d
000000d0: ecd6 12bf 4aba 043d 53e6 1ebd 68ad 7bbd
000000e0: 16e7 143d 7459 ca3d db59 d93d f290 80bd
000000f0: be08 b53c d7c0 71bf 05df fb3d 0a4e 26bf
00000100: ad11 723c 50af 003e 3770 2c3d bf1f 7dbf
00000110: 0e80 5f3d 807f 9ebf 0dbb 0dbe b36e ef3c
00000120: 31b1 e3bd bd29 2d3c 93ef 81bd b694 983d
00000130: da7a 363e 932d 95bc 7d34 5cbf 6cbb 55bd
00000140: 8355 2abf eadf 0fbe be0d 33bd 03ec d63d
00000150: d1e6 48bf 3e59 d4bd b2be 9dbf ebc4 f3be
00000160: a2d1 94bd 7517 a9bc 4394 9339 c997 87bd
00000170: 6a48 3b3d f0ab 753d 5ee8 c13d 41fe 8bbf
00000180: b573 1dbd d90c f8be 850a 073c b1f4 8c3d
00000190: 6b72 8a3d bb41 85bf e37d 9b3d 3216 83bf
000001a0: 9d10 b13d 1596 143e 772a 953f c95c 63bf
000001b0: 6263 9cbb f8ea e53e 66f9 e23d 0e87 fc3e
000001c0: 9374 363a c1c6 a63e 5857 b8bd b6d0 fb3e
000001d0: 5944 9dbd e361 2b3e 5ba3 d33d 8819 113f
000001e0: d806 9e3d 3466 0d3f 5572 1d3e f35e b13e
000001f0: 09c4 9cbd 23a2 553c 798f 063f fd3b 73bd
00000200: fa54 063f 693b b13d f7fd c13e 375d c13d
00000210: 9b02 1b3f 4ff7 a1bd a13c 6c3b 630a ff3b
00000220: 283a bc3e f1cc 29bc 167a f83e ee7b 8d3b
00000230: 27d8 163e 1377 073f 7680 c23d d801 f03e
00000240: a03b cbbc 52ec f53e 27a6 7ebd 44b6 083f
00000250: 6216 75bd f435 353f 3b9c cebd e0ec ff3d
00000260: 1ffc e13d 79c5 0a3f 5d34 a03d d145 173f
00000270: 0be8 1b3e 413c 193e 73dc 97bc e2de 84bc
00000280: 756d 4d3f a5e4 e4be bfd0 913d 6f47 983d
00000290: 883e ddbd 4b13 d13c 1f46 993d b66c 3bbd
000002a0: 59d7 22bd 21b4 e8bc 2eef bbbd 08d5 1fbe
000002b0: fa6e cf3c 7c2a 90bd 2764 913c 9303 c1bc
000002c0: 2944 a7bd 8868 16be 5f4f ccbd 2ae9 f1bd
000002d0: 2a59 00be c09f 15be 1740 84bd bf8d 583c
000002e0: 8b09 03bd 5cb8 6e3d d159 23bd 51b4 6fbd
000002f0: 943f 00bd 11e9 21be ca39 fcbc 9931 aebd
00000300: 67c6 0abe 438d 873b 3dce aebd 085e 1ebd
00000310: 1167 ff3c 4a91 bcbd 7126 6abc 78df ddbd
00000320: 3df1 64bd 6a73 0e3d 8eae ffbd 39f7 713d
00000330: d9b7 ba3c d8a2 0e3b 48f2 d7bc db3b 973d
00000340: 473e c3bd 34b6 9cbd 96a5 31bd 389f ef3c
00000350: 4dd5 583c e863 80bd 43bf c8be b357 19bd
00000360: a928 b63d 2670 f6bb 455e adbd bd79 21be
00000370: a6dd 433c a82b 80bc df7e 02bc f68c 3fbf
00000380: 0c47 98bd e73b 86bd 5c31 dfbd 4f9f cdbd
00000390: f8cb 1abe 0245 3abf c9d5 fb3d a62c 3bbf
000003a0: 4d4f 20be 740b ed3c 31d2 b63d efdd da3d
000003b0: f39e 8abd 5a9d 74bd 14b3 1cbe d7c8 da3d
000003c0: 8ea1 3dbf a051 ee3a 0b66 d73c 164f 75bd
000003d0: 6b45 05be 8641 b7bd 9da9 25bf 2def fb3d
000003e0: e138 2fbf d8fa dabe fa08 c73d b631 80bd
000003f0: d1e3 25bd 6221 f5bd 76e5 433d e3ff 04be
-0.025004657 -0.12725239 0.0043455213 -0.0028455972 -0.15008014 -0.011459378 0.016526923 0.24915439
-0.03948992 -0.07721092 -0.0976302 -0.13300307 -0.077612855 0.11449772 0.109028436 0.35562485
-0.14959925 0.023551136 0.09005871 -0.13256426 0.06008848 -0.119913176 -0.11915669 0.0028519225
0.16557983 -0.029101042 0.008643826 -0.14836112 -0.009731164 -0.005708511 0.12332275 -0.11862996
0.27870718 0.03682517 0.03120164 -0.09600857 -0.15187413 -0.08943868 -0.023517193 0.018208042
-0.10949153 0.108134724 -0.11740485 -0.08945462 0.047273256 -0.11222519 -0.118884794 -0.008948579
0.001971268 0.26278418 0.06337852 0.039678972 -0.57359195 0.03240422 -0.038793873 -0.06144467
0.036353193 0.09880343 0.10612842 -0.06277646 0.022098895 -0.94434875 0.12298397 -0.6496283
0.014774722 0.12566876 0.042099204 -0.98876566 0.05456548 -1.238266 -0.13840885 0.02922759
-0.11117781 0.010569033 -0.06344523 0.07450239 0.17820302 -0.018210208 -0.8601759 -0.052180693
-0.6653673 -0.1405026 -0.043714277 0.104942344 -0.784772 -0.10368584 -1.232382 -0.47611174
-0.07266547 -0.020641068 0.00028148488 -0.066207476 0.045723356 0.059978426 0.09468149 -1.0936967
-0.038440425 -0.48447302 0.008242254 0.06882609 0.06760105 -1.0410684 0.0759237 -1.0241148
0.08645747 0.14510377 1.1653584 -0.88813454 -0.0047725895 0.4490583 0.11082725 0.4932179
0.000696012 0.32573512 -0.090010345 0.4918267 -0.07679052 0.1673656 0.10333892 0.5667958
0.07716149 0.55234075 0.15375645 0.34642753 -0.07654578 0.013039145 0.5256267 -0.05938338
0.52473414 0.0865391 0.37889072 0.094416074 0.6055085 -0.079084985 0.003604688 0.0077832206
0.3676312 -0.010363803 0.48530644 0.004317752 0.14730893 0.5291607 0.09497158 0.46876407
-0.024808705 0.4803186 -0.062170174 0.53403115 -0.0598358 0.7078545 -0.10088392 0.12496352
0.110344164 0.5420757 0.078224875 0.59090906 0.15225236 0.14964391 -0.018537736 -0.01621956
0.80245143 -0.44705692 0.07119893 0.074355 -0.108029425 0.025521895 0.07484078 -0.04575797
-0.039756153 -0.028406205 -0.09176479 -0.15608609 0.025321472 -0.07039353 0.017747952 -0.023561275
-0.081672974 -0.14688313 -0.09976076 -0.11812051 -0.12534013 -0.14611721 -0.06457537 0.013217389
-0.031991523 0.058281288 -0.039880577 -0.058521573 -0.031310633 -0.15811564 -0.030789275 -0.08505554
-0.13552247 0.0041367128 -0.085354306 -0.038663894 0.031177076 -0.09207399 -0.014291392 -0.10833639
-0.055894125 0.034778036 -0.124844655 0.05907366 0.022792744 0.0021764543 -0.026360646 0.073844634
-0.09533363 -0.0765194 -0.043370806 0.029250726 0.013234449 -0.062690556 -0.3920842 -0.037437152
0.08894474 -0.0075206934 -0.08465246 -0.15769096 0.011954701 -0.015645817 -0.007964819 -0.74824464
-0.07435426 -0.06554394 -0.108980864 -0.10040151 -0.1511687 -0.7276155 0.12296636 -0.73115003
-0.15655251 0.028936125 0.089268096 0.10686862 -0.067685984 -0.059720375 -0.15302688 0.106828384
-0.7407464 0.0018182285 0.026293775 -0.059889875 -0.13014762 -0.089480445 -0.64711934 0.123014785
-0.68446165 -0.42769504 0.09718509 -0.062594816 -0.040500466 -0.11969258 0.047826253 -0.12988238

fc1.bias f4 [64]
00000000: a03f dbbd 8cea b93d 4baf f53d e727 9a3d
00000010: 9877 5abd ca23 2fbe 5f33 b4bb 9032 1cbb
00000020: 2172 b33d 9ede 283d bde3 cdbd 3316 8b3d
00000030: f946 c63d 22c4 b63d d49b 52bd a3c0 4a3d
00000040: bfb0 cebd 511d bd3d a97f a6bd c58f eb3b
00000050: 2b8e 14be 4803 d33c cadd 0a3e 17c7 eebb
00000060: 5849 acbd 585d 433d 3757 f83d ae88 4a3d
00000070: 4073 2abc 0bb7 ab3d 5717 903d ed68 f3bd
00000080: 3358 4bbd 6a4b 273d eaa2 95bd ec23 d53d
00000090: ccea dd3d c3af 553b 5302 883d ae06 053d
000000a0: 2cbd 01be f20d 383d b05c 543c 5c24 20bc
000000b0: 7a55 e93d b9af d93d 478b a23d 40d7 97bd
000000c0: 9241 0ebe e14f a9bd a535 adbc 15b6 dd3d
000000d0: 0d91 fbba 9997 e8bd 62a4 0e3e b197 05be
000000e0: 1942 793c ef1f e4bc 5854 f73d 61ad dabd
000000f0: 014c 02be c63e c53b 13c4 aabc a689 cb3d
-0.10705495 0.090779394 0.11996325 0.07527142 -0.05333671 -0.17103496 -0.005499288 -0.0023833849
0.08762003 0.04122793 -0.10053203 0.067913435 0.09681506 0.08924128 -0.05141814 0.04950012
-0.100923054 0.09234107 -0.08129818 0.0071887695 -0.14507358 0.0257584 0.13561168 -0.007286917
-0.08412427 0.04769644 0.1212601 0.049446754 -0.010403454 0.08384522 0.07035702 -0.118852474
-0.04964466 0.040843405 -0.07306464 0.10407242 0.108357996 0.0032605983 0.06641068 0.032477073
-0.1266982 0.044935174 0.012961552 -0.009774294 0.113932565 0.106292196 0.07936721 -0.074141026
-0.138922 -0.08267189 -0.021143744 0.10825745 -0.0019193009 -0.1135704 0.13929895 -0.13046147
0.015213513 -0.027847258 0.12076634 -0.10677601 -0.12724306 0.006019446 -0.020845449 0.09938364

fc2.weight f4 [32, 64]
00000000: 504f b2bd e886 3a3d 40d4 8abd c463 ccbd
00000010: 141c 783d e4ca 91bb d07a 9fbd 4470 743d
00000020: 7471 f0bd 6a8b d23d ac4d e8bd 40b3 893d
00000030: d07b 63bd 7059 1dbc e835 f03d d936 6a3d
00000040: 22fb 89bd 4e09 cbbd 4dba 23bd d09a 1abc
00000050: 7493 9b3d a00a 503c 328d a33d 8e85 8c3d
00000060: 0037 53bb eadc acbd f2b9 c2bd 6084 833c
00000070: 882b ae3c 2639 a9bd f438 453d 66bb 37bd
00000080: 42c6 a2bd eca8 113d 508c d6bc 00f4 c23c
00000090: 9682 8d3d c809 92bd 3a1e fd3d c4fa 8c3d
000000a0: c09c bfbb e2fd 8bbd 3888 79bd d4a3 06bd
000000b0: 7061 b43d 164f dc3d c899 40bd 88d3 1a3d
000000c0: c6ed 883d 00b2 193b f0ce 2dbd 3037 523c
000000d0: d0c8 ddbd 7cbe 283d 220c a23d a6aa c1bd
000000e0: 74c6 3b3d 2602 f4bd 8ce5 03bd 08db 81bd
000000f0: 9569 22bd ba86 a1bd c642 bd3d 5e7c 8fbd
00000100: fabd 4bbd a8fc be3c 37ec a4bc 0b03 dbbd
00000110: 20cb 20bd 21af 3fbd 494d b9bc db20 8f3c
00000120: cb3f 94bd 5dfd 003e 2812 afbc f4d4 793d
00000130: 2036 d93d 98c8 503d 3396 88bc 5716 4cbd
00000140: 0e78 c63d 3433 a33d 56eb e33d 02da f13d
00000150: ac89 703d b4ea 083d 70d0 d4bc 29d2 b13d
00000160: c21b 803d 4773 25bc 909f d23d e14b f0bc
00000170: 24d5 403d 6188 d4bd 1233 f73d b16a b33b
00000180: f58b 23bd a3cc 9c3d 8b73 9ebb a095 093d
00000190: bd12 7f3d e8bc 563d 60f3 e7bd 1ef0 febc
000001a0: 6e98 b4bd b248 d93d 74fd a83c b7c4 1f3b
000001b0: 04fd 113c 101a e0bc 0217 033d a8da 0f3e
000001c0: 66c4 c3bd a1b5 15bd 20f7 b5bc 04d8 b0bd
000001d0: 803c dfbb 75ab 34bc a4f1 bf3c 3cd5 14bd
000001e0: 06e9 8a3d 3d7e fc3d 420a 9d3d 2cc9 b5bd
000001f0: 2524 d9bc 171d 8e3c a715 a93c 3d81 7dbd
00000200: 05d2 61bd f222 0e3d b682 88bd 273b 9c3d
00000210: 0a61 d43d 6419 a03c 9af5 77bd c8a8 ee3c
00000220: 0c25 af3d 264a cd3d 5ef7 893d 9049 36bc
00000230: 9024 4d3c a6bb a5bd 697a 383d 40cc 073b
00000240: 9a8e 44bd c4cf d83d 8000 a23d d6c7 acbd
00000250: fc3c 79bd 20bb 523c 63fc cfbc 9520 eabd
00000260: a069 39bc 2e5d cb3d bbcf 5b3d 357f ba3d
00000270: 1407 283d 1cb7 293d 88b2 ab3d 1ca7 9f3d
00000280: 1454 97bd b0b6 463c b7d2 c3bc b2c7 3e3c
00000290: 94d1 9c3d 0c17 2fbd 3235 8c3d 5e0c a23d
000002a0: dca3 963d a2f0 fe3d 338b df3d 0c2d 543d
000002b0: 24dc 393d 00ac 0d3d e1f1 fe3c 6edd cfbd
000002c0: 4780 d13d a1fd fbbd 0091 833d 79c1 fbbd
000002d0: 4805 99bc 6480 d3bd 3cf9 ebbd 2bc3 88bc
000002e0: 58e0 14bd 83f8 8cbd e0c2 58bd 186b 5abd
000002f0: 2402 a73d 1c4b ffbd 12f5 f83d caa0 c8bd
00000300: a640 bd3c f8a3 073d dbca 48bd 9eba 773d
00000310: 5bae 063d 4837 aabd 1932 0d3c 4f0b d5bd
00000320: 0a46 fb3d cb19 883c 5fbc 863c c4d7 4cbd
00000330: ff86 043d b812 76bd 085a 853d 38e6 dd3d
00000340: af2e c0bd e704 073d a6ed ea3c 907a 433d
00000350: 4d63 783d 0c06 373d 3830 d8bc c02f 5dbc
00000360: a4d3 86bd 9f1c fdbc bb27 cc3d 3c1f 553d
00000370: 55d9 8a3d e01c e33d 1d1b ea3b 6040 963c
00000380: a965 86bd 980d 3f3d 2583 bfbc be7e e8bd
00000390: 9291 053e ae91 7c3d 7e11 b5bd 30b2 dbbd
000003a0: 8cf8 873d 6e5e e0bd 32c7 a9bd df5b 6fbb
000003b0: 13d0 91bd 9c84 8cbd 7a9e 173d 1070 af3d
000003c0: dc18 6dbd 836f e03d 9d34 6cbd 70df f93d
000003d0: 7af3 093d 923f d63d 6f5e f1bd 15b1 7a3d
000003e0: fccf 60bd 5056 4fbc 80ed 41bc afba 433d
000003f0: 3d49 aabd 3fc1 853d 689a 713d f544 2dbc
-0.08706534 0.045538813 -0.06778765 -0.09979966 0.060573652 -0.0044492353 -0.077870965 0.059677377
-0.117403895 0.10280497 -0.1134294 0.06723642 -0.055538 -0.009603843 0.11729032 0.057181213
-0.06737353 -0.09913884 -0.039972592 -0.009436324 0.07596484 0.012697846 0.07985915 0.06861411
-0.0032228827 -0.084405735 -0.095081225 0.016054332 0.021260992 -0.08262853 0.048150018 -0.04485645
-0.07947971 0.035561487 -0.026189953 0.023797989 0.06909673 -0.07130772 0.12359281 0.06883767
-0.0058475435 -0.06835534 -0.060920924 -0.032871082 0.08807647 0.10757272 -0.047021657 0.03779939
0.06685977 0.0023452044 -0.04243368 0.012830541 -0.108293176 0.041197285 0.079124704 -0.09456377
0.045843557 -0.11914472 -0.032201335 -0.06340605 -0.039651472 -0.07887025 0.09241252 -0.07006143
-0.049741723 0.023313835 -0.020132167 -0.1069394 -0.039256215 -0.046797875 -0.02261986 0.017471721
-0.0723873 0.1259665 -0.021370962 0.060994104 0.10606027 0.05097255 -0.016673183 -0.049825992
0.09690867 0.079687506 0.11128871 0.1180916 0.058725044 0.033426955 -0.025978297 0.08682663
0.062552944 -0.010098285 0.102843404 -0.029333057 0.047078267 -0.10377575 0.12070288 0.005475365
-0.039928395 0.07656219 -0.004835551 0.03358996 0.06227373 0.05242625 -0.11325717 -0.031120356
-0.08818136 0.10609569 0.020628668 0.0024378726 0.008910421 -0.027356178 0.032004364 0.14048254
-0.095589444 -0.036550168 -0.022212565 -0.08634952 -0.006812632 -0.011027207 0.023430653 -0.03633617
0.06782727 0.123287655 0.07667972 -0.08876261 -0.026506493 0.017347855 0.020640207 -0.06189083
-0.05513193 0.034701295 -0.06665556 0.0762847 0.10370071 0.019543357 -0.06053696 0.029133216
0.08551988 0.10023908 0.06736635 -0.011125937 0.012520924 -0.08092432 0.045038614 0.0020721108
-0.047987558 0.10586503 0.079102516 -0.08436553 -0.060849175 0.012861997 -0.025388902 -0.11431996
-0.011316687 0.09929882 0.053664904 0.09106294 0.041022375 0.041434392 0.083836615 0.077955455
-0.073890835 0.012128517 -0.023904188 0.011644291 0.07657161 -0.04274659 0.06846084 0.07912515
0.073554724 0.12448241 0.10915222 0.051800773 0.045375958 0.03458786 0.031121196 -0.10149656
0.10229545 -0.12304235 0.06424141 -0.12292761 -0.018679276 -0.10327223 -0.11522147 -0.016694626
-0.036346763 -0.06883337 -0.052920222 -0.05332479 0.08154705 -0.12465498 0.121561185 -0.09796293
0.023102116 0.033115357 -0.049021583 0.060480706 0.032881122 -0.08311325 0.008617901 -0.104025476
0.12269218 0.016613862 0.016447244 -0.050010458 0.032355305 -0.060076445 0.06511313 0.10834926
-0.09383904 0.03296366 0.028677773 0.047724307 0.060641576 0.0446835 -0.02639018 -0.013500154
-0.06583336 -0.030897437 0.099685155 0.05203174 0.06779734 0.11089492 0.0071443454 0.018341243
-0.06562359 0.046643823 -0.023377964 -0.11352299 0.13043812 0.06166237 -0.08841227 -0.10727346
0.066392034 -0.10955511 -0.082899466 -0.0036523265 -0.07119765 -0.06861231 0.03701637 0.08566296
-0.057885036 0.10958769 -0.057667363 0.122008204 0.033679463 0.10461344 -0.1178559 0.061204035
-0.05488585 -0.012654856 -0.01183641 0.047785457 -0.0831475 0.065309994 0.058985144 -0.010575523

fc2.bias f4 [32]
00000000: 5013 f0bd b47a 193c 3217 78bd 2fd9 c0bc
00000010: 2ded 93bc e82d c53c c448 a2bc 1238 24bd
00000020: 10d0 a2bc f3cf 46bd 52f1 0dbc 5858 dabd
00000030: 5283 8c3d 202c b3bc 22f0 903d bb1b c7bd
00000040: f848 b83d 9881 44bd a9e1 933d eeef febd
00000050: 8a66 f13d 2944 edbd c1fb 67bc 6ac4 163d
00000060: 609b 333b 6c40 f0bd fde4 a5bd 886c e33c
00000070: dcb0 893d f0bf d03d 5640 c53d b646 46bd
-0.117224336 0.009367634 -0.060568996 -0.023541061 -0.01805743 0.024069741 -0.019810088 -0.040092535
-0.019874603 -0.04853816 -0.008663492 -0.106613815 0.06860985 -0.021871626 0.07077052 -0.09722086
0.08998293 -0.047975153 0.07220776 -0.12448107 0.11787136 -0.11585266 -0.014159144 0.03680841
0.0027405843 -0.117310375 -0.08100317 0.027761713 0.067231864 0.10192859 0.09631412 -0.04840728

q.weight f4 [1, 32]
00000000: 38c6 1bbe 545c 57bc 8f3c b03c 3037 f4bd
00000010: f967 333d 81e9 4e3c f433 e6bd 782c e4bd
00000020: 8bf6 093e e622 c63d 1011 0bbe 6a28 ce3d
00000030: 07fd 003e 2673 8fbc 346e 263e ef68 9dbb
00000040: 6f27 503d 38f9 60bc 574c ec3d 5056 6e3b
00000050: ef0a d3bd e04d 343c 9dff 383d c9dc dbbc
00000060: 6d05 c03b 9599 303b 425a 043d 7049 bc3d
00000070: bcc2 d9bd 3c5a 45bd afeb f9bb 9d20 5e3b
-0.15212333 -0.013144571 0.021513252 -0.11924589 0.043800328 0.012628914 -0.11240378 -0.11141294
0.13472955 0.09674625 -0.13580728 0.10066302 0.12596522 -0.017510962 0.16252977 -0.004803769
0.050818857 -0.013731293 0.11537998 0.0036367364 -0.1030482 0.011004895 0.045165647 -0.026838677
0.005860022 0.002694701 0.03231264 0.091936946 -0.10632846 -0.048181757 -0.0076269726 0.003389395
