model/maddpg/agent_1_target_actor_20240722.pth (torch, 15972 bytes, 5 tensors)

fc1.weight f4 [64, 17]
-0.020468721 0.028707452 -0.03074934 0.2314408 0.023919461 0.049126755 0.12280063 0.059644982
-0.1092911 0.21452087 0.026489053 0.16368361 0.024713363 0.1279808 -0.15762688 -0.16304447
-0.14438061 -0.17551044 -0.13005102 0.14276257 0.23138678 -0.15103906 -0.06546143 -0.22992113
0.20615532 -0.071424514 0.08831008 -0.08080633 -0.0011320689 -0.0111657465 0.033696044 -0.20944521
0.1469498 -0.0925045 -0.07564694 0.08064069 -0.23464684 0.03972349 0.24210867 0.007962271
0.03995774 0.012941495 0.1928011 0.13011579 0.09223275 0.14400491 -0.14177108 0.2258695
-0.15759133 0.1138543 0.19151662 -0.17274413 -0.19640867 0.13119814 -0.09911107 0.13901976
-0.20201747 0.12111042 0.17555447 -0.1607293 0.13044712 -0.23699799 -0.031418294 0.22191352
-0.09110393 -0.09368108 -0.23405649 0.21914935 -0.14152467 -0.072749406 0.027200324 -0.20086859
0.13608274 -0.119641915 0.18005313 -0.008713416 0.14209388 0.13487276 0.21416341 -0.20004605
0.2061883 0.07415085 0.123988576 -0.008268523 0.22869354 -0.17783049 -0.19596699 -0.19502194
0.0478913 -0.14012578 0.06404945 -0.1916255 -0.20682134 -0.15310915 -0.23308413 0.1726991
-0.2178076 0.20761938 0.22155185 0.014604409 -0.11349246 0.08031577 0.22629298 -0.036949884
0.052736938 0.007557341 -0.08148968 -0.10297867 0.19732063 -0.19270721 0.16620697 0.09221853
0.16575696 -0.12547868 -0.15047877 0.11648286 0.18720868 0.060880803 0.14316529 -0.17266962
-0.07905335 0.11959348 0.091749884 0.23261404 -0.1841912 0.027748503 0.13760862 0.10623606
-0.037681162 -0.053964794 0.107429646 0.018588936 0.1549804 0.15598474 0.17979385 0.15323101
0.23785521 0.1530144 -0.14320166 0.12874606 -0.22902758 -0.079473086 0.06269077 -0.026100382
0.17988074 -0.2201561 -0.15147825 -0.19340135 -0.14124186 -0.121276714 -0.088593446 -0.042030215
0.18906851 -0.11336628 -0.17734411 0.13327983 0.01834344 0.20243022 -0.22963978 0.15518604
-0.15407443 -0.064518 -0.1597503 0.012042524 -0.055919457 -0.02566439 -0.15425771 -0.07986248
0.017375048 -0.13004033 -0.15175408 -0.034691904 -0.17159829 0.01789516 0.17854752 -0.06976031
-0.16382036 0.025105504 -0.18015967 -0.09065147 0.06200137 -0.19513667 0.061258763 -0.09102285
-0.20319659 0.15963897 -0.07141685 0.17813984 0.2043823 0.23566583 -0.017311532 -0.16481966
0.16799362 0.21159595 -0.15901119 0.08021713 0.08747773 -0.15283166 -0.18277259 0.19907151
0.100285284 0.21897204 -0.16498506 0.068210505 -0.17936441 0.109828465 -0.09876495 0.036766782
0.10172958 0.16403231 0.1702124 0.10132469 -0.0130163785 -0.07959562 0.15136653 0.099213146
-0.21416907 -0.13009673 -0.15944694 -0.14912724 0.17932448 0.19779596 0.07272407 -0.028047832
-0.0122912815 -0.14734209 -0.15537679 0.22852963 0.20213667 0.06312082 0.080939084 0.14168261
-0.23689517 -0.2116645 -0.14795601 -0.07559404 -0.07450029 0.20871554 0.017168483 -0.23230112
-0.0247217 0.06574064 0.06505891 -0.18479915 -0.053733822 0.09056972 -0.04296623 -0.15831977
-0.0799571 0.11808847 0.08926885 0.024704566 0.2073223 -0.21824782 -0.14561354 0.21759367
00000000: 05ae a7bc e42b eb3c 0ae6 fbbc d1fe 6c3e
00000010: bff2 c33c 2339 493d e67e fb3d 4c4e 743d
00000020: 03d4 dfbd 5cab 5b3e 92ff d83c ad9c 273e
00000030: ae73 ca3c 660d 033e f168 21be 21f5 26be
00000040: 83d8 13be 02b9 33be 182c 05be 5a30 123e
00000050: a8f0 6c3e fca9 1abe a410 86bd 7270 6bbe
00000060: 611a 533e 0447 92bd eadb b43d ca7d a5bd
00000070: ee61 94ba 89f0 36bc dd04 0a3d ce78 56be
00000080: 027a 163e 0073 bdbd c8ec 9abd f226 a53d
00000090: 4347 70be 19b5 223d 56eb 773e 2f74 023c
000000a0: baaa 233d 9008 543c a76d 453e 133d 053e
000000b0: 86e4 bc3d 0676 133e 702c 11be 564a 673e
000000c0: 9f5f 21be 712c e93d ef1c 443e d6e3 30be
000000d0: 5b1f 49be ce58 063e bffa cabd 325b 0e3e
000000e0: abdd 4ebe bd08 f83d 8dc4 333e 3996 24be
000000f0: ee93 053e 9aaf 72be 78b0 00bd 4c3d 633e
00000100: b294 babd dedb bfbd 81ac 6fbe b068 603e
00000110: d8eb 10be a4fd 94bd 37d3 de3c 7fb0 4dbe
00000120: 4659 0b3e d206 f5bd d95f 383e b7c2 0ebc
00000130: 0f81 113e 161c 0a3e a74d 5b3e dfd8 4cbe
00000140: 0723 533e 67dc 973d b9ed fd3d b378 07bc
00000150: a42e 6a3e 3219 36be 92ab 48be d5b3 47be
00000160: ab29 443d 227d 0fbe 5c2c 833d 7a39 44be
00000170: f9c8 53be a5c8 1cbe 9bad 6ebe 08d8 303e
00000180: f508 5fbe 2d9a 543e 7dde 623e 5547 6f3c
00000190: bc6e e8bd 987c a43d 59b9 673e c358 17bd
000001a0: b002 583d 92a3 f73b 10e4 a6bd 7be6 d2bd
000001b0: 6b0e 4a3e 0a55 45be 2932 2a3e 12dd bc3d
000001c0: 31bc 293e 7c7d 00be 1b17 1abe 918e ee3d
000001d0: a2b3 3f3e 265e 793d ec99 123e 4ed0 30be
000001e0: b9e6 a1bd 6ded f43d 5de7 bb3d 6032 6e3e
000001f0: 9e9c 3cbe d450 e33c 46e9 0c3e 4b92 d93d
00000200: 9057 1abd 300a 5dbd 1304 dc3d d347 983c
00000210: 2fb3 1e3e 77ba 1f3e e11b 383e 97e8 1c3e
00000220: 5190 733e cfaf 1c3e 75a3 12be 02d6 033e
00000230: 3586 6abe c9c2 a2bd 0564 803d 78d0 d5bc
00000240: a832 383e 9a70 61be 1d1d 1bbe 010b 46be
00000250: b5a1 10be ed5f f8bd 7b70 b5bd e027 2cbd
00000260: 2d9b 413e 952c e8bd b299 35be 827a 083e
00000270: fb44 963c de49 4f3e b126 6bbe 17e9 1e3e
00000280: b0c5 1dbe 0322 84bd 9595 23be 024e 453c
00000290: cd0b 65bd 203e d2bc bcf5 1dbe f18e a3bd
000002a0: 1e56 8e3c 4b29 05be 6c65 1bbe 1919 0ebd
000002b0: 76b7 2fbe df98 923c 29d5 363e 7ede 8ebd
000002c0: 86c0 27be 0faa cd3c c77b 38be 7aa7 b9bd
000002d0: 26f5 7d3d e8d1 47be 78ea 7a3d 306a babd
000002e0: c412 50be 6678 233e ff42 92bd 4a6a 363e
000002f0: 9849 513e 6252 713e ead0 8dbc 7cc6 28be
00000300: 8506 2c3e 9cac 583e d4d3 22be e148 a43d
00000310: 8627 b33d e77f 1cbe bd28 3bbe 67d9 4b3e
00000320: 5f62 cd3d 353a 603e d8f1 28be f3b1 8b3d
00000330: 4eab 37be bfed e03d 4745 cabd c498 163d
00000340: 9957 d03d 16f8 273e 294c 2e3e 5283 cf3d
00000350: a642 55bc 0703 a3bd d4ff 1a3e 4330 cb3d
00000360: 234f 5bbe 1438 05be 0f46 23be d0b4 18be
00000370: d6a0 373e 068b 4a3e 5bf0 943d 91c4 e5bc
00000380: 5f61 49bc d8e0 16be 181b 1fbe ac03 6a3e
00000390: eafc 4e3e 7d45 813d 64c3 a53d 3f15 113e
000003a0: a694 72be 94be 58be c881 17be 0cd1 9abd
000003b0: 9c93 98bd 87b9 553e eba4 8c3c 58e0 6dbe
000003c0: 2a85 cabc 07a3 863d 9b3d 853d fd3b 3dbe
000003d0: ff17 5cbd 9e7c b93d 5cfd 2fbd 941e 22be
000003e0: 8cc0 a3bd 5ed8 f13d 96d2 b63d 3b61 ca3c
000003f0: 4c4c 543e 5b7c 5fbe b71b 15be e0d0 5e3e

fc1.bias f4 [64]
0.02411259 -0.0424175 0.029934382 -0.001805551 0.1596415 0.12623839 -0.19996408 -0.004307674
-0.046378773 -0.16637386 0.019474361 -0.053284552 0.06833666 -0.045084067 -0.23100322 -0.041094143
-0.18661411 0.061112143 -0.14054416 -0.106895 -0.029628847 -0.025651632 -0.027179837 -0.061190374
0.08701879 -0.0065174713 0.03995359 -0.08358508 -0.15471368 0.11247519 -0.111070015 -0.20813887
-0.1667881 0.123334534 -0.14127284 0.21715558 -0.042816848 -0.08191288 -0.07313356 0.2024794
-0.04022816 -0.14788298 0.23386724 0.17912002 -0.22431722 -0.13897334 0.0540093 0.18012969
0.14245152 -0.11377999 0.01794515 -0.010014538 0.15510708 0.010712129 0.055206064 0.1857476
0.056860305 0.08763887 -0.19860958 0.06780445 0.10146695 -0.16835125 0.120532736 -0.13254222
00000000: c487 c53c f9bd 2dbd f338 f53c 3da8 ecba
00000010: 1079 233e a344 013e 62c3 4cbe 6327 8dbb
00000020: abf7 3dbd e95d 2abe b288 9f3c e740 5abd
00000030: 17f4 8b3d 12aa 38bd 1c8c 6cbe 5552 28bd
00000040: c517 3fbe ba50 7a3d cfea 0fbe c4eb dabd
00000050: 32b8 f2bc 5f23 d2bc 40a8 debc c2a2 7abd
00000060: e836 b23d 8390 d5bb 60a6 233d a82e abbd
00000070: 436d 1ebe 6459 e63d ad78 e3bd 5b22 55be
00000080: 80ca 2abe d196 fc3d d4a9 10be 085e 5e3e
00000090: b860 2fbd f1c1 a7bd 0cc7 95bd c356 4f3e
000000a0: 48c6 24bd a36e 17be e57a 6f3e 3d6b 373e
000000b0: 6ab3 65be 074f 0ebe db38 5d3d eb73 383e
000000c0: d0de 113e 7c05 e9bd b501 933c 0414 24bc
000000d0: 64d4 1e3e ed81 2f3c c11f 623d 9e34 3e3e
000000e0: 5ae6 683d 027c b33d 4f60 4bbe 0fdd 8a3d
000000f0: e7cd cf3d 4564 2cbe ded9 f63d 26b9 07be

fc2.weight f4 [32, 64]
-0.058134515 -0.09920035 -0.07721305 0.025527671 -0.102463834 -0.06466563 -0.045947585 0.02511621
-0.11207478 -0.050382547 -0.023670912 -0.03259241 -0.10789089 0.09354399 0.0898038 -0.09261267
-0.10374459 -0.010575596 -0.06833343 0.047816098 -0.11153194 0.01745443 0.0837718 0.033329647
-0.11243943 0.09741383 0.091984585 0.064343065 0.12496461 0.083738275 -0.11807356 -0.043404702
-0.1078208 0.04546465 0.12147774 0.12990622 0.004823208 0.07603586 -0.043911263 0.06409943
0.033505335 -0.022082144 -0.06631805 -0.08421935 -0.028689638 0.017950907 0.123269394 -0.040006205
0.045804165 0.066591784 -0.12322147 -0.098074436 0.120555356 0.1175714 -0.07361292 -0.10978493
0.069991395 -0.06099815 0.009274073 -0.051472943 -0.06279337 -0.104462825 -0.0988922 0.0069656246
0.08689411 0.081691965 -0.059580177 -0.0070171733 0.09622322 -0.09287438 -0.0025203128 0.093611784
0.057239328 0.0678104 0.12019566 0.0030873953 0.06942573 0.049869575 0.01048116 -0.09065479
-0.056283418 -0.0046741962 0.06624131 -0.064742416 -0.01269324 0.017402887 -0.0862387 0.07569237
0.115760155 0.08085415 0.11031899 -0.092714295 -0.055232886 -0.040043745 -0.06725832 0.034010254
-0.029996347 0.0018535554 0.08513898 0.10930421 -0.11246551 0.0819926 0.07435243 -0.117693245
-0.010677577 -0.08984627 -0.012563041 -0.0411337 -0.111728646 0.029128745 0.043713532 -0.019346133
-0.038641542 -0.08294834 -0.10345824 -0.079497054 0.102076404 0.043327216 0.08118868 -0.037902072
0.024217427 0.024392217 -0.06762787 -0.025585786 -0.1115014 -0.06751015 -0.07969323 -0.054631993
0.104534 -0.11776607 -0.08483009 0.03266868 -0.069833755 0.03157644 -0.03711599 -0.093260676
-0.04529421 0.112623066 0.11068216 -0.027951658 0.10835314 -0.02908647 -0.039348606 -0.071075186
-0.05221398 0.038843513 -0.07995655 -0.08295373 -0.040150747 0.0884354 0.10009539 -0.11416449
0.10751568 -0.062483296 0.078566134 -0.08449021 0.067602426 -0.018874556 -0.11711924 0.035177976
0.041553512 0.060919546 -0.1110221 -0.10227567 -0.043300703 -0.0008222163 0.114206135 -0.017917827
0.038848042 -0.014296189 -0.03856145 -0.05948721 0.05588296 -0.010860026 0.1123815 -0.033786833
-0.10030712 -0.024010545 -0.11900191 0.037747473 0.07135782 0.012053937 -0.0714961 -0.11597473
0.054166272 0.05245799 -0.09001838 0.06415005 -0.10654391 0.058165435 0.07917023 0.008174434
0.04400158 -0.0033881813 0.065810576 -0.03082785 -0.08624019 0.052249238 -0.071370095 -0.049619615
-0.0018838197 -0.053610712 0.0045164526 0.014441073 -0.10829201 -0.039676636 0.076761544 0.109583944
0.09055361 0.092440695 -0.018138424 0.09174235 -0.09947443 -0.0282695 0.0024499747 -0.09912978
-0.11371064 0.028346973 0.11579904 -0.08647488 0.06439069 0.0750251 0.019836353 0.09138779
-0.06391278 0.07613726 0.00078333914 0.10891284 -0.04961961 -0.032085434 0.103500694 0.034923583
-0.059994556 -0.088168696 -0.11978555 0.08733709 -0.09957576 0.0060761273 -0.10982144 0.10524072
-0.083864436 -0.04677935 0.058168888 0.057415172 0.0481762 0.11747873 -0.012620553 0.083436266
0.013550151 -0.0145716965 0.0920839 -0.07378887 -0.08179125 0.104350775 0.115379885 0.0078020096
00000000: 751e 6ebd 8e29 cbbd e021 9ebd 681f d13c
00000010: 8fd8 d1bd 6a6f 84bd 8933 3cbd 83c0 cd3c
00000020: 7687 e5bd ee5d 4ebd 80e9 c1bc 9e7f 05bd
00000030: e6f5 dcbd fe93 bf3d 0eeb b73d b6ab bdbd
00000040: 0b78 d4bd 4445 2dbc 66f2 8bbd d0da 433d
00000050: dc6a e4bd 98fc 8e3c 8d90 ab3d ab84 083d
00000060: a546 e6bd e780 c73d 6a62 bc3d 4cc6 833d
00000070: 72ed ff3d f97e ab3d 8dd0 f1bd 21c9 31bd
00000080: 27d1 dcbd 2439 3a3d 52c9 f83d 2306 053e
00000090: 000c 9e3b b0b8 9b3d 4cdc 33bd 9046 833d
000000a0: e43c 093d 9de5 b4bc c2d1 87bd 327b acbd
000000b0: 8806 ebbc c80d 933c aa74 fc3d 8cdd 23bd
000000c0: 269d 3b3d 4661 883d 8a5b fcbd 40db c8bd
000000d0: bae5 f63d 46c9 f03d 5fc2 96bd ecd6 e0bd
000000e0: a657 8f3d 32d9 79bd 48f2 173c 4bd5 52bd
000000f0: cf99 80bd 9bf0 d5bd fe87 cabd e53f e43b
00000100: 8af5 b13d 1e4e a73d 580a 74bd 51f0 e5bb
00000110: ae10 c53d ec34 bebd d52b 25bb 89b7 bf3d
00000120: c973 6a3d 2ee0 8a3d 2429 f63d e655 4a3b
00000130: 142f 8e3d 0a44 4c3d 2cb9 2b3c 38a9 b9bd
00000140: 7189 66bd 002a 99bb 86a9 873d ac97 84bd
00000150: 4ff7 4fbc 8090 8e3c ea9d b0bd 9a04 9b3d
00000160: a913 ed3d dc96 a53d ecee e13d fee0 bdbd
00000170: e13b 62bd e904 24bd bbbe 89bd 564e 0b3d
00000180: e6ba f5bc 00f3 f23a 585d ae3d e3da df3d
00000190: 5154 e6bd bceb a73d 1646 983d 2809 f1bd
000001a0: 01f1 2ebc 5201 b8bd 37d5 4dbc d07b 28bd
000001b0: fdd1 e4bd 689f ee3c f60c 333d c87b 9ebc
000001c0: 9846 1ebd d2e0 a9bd eae1 d3bd 5acf a2bd
000001d0: 6f0d d13d e177 313d 4046 a63d 343f 1bbd
000001e0: a063 c63c 30d2 c73c 7b80 8abd 4899 d1bc
000001f0: d95a e4bd c342 8abd 3436 a3bd ccc5 5fbd
00000200: ec15 d63d 562f f1bd 66bb adbd 98cf 053d
00000210: 0005 8fbd 4c56 013d f006 18bd 74ff bebd
00000220: 6c86 39bd eca6 e63d 54ad e23d e0fa e4bc
00000230: 40e8 dd3d c046 eebc 012c 21bd de8f 91bd
00000240: 54de 55bd 601a 1f3d 42c0 a3bd a5e3 a9bd
00000250: 1c75 24bd 9e1d b53d d0fe cc3d 12cf e9bd
00000260: 2e31 dc3d 7cee 7fbd 48e7 a03d 3409 adbd
00000270: 2473 8a3d d09e 9abc 36dc efbd c816 103d
00000280: 0434 2a3d c686 793d 8e5f e3bd e875 d1bd
00000290: 145c 31bd 008a 57ba e8e4 e93d 68c8 92bc
000002a0: 201f 1f3d 903a 6abc 9cf2 1dbd dca8 73bd
000002b0: 88e5 643d 40ee 31bc 4628 e63d 1064 0abd
000002c0: d26d cdbd c3b1 c4bc 46b7 f3bd 189d 1a3d
000002d0: 0c24 923d e07d 453c 8c6c 92bd 2984 edbd
000002e0: 74dd 5d3d 30de 563d 8e5b b8bd 1a61 833d
000002f0: b233 dabd e13e 6e3d 0024 a23d 10ee 053c
00000300: 003b 343d 400c 5ebb b2c7 863d b08a fcbc
00000310: b29e b0bd 4c03 563d 7c2a 92bd f03d 4bbd
00000320: 80ea f6ba e896 5bbd c0fe 933b 409a 6c3c
00000330: 34c8 ddbd f883 22bd 2835 9d3d 8c6d e03d
00000340: 2c74 b93d 8c51 bd3d 0897 94bc 6ae3 bb3d
00000350: 40b9 cbbd 7095 e7bc c18f 203b 8e04 cbbd
00000360: 20e1 e8bd e937 e83c 0c28 ed3d be19 b1bd
00000370: 44df 833d c2a6 993d d97f a23c 8629 bb3d
00000380: b4e4 82bd daed 9b3d 0059 4d3a b20d df3d
00000390: ef3d 4bbd 046c 03bd 2cf8 d33d 080c 0f3d
000003a0: dabc 75bd ca91 b4bd 2052 f5bd cadd b23d
000003b0: 60ee cbbd 401a c73b 10ea e0bd 7288 d73d
000003c0: 1ec1 abbd b49b 3fbd 8042 6e3d 2c2c 6b3d
000003d0: 6854 453d b098 f03d 70c6 4ebc a2e0 aa3d
000003e0: 7401 5e3c 20be 6ebc 7c96 bc3d 9e1e 97bd
000003f0: 2c82 a7bd dcb5 d53d 4a4c ec3d 00a8 ff3b

fc2.bias f4 [32]
0.0053386022 -0.09268792 -0.042584226 0.06423105 -0.04486774 0.050433956 0.0773263 0.09124697
-0.04939572 -0.10143044 -0.11328731 0.0021210462 -0.02955775 -0.07481917 0.11251766 -0.1162941
0.029793024 0.0063921623 0.021444188 -0.007172197 0.12249251 -0.09760605 -0.021427318 0.04629069
-0.079775214 0.062736884 0.10514158 -0.11826952 -0.0012944639 0.066279314 -0.023723138 0.1002905
00000000: 71ef ae3b 2ad3 bdbd cc6c 2ebd 928b 833d
00000010: 3cc7 37bd d693 4e3d 405d 9e3d b1df ba3d
00000020: 2b53 4abd c3ba cfbd 2d03 e8bd 4001 0b3b
00000030: 1823 f2bc cb3a 99bd a96f e63d 9a2b eebd
00000040: 8010 f43c 5875 d13b b9ab af3c c004 ebbb
00000050: 5add fa3d aee5 c7bd 5888 afbc 4e9b 3d3d
00000060: 3061 a3bd 327c 803d 7854 d73d 4a37 f2bd
00000070: 00ab a9ba 73bd 873d 0757 c2bc 1b65 cd3d

pi.weight f4 [1, 32]
0.12966184 -0.13009396 0.10075482 0.15174909 -0.120313674 -0.095271036 0.039831776 -0.11951674
-0.08699626 -0.057995185 -0.021497358 -0.104724504 0.110606395 0.09134905 0.11299152 -0.0858597
0.16359417 0.11971493 0.023942372 -0.16815566 0.052456513 0.1668656 0.13249774 0.038346127
0.017792186 -0.15811415 0.062399976 -0.10431009 0.13198791 0.1396635 -0.07621286 0.050412726
00000000: 13c6 043e 5a37 05be 8b58 ce3d 1d64 1b3e
00000010: 0467 f6bd 761d c3bd a526 233d 31c5 f4bd
00000020: 182b b2bd 5c8c 6dbd 3a1b b0bc cd79 d6bd
00000030: 9b85 e23d 3615 bb3d 1968 e73d 36d7 afbd
00000040: 3b85 273e 1a2d f53d cb22 c43c ff30 2cbe
00000050: a4dc 563d d1de 2a3e 7dad 073e d410 1d3d
00000060: ebc0 913c ade8 21be 1e97 7f3d 87a0 d5bd
00000070: d727 073e f303 0f3e 7d15 9cbd 937d 4e3d
