model/maddpg/agent_2_actor.pth (torch, 12676 bytes, 5 tensors)

fc1.weight f4 [64, 5]
0	0x3e923503	0.2855607
1	0xbe682614	-0.22670776
2	0x3ec97099	0.39343718
3	0xbe93a918	-0.28839946
4	0x3ec175a0	0.37785053
5	0xbd5acf67	-0.05342045
6	0xbe00f354	-0.12592822
7	0x3eb61aae	0.3556723
8	0x3e6eac51	0.23307921
9	0xbe70ca1f	-0.23514603
10	0xbe9e9b73	-0.30977973
11	0xbea8be6d	-0.32957783
12	0xbe96a737	-0.2942445
13	0xb96c2a71	-0.00022522525
14	0xbe476637	-0.19472586
15	0x3eff051e	0.49808592
16	0x3ea3f283	0.3202096
17	0xbe35ff85	-0.17773254
18	0x3dc7b46b	0.09751209
19	0xbcc263b1	-0.023729177
20	0xbe581346	-0.21101102
21	0x3e9f0363	0.3105727
22	0xbeafcd96	-0.34336537
23	0x3f300419	0.6875625
24	0xbd2b6d10	-0.041852057
25	0xbe62983d	-0.22128387
26	0xbe22bc46	-0.15892133
27	0x3e94c25e	0.2905454
28	0xbe0ab975	-0.13547309
29	0xbe8f79ea	-0.280227
30	0x3eeac97f	0.45856854
31	0x3e6a1631	0.22860028
32	0xbea23bd7	-0.3168628
33	0x3d60fd9c	0.05492936
34	0xbe1c4f9e	-0.15264747
35	0x3cd8a60a	0.026446361
36	0x3d3e3e94	0.046446398
37	0xbe7953f5	-0.24348433
38	0x3c7e1d7e	0.015509961
39	0xbd592fd1	-0.053024117
40	0xbea46f18	-0.32116008
41	0xbe93e379	-0.28884485
42	0x3dbe67e5	0.0929716
43	0xbe3a2524	-0.1817823
44	0xbdbfc1be	-0.09363125
45	0x3dfd6bda	0.12374087
46	0xbe41126c	-0.18854684
47	0x3eb32d59	0.34995535
48	0xbe888152	-0.26661164
49	0x3db3fe6e	0.08788763
50	0xbe1a6aec	-0.1507985
51	0x3e9702dd	0.29494372
52	0x3db2f353	0.08737817
53	0x3df38dc7	0.11892276
54	0xbd15f32e	-0.036608867
55	0xbe801bc5	-0.25021186
56	0x3eebd368	0.46059728
57	0xbe93c722	-0.28862864
58	0xbdae9a8a	-0.0852557
59	0x3efe3541	0.49650005
60	0xbe95f0a0	-0.29285145
61	0x3e9e9294	0.30971205
62	0xbe07da1e	-0.13266799
63	0xbdf44670	-0.119274974
64	0xbec162fd	-0.37770835
65	0x3f022f88	0.50853777
66	0x3d46662a	0.048437275
67	0xbd2bc492	-0.04193551
68	0x3f00be79	0.5029064
69	0x3e3c5f7b	0.18395798
70	0x3e05ab35	0.13053592
71	0xbeb0c72a	-0.3452695
72	0x3d23ae6e	0.03996127
73	0x3e83e495	0.25760332
74	0x3db4b509	0.08823592
75	0xbe90fce9	-0.28317955
76	0xbc06e1b5	-0.008232524
77	0xbdf43d49	-0.11925752
78	0xbd816778	-0.06318563
79	0xbd9959a5	-0.074878015
80	0x3d147196	0.036241136
81	0xbeab507c	-0.33459842
82	0x3ee57c1e	0.44821256
83	0x3bbd52c2	0.0057776878
84	0xbe1c982e	-0.15292427
85	0xbe8b280b	-0.27178988
86	0x3e6127fb	0.21987908
87	0xbf2a0f78	-0.66429853
88	0xbdabbb38	-0.083853185
89	0x3d497b49	0.04918984
90	0xbe8f0c94	-0.27939284
91	0x3dde18de	0.10844587
92	0xbeac6788	-0.33672738
93	0xbcdc8165	-0.026917169
94	0xbe44deb7	-0.19225584
95	0x3ef879c6	0.48530406
96	0xbed41fd9	-0.41430548
97	0x3d8d2246	0.06891303
98	0x3e8ccc3f	0.27499577
99	0xbd0faf01	-0.035079006
100	0x3e04b892	0.12961033
101	0x3e01ebe1	0.12687637
102	0xbe0d84ce	-0.13820192
103	0xbef70d86	-0.48252505
104	0x3d983fff	0.07434081
105	0xbf00773e	-0.5018195
106	0xbee46e9e	-0.44615644
107	0x3ecf269b	0.4045914
108	0x3e6ad5dd	0.22933145
109	0x3e291bc6	0.16514501
110	0x3e10635d	0.14100404
111	0x3e0e9a04	0.1392594
112	0x3ec2235b	0.379176
113	0x3d90eb0d	0.070760824
114	0x3db92482	0.090401664
115	0x3e8f025d	0.2793149
116	0xbeeee493	-0.46658763
117	0xbeadd36d	-0.33950368
118	0x3e47c771	0.19509675
119	0xbdc7aea0	-0.09750104
120	0xbe92869a	-0.28618318
121	0xbe4929ab	-0.19644801
122	0x3ee86fe4	0.45397866
123	0x3e5bed61	0.21477272
124	0xbd8a77c9	-0.067611285
125	0xbe28bb43	-0.16477685
126	0x3e9f93cb	0.31167445
127	0xbeb2de54	-0.34935248
128	0x3d4d7137	0.0501568
129	0xbd8bcbe3	-0.06825998
130	0xbf21ea38	-0.63248014
131	0x3ed33a21	0.41255286
132	0xbe6a0507	-0.2285348
133	0x3e90eb86	0.2830469
134	0xbe00e9b9	-0.12589158
135	0x3eefc8ad	0.4683279
136	0xbd7ad38a	-0.061236896
137	0x3e96e410	0.29470873
138	0xbea0e4de	-0.31424612
139	0xbdbaf588	-0.091288626
140	0x3e849dba	0.25901586
141	0x3ec29ccc	0.38010252
142	0x3e1d2608	0.15346539
143	0xbeb1d16e	-0.34730095
144	0x3e58b883	0.21164136
145	0xbefdaf1f	-0.4954767
146	0x3f1ab58e	0.6043328
147	0xbf15c837	-0.5850863
148	0x3e16e280	0.1473484
149	0x3a25d92e	0.0006326613
150	0xbeacbb29	-0.33736542
151	0x3f1697e1	0.588255
152	0xbe8572df	-0.26064202
153	0x3e725b73	0.23667698
154	0x3eaca46f	0.33719203
155	0xbe80cc76	-0.2515599
156	0x3ec2330e	0.37929577
157	0xbdb9ff0b	-0.09081849
158	0x3dc27e76	0.09496777
159	0xbeb8ad84	-0.36069882
160	0x3e84c132	0.25928646
161	0xbe425525	-0.18977793
162	0x3e0337d8	0.12814271
163	0xbcf364cf	-0.029711155
164	0xbebf5eb7	-0.3737695
165	0x3df06276	0.1173753
166	0xbe9b3ebe	-0.30321306
167	0x3e476843	0.19473366
168	0xbe86a607	-0.26298544
169	0xbec585c8	-0.3857863
170	0x3e69a01b	0.22814982
171	0x3ea5a0b3	0.32349166
172	0xbe013c92	-0.12620762
173	0x3e370726	0.1787382
174	0x3f21e6bc	0.632427
175	0x3d84971c	0.06474134
176	0xbd86c985	-0.065814056
177	0xbe8aae5a	-0.27086145
178	0xbe5a08e2	-0.21292451
179	0xbbb17266	-0.0054152487
180	0x3e7e6ee6	0.24846992
181	0x3dd21d6b	0.10259517
182	0xbc0a07ab	-0.00842468
183	0x3ea0f21b	0.31434712
184	0x3dc30496	0.09522359
185	0x3eda12bb	0.42592415
186	0xbdf472a6	-0.1193593
187	0xbe637e0c	-0.22216052
188	0xbe56e355	-0.20985158
189	0xbe7c387a	-0.24630919
190	0xbef39c4c	-0.47580183
191	0x3e1c7e1d	0.15282483
192	0x3efc8ac0	0.49324608
193	0xbe6a4271	-0.22876908
194	0x3ebf7357	0.37392685
195	0xbd5992ab	-0.05311839
196	0x3e6d84cd	0.2319519
197	0x3e801f00	0.2502365
198	0x3e788584	0.24269682
199	0x3e7bc745	0.24587734
200	0x3ec3a2f0	0.3821025
201	0xbd854768	-0.0650776
202	0xbcb1b850	-0.021694332
203	0xbe736567	-0.2376915
204	0x3d737b60	0.05944383
205	0x3f02611e	0.5092944
206	0x3e43c3b1	0.19117619
207	0xbe0a7162	-0.13519815
208	0x3e609f04	0.2193566
209	0x3e513b6b	0.20432822
210	0x3e507215	0.20356019
211	0xbee4e94e	-0.44709247
212	0xbda679d5	-0.08128706
213	0x3e59cc0d	0.21269245
214	0x3eb4a618	0.3528297
215	0xbe4fc55f	-0.20290135
216	0x3df5cf15	0.120023884
217	0xbebf3a15	-0.37349
218	0x3ec524c4	0.38504612
219	0xbbe1dfaf	-0.0068931202
220	0x3eeab58c	0.45841634
221	0xbe012d9d	-0.12615056
222	0x3d6118ec	0.054955408
223	0xbdc75f20	-0.097349405
224	0x3e7abdda	0.24486485
225	0x3e0c22b1	0.13685109
226	0xbde529a1	-0.11189581
227	0x3ecebf0c	0.40380132
228	0x3e050317	0.1298946
229	0xbed5df89	-0.41772106
230	0x3c90ac8a	0.017660398
231	0x3d6d65e3	0.057958495
232	0xbf0be4fc	-0.5464628
233	0xbe596b02	-0.21232226
234	0xbd377eb0	-0.044798553
235	0x3f1236e4	0.57115006
236	0x3e4a173a	0.19735423
237	0x3d88dacc	0.06682357
238	0xbe06e4e6	-0.13173255
239	0xbd8a1a67	-0.06743317
240	0xbc884993	-0.016636645
241	0xbe4f9e62	-0.20275262
242	0x3e92e843	0.28692827
243	0xbeb4be80	-0.3530159
244	0xbdb0c469	-0.08631212
245	0x3e080ad2	0.13285378
246	0x3e1b8539	0.15187539
247	0xbe1d40bc	-0.15356725
248	0xbcef927d	-0.029244656
249	0x3efd20ec	0.4943918
250	0xbe2593d9	-0.1616968
251	0x3eb2ab56	0.34896344
252	0xbedca8f8	-0.43097663
253	0xbda26422	-0.07929255
254	0xbd9a8dc0	-0.07546568
255	0xbf0ae9ff	-0.542633

fc1.bias f4 [64]
0	0x3e4db5ac	0.20088834
1	0xbeb7ae4e	-0.3587517
2	0xbe720938	-0.23636329
3	0xbc52e30a	-0.012871513
4	0x3e895fd5	0.26830927
5	0xbb3af0c7	-0.0028524862
6	0x3e8a761c	0.27043235
7	0x3ea3de87	0.32005712
8	0xbed39151	-0.41321805
9	0x3e858836	0.26080483
10	0xbc9c62e7	-0.019090129
11	0xbd9b4327	-0.07581168
12	0xbebdf184	-0.37098324
13	0x3f116e07	0.56808513
14	0x3e92b235	0.28651586
15	0x3e2c37f4	0.1681822
16	0xbe72212f	-0.23645471
17	0x3e561cb8	0.20909393
18	0xbeaa341d	-0.33242884
19	0x3e71658c	0.23573893
20	0x3e49bc29	0.19700684
21	0xbd9e2ca1	-0.07723356
22	0x3e784797	0.2424606
23	0xbe886ce3	-0.26645574
24	0x3ea4cb37	0.3218629
25	0x3e9acb7d	0.30233374
26	0x3f22b5f2	0.63558877
27	0xbe9a78a2	-0.3017016
28	0x3ca0f334	0.019647218
29	0x3ea879ca	0.32905418
30	0x3d64d145	0.055863637
31	0xbdc30a1c	-0.095234126
32	0x3ed66ab0	0.4187827
33	0x3dbcf056	0.09225528
34	0xbe8281b3	-0.25489578
35	0xbe404a9f	-0.18778466
36	0xbeabe597	-0.335736
37	0x3e972cff	0.29526517
38	0x3e97e8d0	0.2966981
39	0x3d8cefbe	0.06881665
40	0x3e4c94f8	0.19978702
41	0xbe728707	-0.23684321
42	0xbec7a556	-0.3899333
43	0xbeb980a4	-0.36230958
44	0xbbecca6f	-0.0072262804
45	0x3e551f12	0.20812634
46	0xbc6dcdc3	-0.014514389
47	0x3df40ae4	0.1191614
48	0x3eb5ab93	0.35482463
49	0xbccf523c	-0.025307767
50	0x3f09a221	0.53763014
51	0xbe5a10e0	-0.212955
52	0x3ebeda5f	0.3727598
53	0x3a08ffd7	0.00052261114
54	0x3cd3ef1a	0.025870848
55	0x3f15088d	0.5821617
56	0x3e79e983	0.24405484
57	0xbeb7efaa	-0.35925037
58	0x3e382272	0.1798189
59	0x3eeda39d	0.4641389
60	0xbe8873e1	-0.2665091
61	0xbe6e89b6	-0.2329472
62	0x3e5b4e09	0.21416487
63	0xbd5302cb	-0.051516335

fc2.weight f4 [32, 64]
0	0xbc209c80	-0.0098029375
1	0xbe01f0f8	-0.12689579
2	0x3db27224	0.08713177
3	0x3d6183d9	0.05505738
4	0xbdd891f5	-0.10574714
5	0xbde163f4	-0.11005393
6	0xbd428d6c	-0.04749815
7	0xbdee0909	-0.11622817
8	0xbd6eeb15	-0.05832966
9	0x3bf686c0	0.0075233877
10	0x3da32217	0.079654865
11	0xbdeb5246	-0.11490302
12	0x3dc40a80	0.09572315
13	0x3d4f9360	0.050677657
14	0xbdc8e7ce	-0.09809838
15	0x3d53df30	0.05172652
16	0x3d5884f4	0.05286117
17	0x3cfa415b	0.030548742
18	0x3da34dcc	0.07973823
19	0xbdad7e59	-0.084713645
20	0x3d71251d	0.058873285
21	0xbcd9b4b0	-0.026575416
22	0x3c317ff0	0.010833725
23	0xb9f5e9b1	-0.00046904155
24	0xbd03eb54	-0.03220685
25	0xbcf4f46a	-0.029901702
26	0xbdddd4fc	-0.10831639
27	0x3d6c22a7	0.057650235
28	0x3df46b08	0.11934477
29	0xbe101a21	-0.14072467
30	0xbe039ae5	-0.12852056
31	0xbd23e777	-0.040015664
32	0xbdfbc500	-0.12293434
33	0xbd76c6d0	-0.060248196
34	0xbdd3d3b4	-0.103431135
35	0xbd97ca1d	-0.07411597
36	0x3ccb3100	0.024803638
37	0x3d2017fe	0.03908538
38	0xbddb2108	-0.106996596
39	0x3da4c2b7	0.080449514
40	0xbdcb41b9	-0.09924645
41	0xbd946125	-0.07245091
42	0x3daeb814	0.08531204
43	0x3c3ea6f8	0.011636488
44	0xbdcaed26	-0.09908514
45	0xbe075852	-0.13217285
46	0x3d709737	0.05873796
47	0x3dde547f	0.1085596
48	0x3de75996	0.11296384
49	0x3d87a7ac	0.06623778
50	0x3d89b348	0.06723648
51	0xbe0317b6	-0.12802014
52	0x3c5a4703	0.013322595
53	0x3dd7dd54	0.10540262
54	0x3d9b4436	0.075813696
55	0x3c81601f	0.015792904
56	0xbe0d4ebf	-0.1379957
57	0xbb889460	-0.0041680783
58	0x3c0ea462	0.008706184
59	0x3d52075f	0.05127656
60	0xbd6da47c	-0.058018193
61	0xbe05ece6	-0.13078651
62	0x3cc85388	0.024453893
63	0x3c113d68	0.008864738
64	0xbe5e8f41	-0.21734335
65	0x3c6278d4	0.013822753
66	0xbc75d4cc	-0.015004348
67	0xbdbd1e01	-0.092342384
68	0x3e93589b	0.28778538
69	0x3d820df8	0.063503206
70	0xbb0b324b	-0.0021239694
71	0x3d8afc7f	0.06786441
72	0x3e37beab	0.17943828
73	0xbdf8a700	-0.12141228
74	0x3d6702c3	0.05639912
75	0x3ecc3dbc	0.3989085
76	0xbc098a3f	-0.008394777
77	0xbe06c1d3	-0.13159876
78	0x3d5d88dd	0.0540856
79	0x3ea79c90	0.32736635
80	0xbe734d22	-0.23759893
81	0x3e45f635	0.19332202
82	0x3db1c7ce	0.08680688
83	0xbce37fb5	-0.027770856
84	0xbc82973f	-0.01594126
85	0xbe5792c2	-0.21052077
86	0xbd023d98	-0.03179702
87	0xbd07f906	-0.03319647
88	0xbe08154f	-0.13289379
89	0x3e8c6cbf	0.27426717
90	0x3ed7969c	0.42107093
91	0xbd5a2fde	-0.053268306
92	0x3dbb5537	0.09147113
93	0x3e15f8c5	0.1464568
94	0x3ea45ada	0.32100564
95	0x3dddc33c	0.108282536
96	0x3e034ffd	0.12823482
97	0x3d22408b	0.039612334
98	0x3e99b948	0.3002417
99	0x3e5d310a	0.21600738
100	0x3d2a75fc	0.041616425
101	0x3de24fc0	0.11050367
102	0xbd3a8e5d	-0.045545924
103	0x3e29f564	0.16597515
104	0xbe6ee3e2	-0.23329118
105	0xbd883754	-0.06651178
106	0x3e64ded8	0.22350633
107	0x3d7613f0	0.060077608
108	0x3c5d6e07	0.013515002
109	0xbd091fae	-0.033477478
110	0x3e489196	0.19586787
111	0xbe67cc7f	-0.22636603
112	0xbe44ce87	-0.19219409
113	0x3e839d16	0.25705785
114	0x3e038685	0.12844284
115	0x3e597ffc	0.21240228
116	0xbc0337f4	-0.008008946
117	0x3dc0007a	0.09375091
118	0x3e600473	0.21876697
119	0x3f06ae90	0.5261011
120	0x3e43d6a1	0.19124843
121	0x3b3eed80	0.002913326
122	0x3e2fb712	0.1715968
123	0x3e689070	0.22711349
124	0x3e9882cd	0.29787293
125	0x3d486650	0.048925698
126	0xbe4251d9	-0.18976535
127	0xbc19cbb5	-0.009386946
128	0xbe4022af	-0.1876323
129	0xbb98a5ab	-0.004658421
130	0x3dffaa3b	0.12483641
131	0xbd8f7f9d	-0.07006762
132	0x3dd8f9e5	0.105945386
133	0x3dd39462	0.10331036
134	0x3d80cead	0.0628942
135	0x3e3b661f	0.18300675
136	0x3e49a5af	0.1969211
137	0x3dd6124c	0.104527086
138	0x3e0253a1	0.12727214
139	0x3ec17aa6	0.37788886
140	0x3dd528e8	0.10408193
141	0xbdddeed4	-0.108365685
142	0x3de38801	0.11109925
143	0x3ebe6aa2	0.3719073
144	0xbe887091	-0.2664838
145	0x3e5fb746	0.21847257
146	0x3e17b005	0.1481324
147	0xbe80a6a9	-0.25127152
148	0x3d3f5782	0.046714313
149	0xbe209a44	-0.15683848
150	0x3c8dca50	0.017308384
151	0x3e097e95	0.13427193
152	0x3cfee3ab	0.03111442
153	0x3e4c7f03	0.19970326
154	0x3f1d75c7	0.6150784
155	0xbda9e002	-0.08294679
156	0xbdc14259	-0.09436483
157	0x3e3ff1ba	0.18744555
158	0x3e50ba79	0.20383634
159	0x3d6460a2	0.05575622
160	0xbce2ce00	-0.02768612
161	0x3bdc1ac3	0.0067170574
162	0x3e879aa5	0.26485172
163	0x3d3e5762	0.046470053
164	0x3e091815	0.13388093
165	0xbc6af8b5	-0.014341523
166	0x3da5a62c	0.080883354
167	0x3e13f0d9	0.14447345
168	0xbe8822a9	-0.26588944
169	0xbc18f320	-0.009335309
170	0x3e8b91c5	0.2725965
171	0xbd32c82c	-0.04364793
172	0xbdd80049	-0.105469294
173	0xbcf7067b	-0.030154457
174	0x3e8e7055	0.27820078
175	0xbe6deee6	-0.23235664
176	0x3c2fd209	0.010731229
177	0x3d9c46a4	0.07630661
178	0x3e929ed1	0.28636792
179	0x3da41b8c	0.08013067
180	0x3d1e1381	0.03859282
181	0x3d7c6c0c	0.06162648
182	0x3e1c429c	0.15259784
183	0x3ec39595	0.3820006
184	0xbc534986	-0.012895947
185	0xbdea983c	-0.11454818
186	0x3d9b499a	0.07582398
187	0x3ecde331	0.40212396
188	0x3e74e61e	0.23915908
189	0x3e1193bb	0.14216511
190	0xbd98697c	-0.074419945
191	0x3d4e9852	0.050438233
192	0xbd53e2cc	-0.051729962
193	0x3dbf78ed	0.09349237
194	0xbc0a25f4	-0.0084319
195	0xbc560b22	-0.013064178
196	0xbd1a6a6c	-0.037699148
197	0xbb2fafe6	-0.0026807724
198	0xbd70de63	-0.058805835
199	0xbe14b8a3	-0.14523558
200	0xbdb832d2	-0.08994068
201	0xbd63efd8	-0.055648655
202	0xbd8245a0	-0.06360936
203	0xbd92baca	-0.071645334
204	0xbddd751e	-0.10813354
205	0x3dada57c	0.08478829
206	0xbd238287	-0.039919402
207	0x3dc02732	0.09382476
208	0xbdf6fb56	-0.12059657
209	0xbd09aafa	-0.03361032
210	0x3db67a85	0.089100875
211	0xbc004197	-0.007828138
212	0xbe1a8a56	-0.15091833
213	0xbdea5532	-0.11442031
214	0x3db36f08	0.08761412
215	0xbdf0c2d3	-0.1175591
216	0x3daa964e	0.083294496
217	0xbdb6f7ad	-0.08933959
218	0x3b3f6880	0.0029206574
219	0x3cc0bb61	0.02352685
220	0xbdf474ee	-0.11936365
221	0xbe1af336	-0.1513184
222	0xbd34d934	-0.044152454
223	0xbe15bcd1	-0.14622809
224	0x3d901e15	0.07036988
225	0x3dadbce9	0.084832974
226	0xbd23e280	-0.04001093
227	0xbd4fccbd	-0.050732363
228	0xbdf9f656	-0.12205188
229	0xbdbfc648	-0.09363991
230	0xbdf979f0	-0.12181461
231	0x3d409670	0.04701847
232	0xbe0dbe2b	-0.13842075
233	0x3d5872ca	0.052843846
234	0x3d7e6fd8	0.06211838
235	0x3db6f044	0.08932546
236	0x3dc9134c	0.09818134
237	0xbc3985fc	-0.011323448
238	0x3db4ef5a	0.08834715
239	0x3cb11ee9	0.021621184
240	0xbde06b7a	-0.109579995
241	0xbd17e3f8	-0.037082642
242	0xbdb85e98	-0.09002417
243	0x3dd4b25c	0.10385582
244	0xbe027057	-0.12738167
245	0xbda9bc68	-0.08287889
246	0xbd8dd018	-0.06924456
247	0x3bcd8e5d	0.0062730745
248	0xbd230476	-0.039799176
249	0x3cc17500	0.02361536
250	0x3d1803e3	0.03711308
251	0x3dacd625	0.08439282
252	0xbde032be	-0.10947178
253	0x3d515472	0.051105924
254	0x3cd1e710	0.025622874
255	0x3d4b71d2	0.049669094

fc2.bias f4 [32]
0	0xbdfdf081	-0.12399388
1	0x3ddf9b5b	0.109183036
2	0x3c5a8171	0.013336525
3	0xbe05841c	-0.13038677
4	0xbbeb55c9	-0.0071818572
5	0xbe0cfaff	-0.13767622
6	0xbe4a648f	-0.19764923
7	0x3e1ce7c6	0.1532279
8	0xbdd7fd72	-0.10546388
9	0x3e17c9ea	0.14823118
10	0x3d3b57e4	0.045738116
11	0x3e2eff1e	0.17089507
12	0xbe2aabe8	-0.1666714
13	0x3c8fd197	0.017555995
14	0xbd9e7efb	-0.07739063
15	0x3d3c54bc	0.045979246
16	0xbcc98f19	-0.024604367
17	0x3d158622	0.036504872
18	0xbd0d4d0e	-0.034497313
19	0x3df99736	0.12187044
20	0xbb1f0e53	-0.0024270013
21	0x3e0ff6f6	0.14059052
22	0x3dec747f	0.11545657
23	0xbde93854	-0.11387697
24	0xbd529824	-0.051414624
25	0xbd493d7f	-0.049130913
26	0xbe1160bd	-0.14197059
27	0xbc8851d4	-0.016640581
28	0x3de015f1	0.10941685
29	0xbd212af4	-0.039347604
30	0x3de71642	0.11283542
31	0x3d3e99f6	0.046533547

pi.weight f4 [1, 32]
0	0x3d23c05a	0.039978363
1	0xbe23a0c4	-0.15979296
2	0xbe86d6a0	-0.2633562
3	0x3d8cd60f	0.06876766
4	0xbdf8896f	-0.121355884
5	0x3ea2bb2c	0.31783426
6	0x3db104ee	0.086435184
7	0x3e8c54b0	0.2740836
8	0x3dd6a116	0.104799435
9	0xbe662dc8	-0.22478402
10	0xbe334374	-0.175062
11	0xbe7819ad	-0.24228545
12	0x3d9d6eb3	0.0768713
13	0x3bae3262	0.0053160647
14	0xbdc18066	-0.09448318
15	0x3d85cd06	0.06533246
16	0x3c33a725	0.010965143
17	0xbda878c9	-0.08226163
18	0xbe11bc4c	-0.14231986
19	0x3d29e514	0.04147823
20	0x3e5aedba	0.21379748
21	0xbe23bb6e	-0.15989468
22	0xbe18b060	-0.14911032
23	0x3c68a2fd	0.014199016
24	0x3e151736	0.14559636
25	0x3e4e06d7	0.20119797
26	0x3e68968b	0.22713678
27	0xbedf9fbd	-0.43676558
28	0x3da17cb7	0.078851156
29	0x3d2807cc	0.04102306
30	0xbb8869b5	-0.004162992
31	0x3d2c7030	0.042099178
