model/maddpg/agent_2_target_critic.pth (torch, 16084 bytes, 5 tensors)

fc1.weight f4 [64, 18]
000000 93 eb 08 3e 08 23 dd bd 7d bd 81 be 09 21 b5 be
       0.13371114 -0.10797697 -0.2533988 -0.35376766
000010 38 77 99 3d 76 e9 6b 3c be de 48 be 57 61 5a 3f
       0.07493442 0.014398923 -0.1961622 0.8530478
000020 50 0f c1 bf ce a9 66 3b 7d 04 f2 bd 26 8d d1 be
       -1.5082798 0.0035196426 -0.11817262 -0.40928
000030 97 9c 93 3d 95 d5 6c be 38 40 c8 3e a7 d3 b6 3e
       0.072076015 -0.2312835 0.39111495 0.35708353
000040 51 86 8d 3d b0 d4 ee 3f 69 b4 0f be 62 04 02 be
       0.069103844 1.8658657 -0.14033665 -0.12696984
000050 85 07 a7 3c d3 42 69 3e 02 4c e9 be a3 e1 30 bd
       0.020389328 0.22779398 -0.45565802 -0.043183934
000060 98 24 54 bd e9 df 99 3e 0a b3 92 bf 33 ac 35 be
       -0.05179271 0.30053642 -1.1460888 -0.1774147
000070 79 75 12 3d d7 11 96 be be 19 85 3b 3e b8 5f 3e
       0.035756562 -0.29310486 0.0040619066 0.21847627
000080 df 60 b8 3e 87 43 7b bd 34 af 7a bc 08 e5 9b 3f
       0.36011407 -0.061343696 -0.015300561 1.217927
000090 bb da 4e be a3 5f 8f be 83 a7 28 be d8 c6 64 bf
       -0.20200627 -0.28002653 -0.1647015 -0.8936591
0000a0 20 fc 5c 3f 7d 8c bd bd 97 b4 5d bf 6b cd 9e 3c
       0.8632221 -0.09255312 -0.86603683 0.01938506
0000b0 e7 ad b2 3f 9f 74 89 bd 4f 65 6c 3e 7f 0c 0d bf
       1.3959321 -0.06711697 0.23085521 -0.5509719
0000c0 e1 a0 1b be 23 2a 38 bf c7 03 45 be 5c df 02 3e
       -0.15198089 -0.71939296 -0.19239722 0.12780517
0000d0 89 d8 a2 be 52 b9 94 be 6e 61 91 be 45 c2 f3 be
       -0.31805828 -0.29047638 -0.28394645 -0.47609153
0000e0 51 49 45 be 46 d2 bd be a0 a8 5c be b1 92 5c 3e
       -0.19266249 -0.37074488 -0.215487 0.21540333
0000f0 7a 8d 90 be ea 28 0a bf 98 d3 17 c0 63 38 4c 3d
       -0.28232938 -0.5396868 -2.3722897 0.049858462
000100 84 cf 89 be b8 0a 60 3e ab 36 8d 3d b1 56 3a bf
       -0.26916134 0.21879089 0.06895193 -0.7278853
000110 29 d7 0c 3e b1 7a f4 3e 10 c1 8b 3e 5f 36 9a be
       0.13753952 0.47749856 0.27295732 -0.30119607
000120 d3 07 4f be 57 76 cb bd 9a 24 c0 bd cd a9 6d 3e
       -0.20217828 -0.09934681 -0.09381981 0.23209305
000130 7a 1d f7 be 5b 8d 20 3d 8a 3c ce 3e 62 ea b4 be
       -0.48264676 0.039197307 0.40280563 -0.3533507
000140 77 64 4a c0 bf 21 20 bd 82 2f 62 be d5 ee f9 3e
       -3.162382 -0.039094683 -0.22088435 0.48815027
000150 a2 96 4b bd 91 c3 25 3f f3 06 0e bd 7d f0 5f 3e
       -0.0497042 0.64751536 -0.034674596 0.21869083
000160 ad 98 a5 3d 78 d4 0c 3f 6f d0 62 be 44 82 19 bf
       0.08085761 0.550117 -0.22149824 -0.59964395
000170 ac fa b9 bd 7b 82 9c bf 7b f8 84 3f 05 45 00 be
       -0.09081015 -1.222732 1.038833 -0.12526329
000180 35 7e 99 bf 3f 63 60 3d ef a4 3d bf aa 7f 2f 3e
       -1.199164 0.05478215 -0.74079794 0.17138544
000190 52 d4 19 3e 0d 68 0e bf 10 44 6c 3e ae 1c 6a bf
       0.150224 -0.5562752 0.23072839 -0.9145001
0001a0 47 72 8b 3d f6 1f 0d bf 3a 1e dc 3d 4f a8 32 bf
       0.06808906 -0.55126894 0.10747953 -0.6978807
0001b0 10 84 87 be cb 86 9c be 66 79 2a 3d 69 e7 61 bf
       -0.26467943 -0.3057159 0.04161968 -0.8824373
0001c0 b3 29 26 3f cc 8e 33 be 18 09 20 bf ec 55 2b 3e
       0.6490738 -0.17534941 -0.62513876 0.16731995
0001d0 d7 ff 16 3f 11 ad 93 bd 1c 12 2b 3d e0 f3 47 bf
       0.5898413 -0.07210744 0.041765317 -0.781065
0001e0 63 67 41 be 55 51 03 bf a6 05 21 3e d3 95 04 3f
       -0.18887095 -0.5129598 0.15724811 0.51791114
0001f0 c9 d4 ad 3e b3 47 23 bc 06 55 d5 bd f2 90 0b be
       0.33951405 -0.009965825 -0.104166076 -0.13629511
000200 10 f9 89 3d 98 77 40 be e6 9e 20 bd 5e ea 25 bd
       0.06736958 -0.18795621 -0.039214037 -0.040506713
000210 51 dd 96 3b e4 b8 cf bb 35 9d 9b bc b9 59 b4 be
       0.0046040197 -0.0063391794 -0.01899586 -0.35224703
000220 d5 43 3d be d6 9d b7 3e 31 e9 54 3d b9 42 45 3e
       -0.18482907 0.35862607 0.0519802 0.19263734
000230 7b d1 8d 3e 7e 24 db be f5 7a 96 bf 91 16 40 bf
       0.27698883 -0.4280128 -1.1756274 -0.75034434
000240 fb b6 b7 3d 80 a6 6a 3b f2 eb e4 3c f2 35 c5 be
       0.08970448 0.0035804808 0.027944539 -0.3851772
000250 e5 e7 73 3e 14 9f 38 bd 90 58 7c be 3f 1a 69 3e
       0.2381893 -0.045073584 -0.24643159 0.22763918
000260 9b 3f 76 bf 04 45 84 be 91 04 3c bd a7 0d 50 bf
       -0.96190804 -0.25833905 -0.045902792 -0.8127083
000270 47 b0 3b 3e a2 3d 9f be 4f 0b 74 be a4 08 8a be
       0.18328963 -0.3110171 -0.23832439 -0.26959717
000280 b7 d5 3f be b8 af 64 c0 bf 77 fb bc d1 43 e9 3d
       -0.1873387 -3.573225 -0.030696748 0.11389888
000290 13 08 24 bc d0 b1 35 bd 66 13 95 3e e5 55 40 be
       -0.010011691 -0.04435903 0.29116362 -0.18782766
0002a0 da c8 aa bd f2 30 23 3f 72 80 20 bf db ba 9f be
       -0.08339091 0.6374656 -0.6269599 -0.31197247
0002b0 5b ff 2e 3e a7 7c 92 bf 65 a5 89 be 7c d0 6e be
       0.17089598 -1.1444291 -0.26884 -0.23321718
0002c0 da f1 06 3d 39 58 4c 3e 5c 71 a7 bf 71 dd 85 bf
       0.03294549 0.1995553 -1.308147 -1.0458204
0002d0 1d 60 40 3e 21 fb 9a 3e 7b 75 3b 3d 71 d8 2e 3f
       0.18786664 0.3026972 0.045766335 0.68299013
0002e0 d0 f6 8b 3e 19 7e 2f be 05 d8 2a 3f 9a f8 83 bd
       0.2733674 -0.17137946 0.6673587 -0.06443901
0002f0 d2 78 57 40 d2 6c 0d 3e 92 c6 da 3d 6b fd 17 3f
       3.3667493 0.13811043 0.106824055 0.5937106
000300 1b e9 17 3e 24 58 f4 3e 4b ac 01 be bf 47 ef 3e
       0.14835016 0.47723496 -0.12663381 0.46734425
000310 6e f3 ba be 8c 5c 2e 3e 10 a8 82 bb 4f 55 0c bf
       -0.36513847 0.17027491 -0.00398732 -0.5481767
000320 dd 3e 05 3e a7 43 57 bf 69 5f 86 3f c8 e3 4e 3e
       0.13012262 -0.84087604 1.0497867 0.20204079
000330 0a dc 93 bf c9 00 01 be f5 52 6c 3e 1c 14 cb 3d
       -1.1551526 -0.12597956 0.2307852 0.09915945
000340 53 6e 03 bf ed b1 1b bf 61 b7 3d bd 90 07 8c bf
       -0.51340216 -0.6081837 -0.046317462 -1.0939808
000350 46 f4 16 be e7 29 be 3e c2 26 0c be 37 c8 54 3f
       -0.1474162 0.37141344 -0.1368666 0.83118004
000360 08 bf 1b 3e 16 f6 1c 3d 25 69 77 3d 60 26 5c be
       0.15209591 0.038320623 0.060403008 -0.21499014
000370 f7 cd e0 3d bd ac 6e bc 95 df 5c be 6e 11 1a 3f
       0.10976785 -0.014567551 -0.21569665 0.60182846
000380 0a 68 e8 3e b6 16 d0 3d e8 02 d3 be ad c2 34 be
       0.45391876 0.10160582 -0.41213155 -0.17652388
000390 2e 47 cb 3d 08 da 45 bd 87 1c 7e bd 90 b2 95 3f
       0.09925686 -0.048303634 -0.062038925 1.1695118
0003a0 41 9f aa be 5e ee 04 3f 17 08 05 3e 0e 48 f5 3d
       -0.33324626 0.5192622 0.12991367 0.11976634
0003b0 99 f0 23 3e 10 df 2b 3e 71 db 69 be 4f 28 0c 3e
       0.1600975 0.1678431 -0.22837617 0.13687252
0003c0 c9 fd 2c be 83 ca 1c 3d 9e 02 45 be 47 4b 05 bd
       -0.16893686 0.038279068 -0.1923928 -0.032542493
0003d0 92 90 8f 3d 98 63 2e be 78 bd d2 3c 46 7b bd bd
       0.070099965 -0.1703018 0.025725111 -0.09252028
0003e0 87 8c 50 3e 90 1d ac 3b 8a 16 05 3e 33 0a cf bd
       0.20366107 0.0052525476 0.12996879 -0.10109367
0003f0 95 b8 b6 bd d9 b0 57 bf cf c4 99 bd 22 ac 89 bf
       -0.08921925 -0.84254223 -0.075082414 -1.0755656

fc1.bias f4 [64]
000000 44 fa bc 3e f0 a6 f9 3c f1 5b db 3e c6 02 26 3f
       0.36909688 0.03047511 0.42843583 0.6484798
000010 bd d3 3a 3d 07 bc 4e 3f f5 3f 27 3f fb 0f 5b 3e
       0.045612086 0.80755657 0.65331966 0.21392815
000020 32 b3 6c 3e 9e 06 2a be 7d 77 26 bf 01 1c 40 3f
       0.23115233 -0.16604087 -0.65026075 0.7504273
000030 72 ce be be 34 99 25 3c 46 be e9 3e d9 26 ca 3e
       -0.3726688 0.010107327 0.4565298 0.39482763
000040 1c b3 cc 3d 2f ca 08 bf ad 2f 50 3e 0a a9 8f 3e
       0.099951 -0.5343351 0.20330687 0.28058654
000050 3c 78 b7 3e f5 3d 01 bf 37 9c 82 bf cc 2b fa 3e
       0.3583392 -0.50485164 -1.0203923 0.4886154
000060 b9 c0 f8 3d a8 06 82 be f9 2c 11 3e e0 67 df 3d
       0.12146134 -0.25395703 0.14177312 0.109084845
000070 1d 8a 4a be 9c f2 2f 3f cf 87 5b 3f 95 63 1a 3f
       -0.19779249 0.6872957 0.857541 0.603082
000080 51 03 8b 3f 9f 5b 40 3d 2a 35 a3 3c b5 b6 da 3b
       1.0860387 0.046962377 0.019922812 0.0066746124
000090 92 99 73 bd fa 43 bf bc c8 d9 2b 3f b3 c0 99 bf
       -0.059472628 -0.023347843 0.6712918 -1.2011932
0000a0 5b ab 24 bf 86 74 f8 3d 9c f8 92 be a2 06 8d bc
       -0.6432397 0.121316 -0.287053 -0.017215077
0000b0 35 9b 2a 3f 40 58 00 3f 1f b3 04 bf 7d db 87 3e
       0.6664308 0.5013466 -0.5183582 0.26534644
0000c0 52 fa 4b bf 56 b8 98 bf 56 41 b8 3e 63 f9 1e bf
       -0.79678833 -1.1931255 0.35987347 -0.62099284
0000d0 00 19 38 3f fc 60 8f 3c cf 2a 88 3f 10 1c 35 bf
       0.71913147 0.0175023 1.0638064 -0.70745945
0000e0 f7 aa 87 3d 8c a6 34 bf 15 21 3f 3f 4e d5 db bd
       0.06624406 -0.7056663 0.74659854 -0.10734044
0000f0 40 4d e7 be a5 63 24 3c 9c dd 18 be 53 10 2d 3f
       -0.45176125 0.010033523 -0.14928287 0.67603034

fc2.weight f4 [32, 64]
000000 44 cb c0 3e ba 46 17 bf ff 5b 8c 3d c8 08 38 3e
       0.3765508 -0.59092295 0.06853484 0.179721
000010 19 a2 13 3e 61 4b 32 3d 55 86 f7 3e d8 13 8e be
       0.14417304 0.04352892 0.48344675 -0.27749515
000020 08 d7 d1 3c 6e 83 e6 3e 95 08 fd ba 1b 25 e0 3d
       0.02561523 0.45022148 -0.0019304926 0.10944577
000030 12 79 40 bf 20 66 80 3c 25 48 ee 3d f9 1a 4b 3e
       -0.7518474 0.015673697 0.11634854 0.19834508
000040 2a 49 74 be fc 70 09 bd 62 bb 8f bf a7 61 32 3e
       -0.23856035 -0.033555016 -1.122906 0.17420064
000050 d1 41 d2 3d da b7 94 be e7 13 a8 be 6b 0a 4d bf
       0.1026646 -0.29046518 -0.32827684 -0.8009402
000060 a7 da 73 3d 3e e8 e8 3c 40 b2 64 3c 77 a5 ad bd
       0.059534695 0.028431054 0.013958514 -0.084788255
000070 f2 5a a9 3d d4 e1 6f be 78 2c b0 3e c9 00 a1 3e
       0.082692996 -0.2342599 0.34408927 0.31445912
000080 92 96 03 3e 52 d7 85 bd f6 ff 4f be 3f d1 0d c0
       0.12850407 -0.0653521 -0.20312485 -2.2158964
000090 ab ac 5a 3d c4 49 4f be 31 41 91 3e 82 39 b8 3d
       0.053387325 -0.20242983 0.2837005 0.08995344
0000a0 ff 35 1e be 02 30 da 3d 08 e3 ca 3c 80 45 de 3a
       -0.15450285 0.10653688 0.02476646 0.0016957968
0000b0 ae 03 48 bd bb 32 f4 bd be f5 03 be e5 af be bf
       -0.048831634 -0.119237386 -0.12886712 -1.4897429
0000c0 c4 fb 72 be 34 e1 66 be 5a 42 f4 3d 6e c4 72 3d
       -0.23728853 -0.22546846 0.11926718 0.05926936
0000d0 68 03 9b 3e 2e cb 6c 3b a2 f6 d6 3d df 11 c6 bc
       0.30276036 0.0036131847 0.1049626 -0.024178443
0000e0 f9 a3 86 3e db 17 2c be 17 e3 e4 3d 31 cd a2 3d
       0.26296976 -0.16805975 0.111761265 0.079492934
0000f0 fc 48 63 bc e2 db a8 3e 64 59 ac be 04 0d ab bf
       -0.013872381 0.32980257 -0.3366195 -1.3363347
000100 c5 eb 0c bf d7 85 77 be 7e bd 23 3e 9b e6 e4 3c
       -0.55047256 -0.2417215 0.15990254 0.027941993
000110 b5 4c 3b 3d 87 cc 3c 3d e8 8c 9e 3e 24 ff 95 3e
       0.04572745 0.04609349 0.30966878 0.2929622
000120 22 f5 c4 3e 04 ea e2 be ac 5d 1f 3e 29 4d 4e 3e
       0.38468271 -0.44319165 0.15563077 0.20146622
000130 0b 10 06 be ae da f2 3d 28 6f 30 3e fc 48 6a bc
       -0.13092057 0.11858116 0.17229903 -0.014299627
000140 cd e5 51 bd 60 83 1f be 70 ec 4c bf 3a 76 56 3e
       -0.051244546 -0.1557746 -0.80048275 0.20943537
000150 30 08 3c bc ac 0b f8 bd 84 3a 5c be 21 cb 0b bf
       -0.011476561 -0.12111601 -0.21506697 -0.54606825
000160 0a 26 89 3d 40 28 61 bf e0 5e 99 3c ea f0 05 c0
       0.066967085 -0.8795204 0.018721998 -2.0928292
000170 58 d8 35 bd d6 d1 15 3d 45 c9 96 3d aa a5 3e 3e
       -0.044395775 0.03657707 0.07362608 0.18617883
000180 ba 97 3b 3e 87 0c 07 3e 89 89 6b be 12 75 2d bf
       0.18319598 0.13188373 -0.23001684 -0.6775676
000190 9e 1d e1 39 d9 4b a3 be bd 7c 9d 3e a8 0d e8 bd
       0.0004293741 -0.31893805 0.3075923 -0.1133073
0001a0 27 51 36 be 8a c2 a9 3d b7 ad 13 bd 60 bd 9c bb
       -0.17804395 0.082890585 -0.03605434 -0.0047833174
0001b0 25 44 fe 3d 59 59 ba bd 59 f5 91 bd 65 9a 9b be
       0.12415341 -0.09099073 -0.071268745 -0.3039123
0001c0 d9 ed 17 be 41 be 56 bd 16 01 3a 3c eb 5f 95 bd
       -0.14836825 -0.052427534 0.011352798 -0.072936855
0001d0 b1 0f 9b 3e 68 5c 0d 3f 98 95 40 3e ba 2e 19 bd
       0.3028541 0.55219126 0.18807065 -0.037398078
0001e0 9b e0 01 3e 26 e3 f6 be 86 cc 12 3e 4c 50 4d 3d
       0.12683336 -0.48220176 0.14335832 0.050125405
0001f0 95 42 73 be ee da 35 bd 81 ef 64 3e 65 fe 08 bf
       -0.23755868 -0.04439824 0.22356988 -0.53513175
000200 1a 9e 8a be 72 48 bc 3d b3 c9 6e 3d 19 13 85 3d
       -0.27073747 0.09193505 0.058297824 0.06497783
000210 ca 34 82 3d eb 6e 61 be 2f f7 7c 3e 89 de 57 3e
       0.06357725 -0.22014968 0.24703668 0.21080984
000220 29 fb 6b be 2d bd 08 bf ab c7 b8 3d 05 43 19 be
       -0.23045029 -0.5341366 0.09022459 -0.14966972
000230 79 2b 8c 3e ac 1d 15 bc ae 8c 99 bd d1 8e 15 be
       0.27376917 -0.009101313 -0.07497536 -0.14605261
000240 10 12 d4 3d 54 f2 24 3e f1 71 d6 3e 07 ae d8 3d
       0.10355008 0.16108066 0.41883805 0.10580068
000250 ae 10 e8 3d 05 e4 01 3e 5e 7d d5 3e ad c5 0d be
       0.113313064 0.12684639 0.4169721 -0.13844939
000260 e9 af bc bd 10 3d 96 3e c8 cb 51 bd 11 88 6a be
       -0.0921324 0.29343462 -0.05121973 -0.22903468
000270 30 63 30 bd 4d 6c 7a be 84 63 65 be 60 3a 8e be
       -0.043063343 -0.24455376 -0.22401243 -0.27778912
000280 71 38 bb be ce 49 db bd 7b f5 83 bf 49 ee 8f be
       -0.365665 -0.107074365 -1.030929 -0.28111485
000290 78 38 ed 3d c2 45 aa be 99 76 f3 be 20 67 f1 3d
       0.11583036 -0.33256346 -0.4755142 0.11787248
0002a0 b8 10 fd 3d c4 06 52 3d 55 04 1d 3e 40 c2 e5 bc
       0.123567045 0.051275983 0.15333684 -0.028046727
0002b0 d0 31 0d bd 65 97 aa bd 06 a2 16 3e a2 05 3e 3f
       -0.034471333 -0.083296575 0.14710245 0.74227345
0002c0 b5 33 6b 3e f2 7e 1b 3e 81 cb e4 bc b8 05 40 3e
       0.22968943 0.15185145 -0.02792907 0.18752182
0002d0 ab ad 8e be d3 f3 be be 10 26 ea be 77 3a 7d 3e
       -0.27866873 -0.37295398 -0.45732164 0.24729334
0002e0 10 8d 46 3d a2 71 b4 3e ff 70 d7 bd b4 0e 4f 3d
       0.04847437 0.35242945 -0.10519599 0.05055113
0002f0 ec a6 2d 3e 26 0e fe bc 35 15 10 3e 1e 29 e6 bb
       0.16958207 -0.031012606 0.1407059 -0.0070239445
000300 ed 37 8e 3d 34 81 8f 3d 08 98 4c 3e 94 34 c9 bd
       0.06944261 0.070070654 0.1997987 -0.098244816
000310 dd 00 3a bd 70 57 e5 3d cc 10 d1 3e 13 5b 70 be
       -0.04541098 0.11198318 0.40833127 -0.23472242
000320 49 29 26 3f 7a c4 8b 3f a3 e3 e0 3d 68 33 6c 3e
       0.64906746 1.0919335 0.10980918 0.23066485
000330 fc 51 f5 3e f1 82 25 3d 13 6e 2d 3e 86 94 c7 3c
       0.47914112 0.04040808 0.16936521 0.024362814
000340 c7 56 d9 3d 0a c6 8c bd 6e d6 85 3e 68 c6 a8 3d
       0.106122546 -0.068737105 0.2614016 0.08240968
000350 77 85 0c 3e 98 66 9f be e9 9a 3b be 83 86 63 be
       0.13722788 -0.3113296 -0.18320812 -0.22219281
000360 a8 5a 4a 3e 5b 9a d9 bc 00 9c 44 3c bc c4 a9 3e
       0.19761145 -0.02656286 0.012000084 0.3315791
000370 20 bd 3d bc b3 81 6c 3e 47 b5 44 3e 04 5c 89 3e
       -0.011580735 0.23096351 0.19209777 0.26828015
000380 83 8b e2 3d 58 14 60 bd 1c ad f7 bd 0b 35 11 3e
       0.11061766 -0.0547069 -0.12093565 0.1418039
000390 6e 49 de 3d e1 e6 f5 bd 15 30 12 3f af 1d b7 3d
       0.10853849 -0.12006927 0.5710462 0.089412086
0003a0 28 8a 8d bd 7c b4 c2 3d 3c 44 1c 3d 90 c2 bf 3c
       -0.06911117 0.09507081 0.03815101 0.023408204
0003b0 26 35 e8 3d 8a fc be 3e b3 4b fc bd 68 c1 18 bf
       0.11338262 0.37302047 -0.12319126 -0.59670115
0003c0 ef 8c 38 be 63 01 bc bd 2d 58 40 3e be 35 69 bc
       -0.18022512 -0.09179952 0.18783636 -0.014234005
0003d0 b8 d0 8a 3e 07 df 75 3e 37 d1 96 3e 22 72 87 bd
       0.27112365 0.2401086 0.29456493 -0.06613566
0003e0 77 67 2d be ca 73 9a be 95 e9 5c 3e d8 dd f8 3c
       -0.16934 -0.30166465 0.2157348 0.03037922
0003f0 f5 2e 0f be ca 07 cd 3d 21 2d 9d 3c 6f 63 26 3e
       -0.13982756 0.10011251 0.019186558 0.16248868

fc2.bias f4 [32]
000000 4f 9b 1b 3f 1d 16 03 3f 5c bf 4b bf 9a 24 05 3f
       0.6078386 0.5120562 -0.79588866 0.52008975
000010 a3 0f 92 3d 38 6c 6b 3b 9f 06 d4 be 38 60 3c bf
       0.07131889 0.0035922658 -0.41411301 -0.7358432
000020 60 d2 5f 3e 7c 1a 25 bf 37 a3 d5 be 6e a3 1f bf
       0.21857595 -0.64493537 -0.41726086 -0.6235875
000030 b3 e8 ea 3e 20 c8 39 bf fc d1 2a 3f 84 b6 08 3d
       0.4588066 -0.7257099 0.6672666 0.033377185
000040 7f 92 23 3f 6a a9 85 3d 03 6a 0b bf 20 ff cf bc
       0.6389541 0.06526454 -0.54458636 -0.025390208
000050 93 2a 0f 3f 3d 9a 2b bf 81 f8 ce be 3f de 27 3f
       0.5592434 -0.67032224 -0.40423968 0.65573496
000060 33 34 88 bd 43 f8 21 3f 90 2a 16 3c be 60 39 3d
       -0.06650581 0.6326944 0.009165421 0.045258276
000070 e8 0e f2 be 2f b9 dd 3d 44 2d 3f 3e e4 2f 96 bd
       -0.47276998 0.108263366 0.18669611 -0.07333353

q.weight f4 [1, 32]
000000 ae 9b f7 3e 03 8b d2 3e 42 8a 98 bf 0d 29 88 3e
       0.48360962 0.41121683 -1.1917193 0.2659382
000010 14 65 29 3e fd d5 b4 3d 95 1b d6 bf 73 52 3e bf
       0.16542464 0.088298775 -1.6727167 -0.7434456
000020 74 ef f3 3e 4d 22 4f bf eb 42 1b bf 7f 8b 14 bf
       0.47643626 -0.80911714 -0.60648984 -0.58025354
000030 0e 33 d1 bf a9 ab 96 c0 6d a5 ee 3e 38 b7 e3 bd
       -1.6343706 -4.7084546 0.46610585 -0.111189306
000040 06 21 37 3f d8 a7 53 3c c3 43 76 bf 71 fd ce 3d
       0.71534765 0.012918435 -0.96197146 0.10106934
000050 0e 35 e9 3e f7 0f 4e bf 0e d0 81 bf 8c 70 a0 3e
       0.4554829 -0.8049311 -1.0141618 0.31335866
000060 55 22 b1 bd d3 98 0c 3f 67 fc 01 be f5 ae 52 3f
       -0.086491264 0.5492069 -0.1269394 0.82298213
000070 bf 30 0e bf 64 eb af bd 8a e7 cd 3e bf b9 19 3d
       -0.5554313 -0.08589819 0.40215713 0.037530657
