model/maddpg/agent_3_actor.pth (torch, 12420 bytes, 5 tensors)

fc1.weight f4 [64, 4]
0	0x3e2151a9	0.15753807
1	0x3ec3a4d8	0.38211703
2	0xbb6ad05f	-0.0035829765
3	0x3e6c8e78	0.23101223
4	0xbea88c4a	-0.32919532
5	0x3e198278	0.14991176
6	0xbe65e844	-0.22451884
7	0xbed0ebd0	-0.4080491
8	0x3e7a1ffe	0.24426267
9	0x3d0c7346	0.03428962
10	0xbd798788	-0.06092027
11	0xbd89577d	-0.0670614
12	0x3ee4d9e0	0.44697475
13	0x3dbb056e	0.09131895
14	0x3da17fba	0.0788569
15	0xbd7f1cd8	-0.062283367
16	0x3eae5abf	0.3405361
17	0x3db7109a	0.08938713
18	0x3dc45b32	0.095877066
19	0x3e4846a2	0.19558194
20	0xbd0b222d	-0.03396814
21	0xbe9cc814	-0.30621397
22	0x3e7b3e50	0.24535489
23	0x3dcc6d9f	0.09981846
24	0xbef981c6	-0.48731822
25	0xbe3ae078	-0.1824969
26	0x3d2c4a30	0.04206294
27	0xbed95d70	-0.424541
28	0xbef3182a	-0.47479373
29	0xbe7f715c	-0.24945587
30	0x3ecc68ca	0.39923698
31	0x3ea3c0f4	0.3198315
32	0x3e1e67eb	0.15469329
33	0x3ebe8409	0.3721011
34	0x3e966117	0.2937095
35	0xbcc3eeab	-0.023917517
36	0xbde41e48	-0.11138588
37	0xbe32c064	-0.17456204
38	0xbe9548fc	-0.29157245
39	0xbd6167e0	-0.055030704
40	0xbd8de233	-0.0692791
41	0x3e60279d	0.21890111
42	0x3ead3799	0.3383148
43	0x3ea6a46c	0.3254732
44	0xbe0b4ba4	-0.13603073
45	0x3e6da508	0.23207486
46	0xbe28170c	-0.16415042
47	0xbec93e94	-0.39305556
48	0x3d267606	0.0406399
49	0x3e046575	0.12929328
50	0x3dc61eeb	0.09673866
51	0x3df4af46	0.11947493
52	0xbebba2cc	-0.36647642
53	0xbe71287c	-0.235506
54	0x3e7e2124	0.2481733
55	0xbeaed664	-0.34147942
56	0xbe5f9160	-0.218328
57	0x3e39a388	0.18128788
58	0xbddafe88	-0.10693079
59	0xbeb9edf2	-0.3631435
60	0x3e8fdc64	0.28097832
61	0x3ec0815e	0.375987
62	0xbeb5bece	-0.35497135
63	0xbeff4f46	-0.49865168
64	0x3d982448	0.07428795
65	0x3d02a0f0	0.031891763
66	0x3dcf611e	0.101259455
67	0x3ed151de	0.40882772
68	0x3ef351dd	0.47523394
69	0x3dbbca76	0.09169476
70	0x3e64ae85	0.22332199
71	0xbec7e080	-0.39038467
72	0x3e67d215	0.22638734
73	0xbe962074	-0.29321635
74	0x3c94a4ec	0.018145047
75	0x3dd77998	0.10521239
76	0x3ec4fe6e	0.38475364
77	0xbe8658bb	-0.2623957
78	0xbdf288e3	-0.11842515
79	0xbe031e82	-0.12804607
80	0xbed96b18	-0.4246452
81	0x3dbcd038	0.09219402
82	0xbedfb9f4	-0.43696558
83	0x3e391264	0.18073422
84	0x3d94e9f0	0.072711825
85	0x3e8f1462	0.27945238
86	0xbde28418	-0.11060351
87	0x3e951af6	0.29122132
88	0x3ef23009	0.47302273
89	0x3e44e4d4	0.19227916
90	0x3ed9756b	0.42472395
91	0xbd806469	-0.06269152
92	0x3ece1c5d	0.40256014
93	0x3db668a8	0.0890668
94	0x3e1c19b4	0.1524418
95	0xbce61a93	-0.028088843
96	0xbe6fe858	-0.23428476
97	0xbeabae96	-0.33531636
98	0x3d791690	0.060812533
99	0x3d707340	0.05870366
100	0xbe179354	-0.14802295
101	0xbecb6da0	-0.39732075
102	0xbe661010	-0.22467065
103	0xbdf13ae0	-0.11778808
104	0xbe9f3ad0	-0.31099558
105	0x3da3fa80	0.080067635
106	0xbd40cad0	-0.047068417
107	0xbdd44ae0	-0.10365844
108	0x3d05c1c0	0.032655478
109	0xbeed121a	-0.46302873
110	0xbe5e3bb4	-0.21702462
111	0x3ea228de	0.31671804
112	0x3b19b000	0.0023450851
113	0x3ea22f58	0.31676745
114	0xbe9e4ed4	-0.30919516
115	0x3e4a7218	0.19770086
116	0xbeb4dffa	-0.3532713
117	0x3e8ce820	0.27520847
118	0xbe9e0826	-0.30865592
119	0xbe1dddc8	-0.15416634
120	0x3e491ad4	0.1963914
121	0x3ee2ab0e	0.4427113
122	0xbec863f8	-0.3913877
123	0xbe7590b8	-0.23980987
124	0xbdcd6710	-0.10029423
125	0xbe5ce178	-0.21570385
126	0xbed821ca	-0.4221328
127	0xbdb127b8	-0.08650154
128	0x3e780651	0.2422116
129	0xbe22db99	-0.15904082
130	0x3f059071	0.52173525
131	0xbd4fa18b	-0.05069117
132	0x3e8a0965	0.26960292
133	0xbe83dbd3	-0.2575365
134	0xbe1d2645	-0.1534663
135	0x3ee4172a	0.44548923
136	0x3e21a3aa	0.15785089
137	0x3e5223c6	0.20521459
138	0x3ea65d75	0.32493177
139	0x3e2902a6	0.16504917
140	0xbdeffb2b	-0.11717828
141	0xbda966f1	-0.08271588
142	0x3e96c45e	0.2944669
143	0x3e9332ed	0.2874979
144	0xbe772a5c	-0.24137253
145	0xbe917272	-0.28407627
146	0xbe91f6be	-0.28508562
147	0xbdccd2c8	-0.10001141
148	0x3d605640	0.054769754
149	0x3e72a5e4	0.23696095
150	0xbec1ef20	-0.3787775
151	0xbcdfc080	-0.02731347
152	0xbe63f4dc	-0.22261375
153	0x3e66e410	0.22547936
154	0xbe5b0e84	-0.21392256
155	0x3edea4e4	0.43485177
156	0xbe0b0fa0	-0.13580179
157	0xbed4c6de	-0.41557974
158	0x3e8a915c	0.27064025
159	0x3d0ec113	0.0348521
160	0x3e381d70	0.1797998
161	0x3ebe2392	0.37136513
162	0xbe9cf252	-0.30653626
163	0xbedac3b4	-0.42727435
164	0x3ed89771	0.4230304
165	0x3cd08a75	0.025456646
166	0x3eee3314	0.46523345
167	0x3d44aa0a	0.048013724
168	0x3db43dbb	0.08800837
169	0x3f00f3e8	0.5037217
170	0x3ee57fbb	0.44824013
171	0xbea99b8f	-0.33126494
172	0xbe776110	-0.2415812
173	0xbe8d8ce6	-0.2764656
174	0xbd235f30	-0.0398857
175	0xbecafed0	-0.39647532
176	0x3e99d3a0	0.3004427
177	0x3e5c643e	0.21522614
178	0xbe45a989	-0.19302954
179	0x3e2c77b4	0.16842538
180	0x3edb40a5	0.42822757
181	0x3e9307d2	0.28716904
182	0x3d769e19	0.060209367
183	0xbea499ce	-0.32148594
184	0x3e0ddd6e	0.13854
185	0xbe97508f	-0.2955365
186	0x3ebfdaac	0.3747152
187	0xbe708f77	-0.23492227
188	0x3e583bc0	0.21116543
189	0xbe2c9dc0	-0.16857052
190	0xbeb4cf42	-0.35314375
191	0x3e312018	0.17297399
192	0xbecc31a8	-0.39881635
193	0x3e5ab34c	0.21357459
194	0xbe8eddb8	-0.27903533
195	0xbe7b0b4c	-0.24516028
196	0xbec3deb8	-0.38255858
197	0x3eb8ab8a	0.36068374
198	0x3d82dbc0	0.0638957
199	0xbe83da64	-0.25752556
200	0x3ed8f942	0.4237767
201	0xbe7f4079	-0.24926938
202	0x3e0cdd88	0.13756382
203	0xbedf9f00	-0.43675995
204	0x3ea4e777	0.32207844
205	0x3e663e5e	0.22484729
206	0x3efe95e1	0.49723724
207	0xbed431e4	-0.41444314
208	0x3e9bc163	0.3042098
209	0x3eb43339	0.3519533
210	0x3ea1dab3	0.31612167
211	0xbeb69c85	-0.3566629
212	0xbdba5781	-0.09098721
213	0xbee75292	-0.45180184
214	0x3ef5cd49	0.48008183
215	0xbef26275	-0.47340742
216	0xbce3ee40	-0.027823567
217	0xbeb86380	-0.36013412
218	0xbec13664	-0.3773681
219	0xbe3d36fc	-0.18478006
220	0xbdd4f142	-0.10397579
221	0xbebaace7	-0.3646004
222	0x3eef6138	0.4675386
223	0xbe3f3e57	-0.18676125
224	0xbd872ead	-0.066006996
225	0xbe162cb8	-0.14665496
226	0x3e31230f	0.1729853
227	0xbe53c45c	-0.20680374
228	0xbd490d80	-0.04908514
229	0xbec95676	-0.39323777
230	0xbe9caf9a	-0.30602723
231	0x3e314584	0.17311674
232	0xbdd1d4a7	-0.10245638
233	0x3e364cce	0.17802736
234	0x3e118c7c	0.14213747
235	0xbefb1ef9	-0.49047068
236	0x3e85c845	0.26129356
237	0x3eb2581d	0.3483285
238	0x3efca7ed	0.49346867
239	0xbe3f85aa	-0.18703333
240	0x3e586790	0.21133256
241	0x3d337310	0.043810904
242	0xbed2f0ac	-0.41199243
243	0xbea000a4	-0.3125049
244	0xbe777b0c	-0.24168032
245	0x3e8deda4	0.27720368
246	0xbe14d954	-0.14536029
247	0x3e18ba58	0.14914834
248	0xbe79b8a4	-0.24386841
249	0xbedf5140	-0.43616676
250	0x3d1d7340	0.03843999
251	0x3e2caeb8	0.16863525
252	0x3e1890d0	0.14898992
253	0x3ee09b50	0.43868494
254	0xbd140e97	-0.036146726
255	0xbea7538e	-0.32680935

fc1.bias f4 [64]
0	0x3ea4d2e9	0.32192162
1	0xbd496790	-0.04917103
2	0x3d860ab3	0.065450095
3	0x3e3b8eb5	0.18316157
4	0xbdb6efb3	-0.08932438
5	0xbe8debb3	-0.27718887
6	0xbe8a14ba	-0.26968938
7	0x3eb2932c	0.34877908
8	0x3c80ee9e	0.015738782
9	0xbe8b381a	-0.2719124
10	0x3ec454f1	0.38346055
11	0xbe8659c2	-0.26240355
12	0x3eb228f4	0.3479687
13	0x3ed2e4de	0.41190237
14	0xbeebca34	-0.46052706
15	0xbee33a46	-0.44380397
16	0xbd79abea	-0.060954966
17	0x3eeb63bc	0.4597453
18	0x3e2a79e2	0.16648057
19	0x3e2ae6c3	0.16689591
20	0xbee65c80	-0.44992447
21	0xbe9a38a6	-0.30121344
22	0x3dd07ad8	0.101796806
23	0xbeb34e8e	-0.3502087
24	0x3c665740	0.014058888
25	0x3dbe31e8	0.092868626
26	0xbef95ac2	-0.48702055
27	0xbeb45892	-0.35223824
28	0xbe9e2458	-0.30887103
29	0x3d100c70	0.03516811
30	0x3e303424	0.1720739
31	0x3e157040	0.14593601
32	0xbe154780	-0.14578056
33	0x3eca9180	0.39564133
34	0x3e888766	0.266658
35	0x3ebaab8a	0.36459
36	0xbe218960	-0.1577506
37	0x3deeccc0	0.11660147
38	0x3ed3ad8a	0.41343337
39	0xbf00a5f5	-0.5025323
40	0x3c743fc0	0.014907777
41	0x3e00c232	0.1257408
42	0x3e2e2e0d	0.17009754
43	0xbe17a248	-0.14807999
44	0x3e8a3be7	0.26998827
45	0xbe06a18d	-0.13147564
46	0x3d8ea7e5	0.06965617
47	0xbed3a4d8	-0.41336703
48	0x3ea767ee	0.3269648
49	0xbe72f398	-0.23725736
50	0x3e07468f	0.1321051
51	0x3c58859e	0.013215451
52	0xbecdc1ce	-0.40186924
53	0xbe5f9a5c	-0.21836227
54	0x3e9c0342	0.30471236
55	0x3ecdac5d	0.40170565
56	0x3eb1b8ed	0.347114
57	0x3eb812a2	0.35951716
58	0xbeb0e099	-0.34546354
59	0xbeb96870	-0.36212492
60	0xbe30dcdc	-0.17271751
61	0xbdb036e8	-0.086042225
62	0x3ed9dc2a	0.42550784
63	0x3eef1691	0.46696904

fc2.weight f4 [32, 64]
0	0x3c190df4	0.009341706
1	0xbdaf1b78	-0.08550161
2	0x3c94ff3c	0.018188111
3	0x3d7bf023	0.06150831
4	0xbd204522	-0.03912843
5	0xbdc1e77d	-0.09467981
6	0xbd871150	-0.06595099
7	0x3dcc11a6	0.09964304
8	0xbdd652e7	-0.10465031
9	0xbde82ca4	-0.113366395
10	0x3ddd983c	0.10820052
11	0x3d638f78	0.055556744
12	0xbd00e2dc	-0.03146635
13	0xbaee5a00	-0.0018184781
14	0x3bc6baa0	0.006064728
15	0xbdfcf832	-0.12352027
16	0xbcf6542f	-0.030069439
17	0x3da77da6	0.081782624
18	0xbd3a7438	-0.04552099
19	0x3d7c30d6	0.06157001
20	0xbdf786b4	-0.120862395
21	0xbd964492	-0.073372975
22	0xbdbab8bf	-0.09117269
23	0xbdde6a65	-0.10860137
24	0x3cc30260	0.023804843
25	0xbc924018	-0.017852828
26	0x3d614d1c	0.055005178
27	0xbdeebb06	-0.11656766
28	0xbd7f9d5c	-0.06240593
29	0x3d99a182	0.07501508
30	0x3c228560	0.009919494
31	0x3d8861a8	0.066592515
32	0x3d2668ee	0.040627412
33	0x3d9f9057	0.077912025
34	0xbd2beb72	-0.041972585
35	0xbceab116	-0.028648894
36	0x3db2ee54	0.08736864
37	0xbd4e7c24	-0.05041136
38	0xbd408ce0	-0.04700935
39	0x3c1812cd	0.009281826
40	0xbdc95316	-0.098303005
41	0x3caa4af9	0.020787703
42	0xbd7aab4e	-0.061198525
43	0x3ddc29ee	0.10750185
44	0xbdc51ec1	-0.096250065
45	0x3dce8b7e	0.100852
46	0xbcb1519a	-0.021645356
47	0xbccff988	-0.02538754
48	0x3deea240	0.116520405
49	0xbd54667c	-0.05185555
50	0xbdb80e87	-0.08987146
51	0x3cfc0ff3	0.030769324
52	0x3d7964c2	0.060887106
53	0x3cb06306	0.021531593
54	0x3db181da	0.08667345
55	0xbd965ff0	-0.073425174
56	0x3d0655ad	0.03279655
57	0x3d741390	0.05958897
58	0x3daa948e	0.08329116
59	0x3ded9708	0.116010725
60	0x3cc3a9c0	0.023884654
61	0xbcb661c8	-0.022263423
62	0xbdec0902	-0.115251556
63	0xbd4c3197	-0.04985198
64	0xbdbbdfe2	-0.09173562
65	0x3dd44f70	0.10366714
66	0xbde4f930	-0.11180341
67	0xbd7ffa64	-0.06249465
68	0x3daf932a	0.08572991
69	0xbd63f2b8	-0.055651397
70	0x3c6a3ac0	0.014296234
71	0x3d7ace50	0.06123191
72	0x3cb30300	0.021852016
73	0x3d0da9f0	0.034585893
74	0xbc8f6890	-0.017505914
75	0xbd884598	-0.06653899
76	0x3cce8bb8	0.025213107
77	0xbdb9b1b4	-0.09067097
78	0x3dbc95b0	0.09208238
79	0x3d323b5c	0.04351364
80	0x3dfd0bb8	0.12355751
81	0xbd1f0644	-0.038824335
82	0xbbf6c920	-0.0075313
83	0xbdb6db30	-0.089285254
84	0x3dfdddec	0.12395844
85	0x3de5c45a	0.11219092
86	0xbd1083c4	-0.03528191
87	0x3da615f0	0.08109653
88	0x3c80f710	0.015742809
89	0x3d942e94	0.072354466
90	0xbd06e274	-0.032930806
91	0x3d369274	0.044573262
92	0xbde9f21a	-0.1142313
93	0xbca1ff80	-0.019775152
94	0x3dd63a5e	0.104603514
95	0x3d3ebfb0	0.046569526
96	0xbdd46e0c	-0.10372552
97	0x3d464274	0.04840322
98	0xbd80c99a	-0.062884524
99	0x3ba79720	0.005114451
100	0xbcf2e2f8	-0.029649243
101	0xbde6a54e	-0.11261998
102	0xbce4ec60	-0.027944744
103	0xbd97ed56	-0.07418315
104	0xbd5fe5bc	-0.05466245
105	0x3d72c530	0.059270084
106	0xbd7c30a0	-0.06156981
107	0xbc291d90	-0.01032199
108	0xbdcf69b6	-0.10127585
109	0x3d8ca198	0.06866759
110	0x3d090de4	0.033460513
111	0x3dca0092	0.0986339
112	0x3d454580	0.048161983
113	0x3d2c29f4	0.042032197
114	0xbd4f5f3c	-0.050627932
115	0x3da4df1e	0.08050369
116	0x3caccbc8	0.021093264
117	0xbda9e23c	-0.08295104
118	0x3d835b48	0.06413895
119	0xbc1a4810	-0.009416595
120	0xbd7ea7f8	-0.062171906
121	0x3d311c1c	0.043239698
122	0xbd4aea58	-0.049539894
123	0x3ce7ccc0	0.028295875
124	0xbccdb1d8	-0.025109217
125	0xbd7a6518	-0.061131567
126	0x3ca4a7b8	0.020099506
127	0xbdfeb27a	-0.124363855
128	0xbc2e8ca0	-0.010653645
129	0xbda7c60e	-0.08192073
130	0xbd931db4	-0.071834
131	0xbdfb9278	-0.12283796
132	0xbdf79032	-0.1208805
133	0x3cc5f8f8	0.02416657
134	0x3df17f08	0.117918074
135	0xbd681120	-0.056656957
136	0x3c7267a0	0.014795214
137	0x3d9162bc	0.0709891
138	0xbdb51426	-0.08841734
139	0x3dbd3596	0.09238736
140	0x3c74a260	0.014931291
141	0x3d3e01dc	0.046388492
142	0xbc6e7430	-0.014554068
143	0x3c924f50	0.017860085
144	0xbd8198be	-0.063279614
145	0xbd595470	-0.05305904
146	0xbd042548	-0.032262117
147	0x3dfb3374	0.12265673
148	0x3cbcefa8	0.023063496
149	0xbde78b0c	-0.11305818
150	0x3ce4ed48	0.027945176
151	0xbd83fadc	-0.06444332
152	0xbda07ce4	-0.07836321
153	0xbd0350e8	-0.03205958
154	0x3d106fd0	0.035262883
155	0xbdac8ed6	-0.08425681
156	0x3d39feb4	0.04540892
157	0x3d8e619e	0.06952213
158	0xbddd6392	-0.10810007
159	0xbd9627fe	-0.07331847
160	0xbd1cb554	-0.038258865
161	0x3c39a920	0.011331826
162	0xbb4a6b80	-0.003088683
163	0x3d124a18	0.035715193
164	0x3985e600	0.000255391
165	0xbd4149e0	-0.047189593
166	0x3d2d6584	0.04233314
167	0x3df0ee50	0.117642045
168	0x3c51e320	0.0128104985
169	0xbd199e88	-0.037504703
170	0xbcf6dfd0	-0.030136019
171	0x3c275b80	0.010214686
172	0x3df1598e	0.11784659
173	0x3d7c75f0	0.06163591
174	0x3bc0e600	0.005886793
175	0xbcc09d90	-0.023512632
176	0x3dfd23e6	0.12360363
177	0xbdc5902c	-0.09646639
178	0xbdcc3ade	-0.099721655
179	0x3b841d00	0.0040317774
180	0xbd86685e	-0.06562875
181	0xbd8118f2	-0.06303586
182	0xbd60f59c	-0.05492173
183	0xbd9fde4a	-0.0780607
184	0x3de1584a	0.11003168
185	0x3cfd08c0	0.030887961
186	0x3dd28806	0.10279851
187	0x3df6e3e2	0.12055184
188	0x3c82bef0	0.015960187
189	0x3d9e8a9a	0.0774128
190	0xbdb2d2d8	-0.087316215
191	0x3d49a8b4	0.049233153
192	0x3e03e3c9	0.12879862
193	0xbdab493c	-0.08363578
194	0x3d78b082	0.060715206
195	0xbba3d661	-0.004999921
196	0x3def7d4d	0.11693821
197	0x3c9b5726	0.018962454
198	0xbd8357b4	-0.064132124
199	0xbd29ef24	-0.041487828
200	0x3dda83b6	0.10669653
201	0xbdb27d76	-0.08715336
202	0x3e0aa38e	0.13538954
203	0x3dcf5fea	0.10125716
204	0xbc5209dd	-0.012819734
205	0xbda8e83e	-0.08247422
206	0x3c919548	0.017771378
207	0xbd84f6fe	-0.064924225
208	0x3e02d3d8	0.12776124
209	0xbd17f141	-0.037095312
210	0x3d936a22	0.071979776
211	0xbd6c6e3a	-0.057722308
212	0x3d5e4e74	0.054274037
213	0xbdc34c22	-0.095360056
214	0xbd3c9e8f	-0.04604965
215	0xbcf99eb1	-0.030471178
216	0x3cd2cc08	0.025732055
217	0x3d426548	0.04745987
218	0x3cbc5288	0.022988573
219	0x3c93fb30	0.018064111
220	0x3d1c2c24	0.038128033
221	0xbda8eae0	-0.08247924
222	0xbde9e7c8	-0.11421162
223	0x3bd44160	0.00647752
224	0x3d8e2f5c	0.06942627
225	0xbd02275b	-0.031775814
226	0x3dc74517	0.09729975
227	0xbdb00f15	-0.08596627
228	0x3da67b74	0.081290156
229	0xbd996c82	-0.07491399
230	0x3da9b5c2	0.08286621
231	0xbd8be777	-0.06831258
232	0xbc8a7bd8	-0.016904756
233	0xbc5d6635	-0.013513138
234	0x3e172edc	0.14763969
235	0x3d41398c	0.04717402
236	0xbd73ce2c	-0.059522793
237	0x3df8fca9	0.12157566
238	0x3b95e014	0.0045738313
239	0x3cbb90f0	0.02289626
240	0xbdc15bac	-0.09441313
241	0xbde8f922	-0.11375643
242	0x3e0facc7	0.14030753
243	0xbd85298d	-0.06502066
244	0x3de2765f	0.11057734
245	0xbcdcf357	-0.026971502
246	0xbd94eb54	-0.07271448
247	0x3dad450e	0.08460437
248	0xbc241431	-0.01001458
249	0x3cab75a0	0.020930111
250	0x3e198f00	0.14995956
251	0x3da2727c	0.079319924
252	0xbc91c678	-0.017794833
253	0xbcd16bb8	-0.02556406
254	0xbddb136a	-0.10697062
255	0x3dcde42a	0.100532845

fc2.bias f4 [32]
0	0x3d0dec13	0.034648966
1	0x3ca72930	0.020405382
2	0x3d8fd880	0.07023716
3	0xbdbe7326	-0.092993066
4	0x3d5a8668	0.053350836
5	0x3c952e18	0.018210456
6	0x3d4306a8	0.04761377
7	0xbcc16a18	-0.02361016
8	0x3de3b833	0.111191176
9	0xba9693b0	-0.0011488106
10	0xbde492a4	-0.11160782
11	0x3dfbf9a8	0.123034775
12	0xbd81aced	-0.06331811
13	0x3d333ace	0.043757252
14	0xbd37a8b0	-0.044838607
15	0x3de97a0c	0.11400232
16	0xbd82eb36	-0.06392519
17	0x3d3a31b8	0.04545757
18	0xbd3cd1fc	-0.046098694
19	0xbdb556e8	-0.08854467
20	0x3da75d25	0.08172063
21	0x3d1ce725	0.038306374
22	0xbc05f4cf	-0.008176043
23	0x3c0fc590	0.00877513
24	0xbd0dd172	-0.03462357
25	0xb9144c00	-0.00014142692
26	0xbae54912	-0.001749309
27	0xbcf5fc9d	-0.030027682
28	0x3daf5599	0.08561248
29	0xbda7c672	-0.08192147
30	0x3d171b74	0.036891416
31	0xbd8f9784	-0.07011321

pi.weight f4 [1, 32]
0	0xbd8fe8e2	-0.07026841
1	0xbdc7b0d9	-0.09750528
2	0x3d3f9aa6	0.046778344
3	0x3d46b1e2	0.048509486
4	0xbdfc15b1	-0.12308825
5	0x3e2cbcb6	0.16868863
6	0xbb914f9c	-0.004434539
7	0x3d11285c	0.03543888
8	0x3daa67ef	0.08320605
9	0xbd12ffe5	-0.03588857
10	0xbd8fd1fd	-0.07022474
11	0xbe169446	-0.14705
12	0x3e055049	0.13018908
13	0xbe0faa38	-0.14029777
14	0x3cc60326	0.024171423
15	0xbdac9f31	-0.08428801
16	0xbd89473a	-0.067030385
17	0xbe2f6f17	-0.17132221
18	0xbe1155f7	-0.14192949
19	0xbe0ee624	-0.13954979
20	0xbdf00652	-0.117199555
21	0x3a1cceeb	0.0005981761
22	0x3e50b81c	0.20382732
23	0x3e083721	0.1330228
24	0x3de20e51	0.11037887
25	0xbde3da0b	-0.11125573
26	0x3e0030cb	0.12518613
27	0x3df118b3	0.11772289
28	0xbdd8a88e	-0.10579024
29	0x3e02bb5e	0.12766787
30	0x3d8d91cc	0.06912574
31	0xbe16fdad	-0.14745207
