model/maddpg/agent_1_target_actor.pth (torch, 12490 bytes, 5 tensors)

fc1.weight f4 [64, 4]
0	0xbee7bbda	-0.45260507
1	0x3eb43118	0.35193706
2	0xbbdbf700	-0.0067127943
3	0xbeea6b9e	-0.4578523
4	0x3ea65325	0.3248531
5	0xbdd9461f	-0.10609078
6	0x3c08ed5b	0.008357371
7	0x3ee64d49	0.4498084
8	0xbea05b98	-0.3131988
9	0xbe99eec4	-0.30064976
10	0xbd966c70	-0.073449016
11	0x3dd8c840	0.1058507
12	0x3ebb515d	0.36585513
13	0xbe3621a2	-0.17786267
14	0xbe224479	-0.15846433
15	0x3ee302b4	0.44338
16	0x3eab539d	0.3346223
17	0xbee40cb8	-0.44540954
18	0x3ec360a7	0.38159677
19	0xbe86c49e	-0.26321882
20	0x3e1b84bc	0.15187353
21	0x3ef054de	0.4693975
22	0x3ed3d4c4	0.41373265
23	0x3ef61586	0.48063296
24	0xbe31dbf8	-0.17369068
25	0x3e37e1fc	0.179573
26	0xbe8659fb	-0.26240525
27	0x3e2c5530	0.16829371
28	0xbd898280	-0.06714344
29	0xbec6c13a	-0.38819295
30	0xbeac84b1	-0.33694986
31	0x3edaa11a	0.42701036
32	0xbed65244	-0.4185964
33	0x3e07f960	0.13278723
34	0xbef57112	-0.47937828
35	0x3ef368c2	0.4754086
36	0xbe9117be	-0.28338426
37	0xbd5baac0	-0.053629637
38	0xbee96191	-0.4558225
39	0xbed29e9c	-0.41136634
40	0xbe8ccd06	-0.2750017
41	0xbedcd086	-0.4312784
42	0xbe5a2620	-0.21303606
43	0x3eb6e704	0.35723126
44	0xbe91a5c7	-0.2844679
45	0xbecf9f6a	-0.4055131
46	0x3eda5bdc	0.42648208
47	0x3d7b3dd6	0.06133827
48	0xbe7a40b5	-0.24438746
49	0xbe8aa596	-0.27079457
50	0x3ee1fe29	0.4413922
51	0x3e4bf203	0.19916539
52	0xbefba60a	-0.49150115
53	0x3e797532	0.24361113
54	0x3aefb600	0.0018288493
55	0x3ed8c442	0.42337233
56	0xbec376d4	-0.38176596
57	0xbe93341a	-0.28750688
58	0xbc85fac0	-0.016354918
59	0x3eb9b8b4	0.3627373
60	0x3e4cf2a7	0.2001444
61	0x3e9600a0	0.29297352
62	0x3ddb9bc8	0.10723072
63	0xbe25acbc	-0.16179174
64	0xbef6b11c	-0.48182
65	0x3e9cd65a	0.30632287
66	0x3ec0fd7a	0.37693387
67	0xbe253021	-0.16131641
68	0x3e65fdfc	0.22460169
69	0xbe0635a7	-0.13106404
70	0x3e8e2d1a	0.27768785
71	0x3ea4135c	0.3204602
72	0xbe364608	-0.17800152
73	0xbdcd5838	-0.10026592
74	0xbe8ae894	-0.27130568
75	0xbc38fa40	-0.011290133
76	0xbefb5cce	-0.49094242
77	0xbda29950	-0.07939398
78	0xbc8477a0	-0.016170323
79	0xbebe63e4	-0.37185585
80	0x3e357d91	0.17723681
81	0x3d7087a5	0.05872311
82	0x3eae5bc8	0.340544
83	0x3ee35ee4	0.44408333
84	0x3ef1ef05	0.4725267
85	0x3e11bade	0.1423144
86	0x3efaf915	0.4901816
87	0xbd416473	-0.047214936
88	0xbed5c51e	-0.4175195
89	0x3ef52c8a	0.47885543
90	0xbd468380	-0.048465252
91	0xbd2e3340	-0.042529345
92	0xbeaab63e	-0.33342165
93	0xbeb27d9a	-0.3486145
94	0xbebf9730	-0.37420034
95	0x3d839518	0.06424922
96	0x3db48071	0.08813561
97	0xba9dbde0	-0.0012034737
98	0x3eec41e4	0.4614402
99	0x3ea93da0	0.3305483
100	0xbef8ba46	-0.48579615
101	0x3e4f7c6c	0.20262307
102	0xbe36ab44	-0.1783877
103	0x3e091a48	0.13388932
104	0x3eb5e57a	0.3552664
105	0x3e2aca81	0.16678812
106	0x3e9042b4	0.2817589
107	0x3eddea04	0.43342602
108	0x3d26acfc	0.040692315
109	0x3c3c7bcd	0.011504126
110	0x3e66ef00	0.22552109
111	0x3df9ecb9	0.122033544
112	0xbee093f6	-0.43862885
113	0xbeb16762	-0.34649187
114	0xbeef7185	-0.46766296
115	0x3e08fd5f	0.13377903
116	0xbd0f89ef	-0.035043653
117	0xbecfbeab	-0.40575156
118	0x3e7f9c31	0.24961926
119	0x3ddf24db	0.108957015
120	0xbe3b09a4	-0.18265396
121	0xbeb42a4a	-0.35188514
122	0xbe0dc5c0	-0.13844967
123	0xbe560758	-0.20901239
124	0xbe12070c	-0.142605
125	0x3d2a24e1	0.041539077
126	0xbe827b32	-0.25484616
127	0xbebf159e	-0.3732118
128	0x3d1da290	0.03848511
129	0x3ed2b6de	0.41155142
130	0xbeb46ade	-0.35237783
131	0x3e24e504	0.16102988
132	0xbca1e6a0	-0.01976329
133	0xbef5863c	-0.47953975
134	0xbe3a6b74	-0.18205053
135	0xbe2a2394	-0.16615134
136	0x3e986840	0.29767036
137	0x3dc8a44f	0.097969644
138	0xbe17f11b	-0.14838068
139	0x3ed18750	0.40923548
140	0xbeb6fe28	-0.3574078
141	0x3ce27be0	0.027646959
142	0xbdc08158	-0.0939967
143	0xbe50a878	-0.20376766
144	0xbeb12eee	-0.34606117
145	0x3ef58d76	0.4795949
146	0xbe8ec66c	-0.2788576
147	0xbe6e35b4	-0.23262674
148	0x3d5eda70	0.054407537
149	0xbebb7c82	-0.3661843
150	0xbe8f3ca6	-0.2797596
151	0xbeb3f362	-0.35146624
152	0xbe9e87dc	-0.30963027
153	0x3eca5318	0.3951652
154	0xbdf9e4b8	-0.12201828
155	0x3ed10d32	0.4083038
156	0x3e9823e4	0.29714882
157	0xbeafb7d4	-0.34319937
158	0x3e497b27	0.19675885
159	0xbe51729a	-0.20453873
160	0x3e3de3cc	0.18543929
161	0x3e955bc8	0.29171586
162	0xbea36f4d	-0.31920853
163	0x3efd7efc	0.49510944
164	0x3e0dec43	0.13859658
165	0xbeb67ab1	-0.3564048
166	0xbd91a3d3	-0.07111325
167	0xbe8c045e	-0.27347082
168	0xbda22240	-0.07916689
169	0x3ee9c624	0.45658982
170	0xbed2facc	-0.41206968
171	0xbe1db73c	-0.1540193
172	0xbeaeb310	-0.3412099
173	0x3ef24a1e	0.47322172
174	0xbe24824d	-0.16065331
175	0xbe9ee610	-0.310349
176	0xbe9918f0	-0.29901838
177	0xbea4a08c	-0.32153738
178	0xbd9d90e0	-0.07693648
179	0xbe26afb9	-0.1627797
180	0x3eb9fd86	0.36326236
181	0x3e093987	0.13400851
182	0xbdb90c1d	-0.090355136
183	0x3ec02eaf	0.37535617
184	0xbc40448f	-0.011735096
185	0xbe698329	-0.2280394
186	0x3eb6e3c5	0.3572065
187	0xbe951a28	-0.29121518
188	0xbe9bd8b8	-0.3043878
189	0x3e9e58f3	0.30927238
190	0x3e99ba87	0.30025122
191	0x3ebea6e1	0.37236694
192	0xbec06176	-0.37574357
193	0x3efbd1e2	0.49183565
194	0x3eb79e1a	0.3586281
195	0x3e003c42	0.12522987
196	0x3dcf84da	0.10132761
197	0x3ddab80b	0.10679635
198	0xbdba6f32	-0.0910324
199	0x3e48bede	0.1960406
200	0x3ee78ec4	0.4522611
201	0x3de95380	0.113928795
202	0x3a587c43	0.00082582625
203	0x3ea3771c	0.3192681
204	0xbd19e5c0	-0.037572622
205	0xbddefc88	-0.1088801
206	0x3d0409b0	0.0322358
207	0x3ddd2360	0.10797763
208	0xbdf79730	-0.120893836
209	0x3e57055c	0.20998138
210	0xbe8bef3e	-0.27330965
211	0x3ef06d60	0.46958447
212	0x3c9f6f60	0.019462287
213	0x3d9f6070	0.07782066
214	0xbe296474	-0.16542226
215	0xbe87dc78	-0.26535392
216	0xbdd49278	-0.10379499
217	0xbe8f1cb0	-0.27951574
218	0x3d8e1a50	0.069386125
219	0xbde0e4d8	-0.109811485
220	0x3e93eb08	0.28890252
221	0xbce03778	-0.0273702
222	0x3cb09c5a	0.02155893
223	0xbeb97e91	-0.36229375
224	0x3e1793d0	0.1480248
225	0xbe10ef84	-0.14153868
226	0xbe5663fc	-0.20936579
227	0x3e85dc28	0.26144528
228	0x3e242910	0.16031289
229	0x3e97b3ca	0.29629356
230	0xbeb125b0	-0.34599066
231	0xbe11e034	-0.14245683
232	0xbcf226e1	-0.029559555
233	0x3d3c244e	0.04593306
234	0x3d80c8e2	0.06288315
235	0xbeb923f1	-0.36160234
236	0xbee256ba	-0.44206792
237	0x3e035b54	0.12827808
238	0x3ea4e892	0.32208687
239	0xbef6e0c2	-0.48218352
240	0xbc0f5e00	-0.008750439
241	0xbed2ba02	-0.41157538
242	0xbecaddee	-0.39622444
243	0x3e262018	0.1622318
244	0x3e181cdc	0.14854759
245	0xbeee27d4	-0.4651476
246	0x3e71f9f6	0.23630509
247	0xbe80531b	-0.25063404
248	0xbd6d3799	-0.05791435
249	0x3e56342f	0.20918344
250	0x3eaebb18	0.34127116
251	0xbe97c3cc	-0.2964157
252	0xbd988c00	-0.07448578
253	0x3e483c08	0.1955415
254	0xbe80de84	-0.25169766
255	0x3ebdfec6	0.3710844

fc1.bias f4 [64]
0	0xbed1ffd4	-0.41015494
1	0xbd8de7f6	-0.06929009
2	0xbecf9942	-0.40546614
3	0x3e8717d2	0.2638536
4	0xbebe09d9	-0.37116888
5	0x3ea4ea99	0.32210234
6	0x3e476c7c	0.19474977
7	0x3e48206c	0.19543618
8	0xbddec790	-0.10877907
9	0xbeec6434	-0.461702
10	0x3edeb1e8	0.43495107
11	0xbe5a0ee7	-0.21294747
12	0xbee33ce8	-0.44382405
13	0x3e721028	0.23638976
14	0xbe984dd8	-0.2974689
15	0xbee35fac	-0.4440893
16	0xbbf9b400	-0.0076203346
17	0x3ed60c57	0.4180629
18	0xbdb50ed8	-0.08840722
19	0x3e976670	0.2957034
20	0xbd184ce8	-0.03718272
21	0x3df132bd	0.11777256
22	0xbe559314	-0.20856887
23	0x3e85a616	0.26103276
24	0xbe0b9187	-0.13629733
25	0xbecd7c6e	-0.40133995
26	0x3dedb6f1	0.11607159
27	0xbe3883ca	-0.18019024
28	0xbef387be	-0.475645
29	0xbe052117	-0.13000904
30	0x3ef3559e	0.47526258
31	0xbec3cdea	-0.38243037
32	0x3e886ed6	0.2664706
33	0x3c52ba80	0.012861848
34	0xbcc79662	-0.0243637
35	0x3d16f8a0	0.0368582
36	0xbe20ca14	-0.15702087
37	0xbe50f4c0	-0.20405865
38	0xbde39b38	-0.1111359
39	0xbee80200	-0.45314026
40	0x3e808062	0.25097948
41	0xbeb11cdd	-0.34592333
42	0xbe5cad50	-0.21550488
43	0x3ec51aba	0.38496953
44	0xbcfcd120	-0.030861437
45	0xbd2844cc	-0.041081235
46	0x3ef804d5	0.48441187
47	0xbebd0b8e	-0.36922878
48	0xbc310bad	-0.010806006
49	0xbe34a26e	-0.17640087
50	0x3ecaa5fa	0.39579755
51	0xbe9bc296	-0.30421895
52	0xbe5ded60	-0.21672583
53	0x3edf749a	0.43643647
54	0x3edd5136	0.43226022
55	0x3eb3608e	0.35034603
56	0x3ebc3d20	0.36765385
57	0xbe847888	-0.25873208
58	0x3ee0ae9d	0.4388322
59	0xbd4bd4d0	-0.0497635
60	0x3e9833a4	0.297269
61	0x3ecb86fb	0.3975142
62	0x3eb75f35	0.35814825
63	0xbe96e6f0	-0.29473066

fc2.weight f4 [32, 64]
0	0xbb081700	-0.0020765662
1	0x3de8ff85	0.113768615
2	0x3dcc81d2	0.09985699
3	0x3c5e8ce8	0.013583399
4	0x3d758242	0.059938677
5	0xbdaaa758	-0.083326995
6	0x3d5529cc	0.052041814
7	0x3df26202	0.118351
8	0x3de00af8	0.10939592
9	0x3d3c92e8	0.04603854
10	0x3d011498	0.03151378
11	0x3d4a41fb	0.04937933
12	0xbde0fe4c	-0.10986003
13	0xbd0364b0	-0.032078445
14	0x3d91d4a8	0.07120639
15	0x3dc6af87	0.09701448
16	0xbd68925c	-0.056780204
17	0x3daad125	0.083406724
18	0xbdd24de6	-0.10268764
19	0x3d844646	0.06458716
20	0x3dfca27a	0.123356774
21	0xbc029c2a	-0.007971803
22	0xbcfc4930	-0.030796617
23	0xbcf3f562	-0.029780094
24	0x3e01195a	0.12607327
25	0xbd69f601	-0.057119373
26	0x3d969c7c	0.07354066
27	0xbdc4ad76	-0.096033975
28	0xbd64af00	-0.055830956
29	0x3cce1097	0.025154395
30	0xbd1311a0	-0.03590548
31	0x3daae7dc	0.08345005
32	0x3d5817c8	0.052757055
33	0x3dbd83a6	0.092536256
34	0xbc84a15a	-0.01619022
35	0x3db6c80a	0.08924873
36	0xbd3d8028	-0.046264797
37	0xbd8cefcc	-0.06881675
38	0x3d3b609a	0.045746423
39	0x3dbf80da	0.09350748
40	0x3dda3242	0.10654117
41	0x3d9deacc	0.077107996
42	0xbd5894e0	-0.052876353
43	0x3dddf2e6	0.10837345
44	0xbd0f8750	-0.035041153
45	0x3da5c559	0.08094282
46	0xbd442072	-0.047882505
47	0x3da8f495	0.08249775
48	0x3d9a4ef8	0.07534593
49	0xbd9515db	-0.07279559
50	0x3cfcd47a	0.030863035
51	0xbd034380	-0.032046795
52	0x3b183cc0	0.002322957
53	0x3dfb9b86	0.12285523
54	0xbd29aff4	-0.041427568
55	0x3c4480ef	0.011993631
56	0xbcf6c298	-0.030122086
57	0x3d83a1e4	0.064273626
58	0x3d9fd24c	0.07803783
59	0xbd01a91c	-0.031655416
60	0xbdc3d1f8	-0.09561533
61	0xbcc9916a	-0.024605472
62	0xbc150ed3	-0.009097773
63	0xbc298eb0	-0.010348961
64	0x3cc14408	0.02359201
65	0xbd1ab9b4	-0.037774757
66	0x3dae9e14	0.08526245
67	0xbd863278	-0.06552595
68	0xbd7875c4	-0.060659185
69	0xbd43079c	-0.04761468
70	0xbc2cd040	-0.010547698
71	0xbdaec062	-0.08532788
72	0xbdb8a108	-0.09015089
73	0x3cb85508	0.022501484
74	0xbbfc4c8a	-0.007699554
75	0xbb5b4880	-0.0033459961
76	0xbdb0d1d2	-0.0863377
77	0xbd6e5b65	-0.05819263
78	0x3d510388	0.05102876
79	0x3db6f120	0.0893271
80	0x3d1e3a24	0.038629666
81	0x3d879cb2	0.06621684
82	0x3c4e3010	0.012584701
83	0x3d9876d6	0.07444541
84	0xbdec1f3a	-0.115293935
85	0x3daf6c8a	0.08565624
86	0x3d7f4600	0.062322617
87	0x3d9122ee	0.070867404
88	0x3d8fe0e8	0.07025319
89	0x3d92d7f0	0.07170093
90	0xbdfdf3c0	-0.12400007
91	0xbdab6526	-0.08368902
92	0x3d380648	0.044927865
93	0xbd629bfc	-0.05532454
94	0xbdfec87a	-0.124405816
95	0x3dd03ea6	0.10168199
96	0x3d35efbc	0.04441808
97	0x3c462a60	0.012095064
98	0xbdc67873	-0.096909426
99	0xbc66d5d0	-0.014089063
100	0xbdffd04a	-0.124909
101	0x3c8bef18	0.017081782
102	0xbb94ca00	-0.004540682
103	0x3c81a258	0.015824482
104	0xbd381678	-0.044943303
105	0xbdae184c	-0.08500728
106	0x3dcc552a	0.09977181
107	0x3d33f828	0.043937832
108	0x3d288524	0.041142598
109	0xbd85e836	-0.06538431
110	0xbdc1ac64	-0.09456709
111	0x3daa2424	0.083076745
112	0xbde62320	-0.11237168
113	0xbd97cab2	-0.07411708
114	0x3dda884a	0.10670526
115	0x3dfd2592	0.123606816
116	0xbda150ea	-0.07876761
117	0x3d24f3ac	0.040271446
118	0x3ca94100	0.020660877
119	0xbdee5828	-0.11637908
120	0x3d3658e0	0.04451835
121	0xbdc6c632	-0.097057715
122	0xbd852142	-0.06500484
123	0x3da83856	0.0821387
124	0xbd512ca0	-0.05106795
125	0x3d674818	0.05646524
126	0xbd19cab4	-0.03754683
127	0x3da38b96	0.07985608
128	0x3cc300d8	0.023804113
129	0xbd618449	-0.055057798
130	0x3d99266e	0.07478033
131	0x3d96f847	0.07371574
132	0x3da7b700	0.08189201
133	0x3db3ca05	0.087787665
134	0xbc018140	-0.007904351
135	0x3dc20ccf	0.09475099
136	0x3d238494	0.03992136
137	0xbafffe80	-0.0019530803
138	0xbd8495e2	-0.064739004
139	0xbdb558da	-0.08854838
140	0x3d205014	0.03913887
141	0x3d085db8	0.033292502
142	0xbd8b3616	-0.067974254
143	0x3d0bbbb6	0.034114562
144	0xbdaf569a	-0.0856144
145	0x3d816d0a	0.06319626
146	0x3df66076	0.12030117
147	0x3cc5c9f8	0.024144158
148	0xbb989270	-0.0046561286
149	0x3d384549	0.04498795
150	0x3c8d9b90	0.017286092
151	0x3d9b3546	0.075785205
152	0x3dceba1e	0.10094093
153	0x3ddd5738	0.10807651
154	0xbd87814b	-0.066164576
155	0xbc746fa6	-0.014919197
156	0x3dc24b0a	0.09486969
157	0x3de5a550	0.112131715
158	0xbdc58d4b	-0.0964609
159	0x3db6457e	0.08899973
160	0xbced7690	-0.028987199
161	0x3c47beb0	0.01219146
162	0x3d91bf8f	0.07116615
163	0x3d6cbb61	0.057795886
164	0xbd2c12bc	-0.042010054
165	0x3d4fc4dc	0.05072485
166	0xbda43b00	-0.08019066
167	0xbd4e1d7b	-0.050321084
168	0xbdbafc66	-0.091301724
169	0xbd097b8b	-0.033565085
170	0xbd5ef120	-0.054429173
171	0x3db8ce7c	0.09023759
172	0x3cd10ab4	0.025517799
173	0x3d8144b5	0.06311933
174	0x3d9cdda7	0.07659464
175	0x3db58f89	0.08865268
176	0x3b45104a	0.0030069523
177	0x3d48562e	0.048910312
178	0x3d4c39e2	0.04985989
179	0x3d5b1204	0.053483978
180	0xbd236c30	-0.039898098
181	0x3d53b40c	0.051685378
182	0xbd23bfa0	-0.03997767
183	0xbd924eec	-0.071439594
184	0x3ce182d8	0.027528211
185	0x3d80ab28	0.062826455
186	0x3cba5e01	0.022749903
187	0xbd83b650	-0.06431258
188	0xbcab1270	-0.020882815
189	0xbdf5d76a	-0.120039776
190	0x3de29d88	0.11065203
191	0x3da14210	0.078739285
192	0xbd938320	-0.072027445
193	0xbdb661c0	-0.08905363
194	0xbd21d238	-0.03950712
195	0x3d5634cc	0.052296445
196	0xbc4cde57	-0.012504182
197	0x3d8ddfec	0.06927475
198	0xbd883a5c	-0.06651756
199	0xbd7293a0	-0.059222817
200	0x3d9f5de4	0.0778158
201	0xbc3ab850	-0.011396483
202	0xbdc514ae	-0.09623085
203	0xbda3c3e0	-0.079963446
204	0xbc570a30	-0.0131249875
205	0x3c2b0390	0.010437861
206	0x3d031f0c	0.03201203
207	0x3d78cc20	0.060741544
208	0x3d1ce648	0.03830555
209	0xbd09fab8	-0.03368637
210	0x3d8367d0	0.06416285
211	0xbdef92ec	-0.11697945
212	0xbd5d6378	-0.05404994
213	0xbdd697aa	-0.104781464
214	0x3dd7ae68	0.10531312
215	0xbcb10fd8	-0.021614
216	0x3c87cac0	0.01657617
217	0x3dec03c9	0.115241595
218	0x3d1bc04c	0.038025185
219	0x3dce91c8	0.10086399
220	0xbcc69fb0	-0.024246067
221	0xbd1ad948	-0.03780487
222	0x3d62e394	0.055392817
223	0x3d374da2	0.04475177
224	0x3db32edc	0.08749172
225	0x3dd61532	0.104532614
226	0x3d34a912	0.04410655
227	0x3d9ce2bc	0.07660434
228	0xbd1b8268	-0.037966162
229	0xbdd74df0	-0.10512912
230	0x3d0a2ccc	0.033734128
231	0xbbb2f780	-0.005461633
232	0x3d077f18	0.03308019
233	0x3d693478	0.056934804
234	0xbd8b7864	-0.06810072
235	0x3dee2856	0.11628787
236	0x3d0634d4	0.032765225
237	0x3d34b0b8	0.044113845
238	0x3d523b48	0.051326066
239	0x3d4a0e84	0.04933025
240	0x3d15cee4	0.03657426
241	0xbd2c687c	-0.04209183
242	0x3d53e2fc	0.05173014
243	0x3dc3599f	0.09538578
244	0x3d978d90	0.07400048
245	0xbdf289ca	-0.118426874
246	0xbded4504	-0.11585429
247	0xbc6ace10	-0.014331356
248	0xbd8ba14a	-0.06817873
249	0x3ddc666c	0.10761723
250	0x3d921486	0.07132821
251	0xbddd3d10	-0.108026624
252	0xbd94703e	-0.07247971
253	0xbd76a7a4	-0.06021847
254	0x3da6ff69	0.08154184
255	0x3bbf2e60	0.0058343858

fc2.bias f4 [32]
0	0xbd32f5e9	-0.04369155
1	0x3ddca586	0.107737586
2	0x3d5dd2f7	0.05415627
3	0x3d7c40f8	0.061585397
4	0x3d1ab09f	0.037766095
5	0xbdee3af8	-0.11632341
6	0xbd8fa41a	-0.07013722
7	0x3c7b3690	0.015332833
8	0x3dbed626	0.09318189
9	0x3b29ccfc	0.0025909534
10	0xbdc60ed0	-0.09670794
11	0xbc216b30	-0.009852216
12	0xbd8fabeb	-0.070152126
13	0xbdb41b46	-0.087942645
14	0xbdce1fd3	-0.10064664
15	0x3cc3ba7f	0.02389264
16	0x3debe4ca	0.115182474
17	0x3dc59133	0.09646835
18	0x3d7a624e	0.061128907
19	0xbdd39c1f	-0.10332512
20	0xbdaa8111	-0.08325399
21	0xbd5a3e48	-0.053282052
22	0x3d801502	0.06254007
23	0xbc9d5bc8	-0.019208804
24	0xbdcadb0e	-0.099050626
25	0xbd80615e	-0.06268571
26	0xbcc98422	-0.024599139
27	0xbd3d5614	-0.04622467
28	0x3c776382	0.015099408
29	0xbd508b5b	-0.05091415
30	0x3cfcb27d	0.030846829
31	0x3de0f266	0.10983734

pi.weight f4 [1, 32]
0	0x3dc8562f	0.09782063
1	0x3e2374d8	0.15962541
2	0xbe2c9194	-0.16852409
3	0xbdfedcad	-0.12444434
4	0x3baaea25	0.0052159005
5	0x3dd9d130	0.106356025
6	0x3de9cfb9	0.11416573
7	0xbd8b1331	-0.0679077
8	0x3cc2e087	0.023788704
9	0xbdf4c2d9	-0.11951227
10	0xbd84b248	-0.06479317
11	0x3dfc509a	0.12320061
12	0xbd94d94f	-0.07268011
13	0x3c9bbdc6	0.01901139
14	0xbe2155bc	-0.15755361
15	0x3d391d4e	0.045193963
16	0xbdf17026	-0.11788969
17	0x3e347e7e	0.17626378
18	0x3e24b041	0.1608286
19	0x3d58d53c	0.05293773
20	0xbdfaa57d	-0.12238596
21	0x3d93480a	0.07191475
22	0x3e10b064	0.14129788
23	0x3dc50357	0.09619778
24	0x3dc8672e	0.09785305
25	0xbd4fad16	-0.050702177
26	0x3e305e3e	0.1722345
27	0x3d9702c9	0.07373578
28	0x3dfe3e32	0.124142066
29	0x3c07f3bf	0.00829786
30	0x3bae55ed	0.0053203017
31	0xbcc10843	-0.02356351
