model/maddpg/agent_0_actor.pth (torch, 12420 bytes, 5 tensors)

fc1.weight f4 [64, 4]
000000 44 f8 68 be 6a c5 97 3e 32 d2 9c be 80 e5 91 3e
       -0.22750956 0.29642802 -0.30629116 0.28495407
000010 fe 08 92 be 94 c1 2e be c2 74 fa be 60 0f d7 bd
       -0.28522485 -0.17066032 -0.48917204 -0.105009794
000020 30 45 9b 3e c0 fb 95 3d ac 6f e4 be 00 fa db 3a
       0.30326223 0.07323408 -0.4461645 0.001678288
000030 ca 75 da be e0 21 c2 bc 5a 3c c6 3e d6 a1 9c 3e
       -0.4266799 -0.023697793 0.3871792 0.3059222
000040 88 49 03 3e 35 7b 6e 3e 09 5d 38 3e ec 70 bb be
       0.12821019 0.23289187 0.1800424 -0.3660959
000050 ed de a8 3e 43 b2 5c be d7 01 2a be 63 be f7 be
       0.3298258 -0.21552376 -0.16602264 -0.4838744
000060 c9 87 59 3e 84 c2 c0 3d 97 a0 6a 3e 97 4e a9 3e
       0.21243204 0.09412101 0.22912823 0.33067772
000070 00 51 69 be 60 e1 98 3d ac bf d4 be 0c 6e 5c be
       -0.22784805 0.07464862 -0.41552484 -0.21526355
000080 0e 16 b5 3c 92 4d 61 3e 29 9e c5 3d a8 7a 8f 3e
       0.022105243 0.22002247 0.09649307 0.28023267
000090 7c 51 73 be 62 d7 ab be 38 27 5a 3e 0c 79 6d be
       -0.23761553 -0.33562762 0.21304023 -0.23190707
0000a0 38 f4 1e be 80 3a a8 3e 50 93 ea bd a0 3a b7 bd
       -0.1552285 0.32857132 -0.11453879 -0.08946729
0000b0 40 a9 bc be 70 ad 01 3e 54 9a 6c be 06 fe 8e 3e
       -0.36847878 0.12663817 -0.23105747 0.2792818
0000c0 74 bb 34 be 4c f8 e9 be d4 3a 8c be d0 8d a7 3d
       -0.17649633 -0.45697248 -0.27388632 0.081813455
0000d0 a2 43 90 be 2a 35 c5 be ec fa 9c be ae a6 fb be
       -0.281766 -0.38517123 -0.30660188 -0.49150604
0000e0 36 05 98 be c4 00 43 be 06 55 ab be f0 e2 2a 3d
       -0.29691476 -0.19043261 -0.33463305 0.04172033
0000f0 f2 73 bb 3d 9d 61 3f be 82 1e e1 3e c9 58 bd be
       0.09152974 -0.1868958 0.43968588 -0.369818
000100 67 4c 66 3e 15 be 05 3d 80 10 a6 bd c8 67 b7 3d
       0.22490083 0.03265198 -0.08108616 0.089553416
000110 01 08 c0 3e b8 89 23 bd 62 eb f9 3e 37 86 ed 3e
       0.37506106 -0.03992626 0.48812395 0.4639146
000120 88 ac fc 3e 3c 10 dd 3e 2d 9d cd be d6 c7 45 bd
       0.4935038 0.43176448 -0.40158978 -0.04828628
000130 08 40 fb 3d d8 7c 73 3e 03 0f ee 3e 5f 26 f8 3e
       0.12268072 0.23778093 0.46495828 0.48466775
000140 bc 90 80 3e 31 e8 12 bc 2e 61 c3 3b db fe a1 bd
       0.25110424 -0.008966492 0.0059625125 -0.07909938
000150 44 2d 51 3e 78 1e 86 3d dc 00 f2 be a0 b9 eb bc
       0.20427424 0.0654878 -0.4726628 -0.028775036
000160 08 a0 cc bd 10 1a 21 3e 14 2b d5 be 40 d9 a8 bd
       -0.09991461 0.15732598 -0.41634429 -0.08244562
000170 17 c6 45 bd 74 00 c1 3c e7 b2 cb 3e 19 ec 05 3e
       -0.048284616 0.023559786 0.3978493 0.13078345
000180 35 96 b2 3e fc 40 1f be 4e ed 15 be de 5a 72 bd
       0.34880224 -0.15552133 -0.14641306 -0.05916869
000190 3c df d0 be bc 48 fe 3e 92 b9 9b 3e 44 54 b4 be
       -0.40795314 0.49664867 0.30415016 -0.3522054
0001a0 58 02 38 be e4 55 89 3e 10 43 26 3e 60 a7 8a 3d
       -0.17969644 0.26823342 0.1623652 0.067702055
0001b0 fc 05 b7 3e 57 16 75 3e b7 d9 4d 3e 60 41 a3 3e
       0.35746753 0.23934303 0.20102583 0.31885815
0001c0 be 90 89 3e f8 7a 89 bd ca 11 9e be 00 b0 35 bc
       0.26868242 -0.067129076 -0.30872947 -0.011089325
0001d0 a0 71 7b 3d e0 89 ff bd 52 fc 85 be 62 6d c4 3e
       0.061387658 -0.124774694 -0.26169068 0.38364702
0001e0 3e 03 a2 be b6 fa ed be 91 e9 cc 3e 0a e5 6f 3e
       -0.316431 -0.4648034 0.40021947 0.23427215
0001f0 b0 e5 6c bd 06 dc 95 3e bc c8 75 be d0 e4 00 be
       -0.057836235 0.29269427 -0.24002355 -0.12587285
000200 7e 9a f1 3e 97 df e6 3e 6c 16 8f 3e 04 d3 b4 bb
       0.4718818 0.4509246 0.27946794 -0.005518319
000210 f0 22 cb bd 88 f9 68 be 10 65 3e be d4 3b a6 3e
       -0.09918773 -0.22751439 -0.1859324 0.3246752
000220 90 fb 0e be d4 61 61 3e c0 2b ec 3c f4 4f 5d 3e
       -0.13963151 0.22009975 0.028829455 0.21612531
000230 5c e3 22 be 30 23 96 bd fc b3 67 be 32 cb e6 be
       -0.15907043 -0.0733093 -0.22627252 -0.450769
000240 19 4e ca 3e d4 43 a2 3e 0b a9 26 3e 33 cb 9f be
       0.3951271 0.31692374 0.16275422 -0.31209716
000250 2d e4 f2 3e e9 75 53 bb 61 6e 1a bd 62 e1 8a bd
       0.4743971 -0.0032266325 -0.03770292 -0.067812696
000260 c5 ba a5 3c 27 08 88 3d f2 43 91 3e 14 ed be be
       0.02023066 0.0664218 0.2837215 -0.3729025
000270 10 07 e3 bd 30 df 02 3e 32 fe fb be ac 9d bf be
       -0.110853314 0.12780452 -0.49217373 -0.37424982
000280 01 32 95 3e 52 03 a7 be cc a4 c2 3e 28 e5 a2 3e
       0.29139712 -0.3261972 0.38016355 0.31815457
000290 e8 c4 8a 3e 5e 4c e1 be a6 fe e1 be c0 54 b4 3d
       0.27103353 -0.44003576 -0.44139594 0.08805227
0002a0 47 2a 14 3d 65 bb 24 3e 56 5c b6 3e 62 50 bb 3e
       0.03617313 0.1608711 0.35617322 0.36584765
0002b0 20 60 c0 bd 00 44 04 3c ca 7f ac be c6 09 a2 be
       -0.093933344 0.008072853 -0.33691245 -0.31648082
0002c0 90 42 aa 3e ac 7c 14 3e f1 88 f9 3d a8 5d 44 be
       0.33253908 0.14500684 0.121843226 -0.19176352
0002d0 5b 2b 94 3e fd ce 34 be 76 17 85 be fa 60 4f be
       0.28939328 -0.17657085 -0.25994462 -0.20251837
0002e0 de 3d f5 be 00 9b 7c 3e 52 5a b7 3e 38 53 9c bd
       -0.47898763 0.24668503 0.35811096 -0.0763306
0002f0 63 e6 f5 3d 59 da 4a 3e a6 2f 5b 3e 2c fc 40 bb
       0.120068334 0.19809856 0.21404895 -0.002944718
000300 65 8b ca 3e ad 38 82 be 59 d7 ad be a9 9e 83 be
       0.39559475 -0.25433865 -0.3395336 -0.25706986
000310 79 db 9b 3e 9c 58 51 be e1 17 9e be e0 e3 27 3e
       0.30440882 -0.20443958 -0.30877593 0.16395521
000320 0c 69 0e 3e d2 24 84 be c8 2c 66 be be 2b a8 be
       0.1390726 -0.25809342 -0.2247802 -0.32845873
000330 0a c7 cc 3c 5e eb 70 bd e7 3d 01 3e e8 c0 fa be
       0.024997253 -0.058818214 0.1262127 -0.489753
000340 f6 9b 7b 3d 0c a3 3a 3e 8d 09 b1 3d 0e b5 fb be
       0.061428033 0.1822626 0.086444 -0.4916157
000350 76 5e f2 be 34 b6 95 be ac d4 2a be 78 55 fb 3e
       -0.47337693 -0.29240572 -0.1668269 0.49088645
000360 3e 5f fd be 74 82 fd be e8 57 f2 3e 34 8b b0 be
       -0.49486727 -0.4951359 0.47332692 -0.34481204
000370 b8 29 38 3e 40 a2 75 bd 10 d5 a7 be c6 75 dc be
       0.17984664 -0.059969187 -0.3277974 -0.43058604
000380 9c 78 20 be 84 e8 35 be 40 0e 0f 3d f8 f2 e4 be
       -0.15671009 -0.17764479 0.0349257 -0.4471662
000390 51 75 f1 3d 1b d8 99 3e b1 ae 0e 3e af c9 34 3e
       0.117899545 0.30047688 0.13933827 0.17655061
0003a0 58 6d d9 3e 71 1e 04 be 94 06 1e bd 82 90 ca 3e
       0.42466235 -0.12902237 -0.038580492 0.39563376
0003b0 58 62 12 be b4 e7 74 3e 10 96 cc be ec 3a c8 3e
       -0.14295328 0.23916513 -0.3995824 0.39107454
0003c0 e6 ec ae 3e f1 56 d8 be 44 8c 91 3e 34 a8 7f be
       0.34165114 -0.4225383 0.28427327 -0.24966508
0003d0 3c 0a af be 60 60 f2 be 48 fa 33 be 2c 3d a7 3e
       -0.34187496 -0.47339153 -0.17575943 0.32663858
0003e0 28 73 d6 3e 9a 6d 61 3e 9e 60 0c be fc 79 81 be
       0.41884732 0.22014466 -0.13708732 -0.2528838
0003f0 f9 43 3b be 41 5d ff 3d 20 98 7d 3e c2 cf 95 be
       -0.18287648 0.12468959 0.24765062 -0.2926007

fc1.bias f4 [64]
000000 fe da b2 3e 90 86 57 3d e8 ab 31 be 04 1e eb be
       0.34932703 0.052618563 -0.17350733 -0.45921338
000010 0a 5f c1 bc 91 50 2c be ce 73 35 be 3a 6c e1 3e
       -0.023604888 -0.16827609 -0.17719957 0.44027883
000020 a4 27 0c 3e 48 5e df 3d ce 17 f4 3e a0 8a c6 bc
       0.13686997 0.109066546 0.47674412 -0.024236023
000030 b0 cf 8b 3d ac 34 60 3e b0 e7 91 be cb 71 dd 3e
       0.068267226 0.21895093 -0.28497076 0.4325088
000040 58 ae a1 3d 53 92 f7 3e 47 8a 16 be 6a 8a 04 be
       0.078945816 0.48353824 -0.14701186 -0.12943426
000050 89 ae d2 be 38 22 52 3e 78 9d ad be 4b 10 c1 3e
       -0.41148785 0.20520866 -0.33909202 0.37707743
000060 db 36 de 3c 84 f8 d6 3e a4 86 c4 be 1e b6 93 3e
       0.027125767 0.41986477 -0.38383973 0.28849882
000070 a0 1e d0 3c 38 fa dc 3d 39 fb c3 bd a8 30 97 3e
       0.025405228 0.10789913 -0.09569401 0.2952931
000080 1f 84 ea 3e e0 08 d9 3c ec c9 f1 3e 8e 4e b3 be
       0.45803925 0.02649349 0.47224367 -0.3502087
000090 ec e9 9b be ae b3 81 3e 87 1f 98 3e bc e3 6b 3e
       -0.30451906 0.25332397 0.29711553 0.23036093
0000a0 62 71 b8 3d 42 11 ca be 0a ef f4 be 52 d8 cf 3e
       0.09006001 -0.39466292 -0.47838622 0.40594727
0000b0 84 a6 8b 3e d3 be c2 3e ee 32 c5 be 09 39 80 3d
       0.2727548 0.38036212 -0.3851542 0.062608786
0000c0 d2 db d3 be 84 4a ac be 80 1b e9 3c 57 fc 0a be
       -0.41378647 -0.336506 0.028455496 -0.13572823
0000d0 fe 99 9e bd 70 56 4c 3e 00 db a0 bd 90 2d d6 3d
       -0.077442154 0.19954848 -0.07854271 0.10457909
0000e0 28 c2 6f 3e 81 ab e3 be 9f 1a 2b 3e e2 5e d1 be
       0.23413908 -0.44466785 0.16709374 -0.40892702
0000f0 6a c6 be be 52 d7 8a be b3 2b 0f be fe 32 75 3e
       -0.37260753 -0.271174 -0.13981514 0.23945233

fc2.weight f4 [32, 64]
000000 c8 6e 48 bd a8 a9 75 bd 38 1d b6 3d 00 1c 4e 39
       -0.048933774 -0.05997625 0.08892292 0.00019656122
000010 2e 71 a8 3d c8 f4 52 3d a0 97 b4 bc 42 2f 82 bd
       0.08224712 0.051502973 -0.022044957 -0.0635667
000020 00 51 95 3a 5c 93 3c 3d 32 39 c1 bd c8 a3 8c bd
       0.0011391938 0.04603897 -0.09434737 -0.06867176
000030 38 36 71 bd d0 97 3a bd 10 34 0a 3d 0a 4a a4 bd
       -0.058889598 -0.045554936 0.033741057 -0.08021934
000040 68 e8 84 3d 0a 4a a4 bd f2 db 8e bd 40 24 6e 3b
       0.064896405 -0.08021934 -0.06975545 0.0036337525
000050 28 f0 7d bd 08 eb b5 bd 94 22 0f bd e4 3b 0c 3d
       -0.06199661 -0.08882719 -0.034945086 0.034236804
000060 10 6a 7f 3d d4 29 32 bd 40 f0 b7 3d 6e 77 cd 3d
       0.06235701 -0.04349692 0.08981371 0.10032545
000070 b8 8e 22 3d a2 a1 c2 bd a2 42 f4 bd 60 ad 96 3d
       0.03968689 -0.09503485 -0.11926772 0.073572874
000080 00 64 b0 39 f8 29 98 bc 76 ed e1 3d 28 69 8a bd
       0.00033643842 -0.0185747 0.1103162 -0.06758338
000090 44 38 81 bd a2 33 9b bd 02 2a ed 3d e8 f7 9d bc
       -0.0630956 -0.075782076 0.11580278 -0.01928325
0000a0 58 90 7c 3d ac 59 5d bd a0 d5 e7 bd 70 33 18 3d
       0.061661094 -0.054040596 -0.113200426 0.03715843
0000b0 00 f5 10 3c 74 bd 1f bd b4 6e 38 3d 30 32 c2 bc
       0.008847475 -0.038999036 0.04502745 -0.023705572
0000c0 54 b7 a7 3d c0 c9 fe 3b 48 9c f9 3d 80 2c 20 3b
       0.08189264 0.0077755153 0.121880114 0.0024440587
0000d0 d0 53 1c bd d2 bb d3 3d c0 87 a1 3b a0 3a 35 bc
       -0.038165867 0.10338558 0.0049295127 -0.011061341
0000e0 e4 82 ac 3d 38 5f 08 bd d0 aa 85 3d f6 24 f8 bd
       0.08423403 -0.033293933 0.065267205 -0.12116425
0000f0 c8 cd f9 3c dc 92 59 bd 62 f1 8e bd 0c dd 71 bd
       0.030493632 -0.05311857 -0.06979634 -0.059048697
000100 6e 53 aa 3d 54 68 24 3d 00 04 57 3b 8a e7 b1 3d
       0.08316694 0.040138558 0.003280878 0.08686741
000110 b9 1c 12 3d 6a df f3 3d 43 dd 13 3d 28 03 40 bd
       0.035671923 0.11907847 0.036099683 -0.04687801
000120 42 1c b1 bd 7c 60 09 bd 96 94 81 3d 30 49 da 3d
       -0.08647968 -0.03353928 0.06327169 0.10658491
000130 76 cc 90 3d 20 01 5b 3d 90 db a6 3c d8 e8 f5 3d
       0.07070248 0.05346787 0.020368367 0.12007302
000140 3e c8 b7 bd 6f 0c 92 bd 77 f2 d4 3d fb 91 be 3d
       -0.0897374 -0.07131278 0.10397809 0.09305187
000150 6c b6 73 bd 08 c7 c1 3c ea 39 f2 bd e5 2d d4 bd
       -0.059500143 0.023654476 -0.118274525 -0.10360316
000160 9f f2 dd 3d 16 a0 ed bd a8 d9 bb bd d0 53 fe 3d
       0.10837292 -0.116027996 -0.09172374 0.1241833
000170 d0 98 3a bd 90 93 7b 3c 7d f1 c9 bc 3e 83 c5 3d
       -0.04555589 0.015355006 -0.024651283 0.09644173
000180 33 7e 54 bb d0 00 6f 3d 54 b4 f3 bd 18 a3 bf bd
       -0.0032423853 0.058350384 -0.11899629 -0.093572795
000190 c4 f1 ee bd e8 d1 03 3e 98 9c 70 3d 60 77 e7 3c
       -0.11667207 0.12873042 0.05874309 0.028255165
0001a0 f3 fe 7e 3d 62 7d 9f 3d bb 26 94 bd f8 cc 8b 3c
       0.062254857 0.07787587 -0.0723395 0.01706551
0001b0 f4 88 9c bd 3a 8e 3a bc 9a 62 ad bd 79 37 c1 3d
       -0.07643309 -0.0113864485 -0.084660724 0.09434409
0001c0 79 d5 f4 bd 91 0d f5 bc 5c d1 80 bd 7d c3 ea 3c
       -0.11954779 -0.029913696 -0.06289932 0.02865767
0001d0 98 b6 4d 3d 54 31 c1 3d 98 e7 9b 3c b8 d8 14 3d
       0.050222963 0.09433237 0.019031331 0.03633949
0001e0 66 71 89 3d 19 d0 2e 3d be df 37 3d 50 cd 7e bd
       0.06711082 0.042678926 0.04489111 -0.06220752
0001f0 ac ce 5c 3d 10 6f 82 bc 14 0a d4 bd 43 52 7a bc
       0.053908035 -0.0159221 -0.10353485 -0.015278402
000200 20 c6 a1 bb 5e 28 9f bd d0 8d e8 3d a0 31 c1 bd
       -0.0049369484 -0.07771371 0.113551736 -0.09433293
000210 e5 30 d6 3d a6 88 34 3d 51 57 b7 bd f4 d7 11 3d
       0.10458545 0.04407563 -0.08952201 0.03560634
000220 d4 6a 71 bc 34 f1 62 3d fc 30 7a 3d 5e 68 fe bd
       -0.0147349425 0.05540581 0.06108187 -0.1242225
000230 be 10 a4 3d ba e7 da 3d d8 0f 97 3d 89 0a 97 bd
       0.08011006 0.106887296 0.07376069 -0.07375056
000240 3d bf 7e bd 4f 9f 02 3c 00 c5 b7 3d 8a 5e 82 3d
       -0.062194098 0.007972552 0.08973122 0.06365688
000250 9c 55 d7 3d 38 52 d9 3d 94 d6 aa bd 89 18 bf bd
       0.105143756 0.10611385 -0.08341709 -0.093308516
000260 9e bf 7c bd 6e 40 8d 3d a8 ae 22 3d 0c 21 73 3d
       -0.061706178 0.068970546 0.039717346 0.059357688
000270 f0 cb a1 3d d0 a6 a0 3d 15 18 5f bd 70 a0 63 bc
       0.07900226 0.07844317 -0.054466326 -0.013893232
000280 f1 68 76 3d b8 c8 c1 3c 94 83 94 3d 24 ba 65 3d
       0.060158674 0.02365528 0.07251659 0.05608572
000290 54 0e 80 3d f5 06 9f 3d 7a 25 c0 3d 00 86 d0 bb
       0.06252733 0.07764999 0.09382148 -0.0063636303
0002a0 6e cd 95 bd d0 4c 48 bd 4e fb 5b 3d 98 91 b9 bd
       -0.07314573 -0.04890138 0.05370646 -0.09060973
0002b0 2a b3 ea 3c f0 51 9d 3d 3a 94 d3 3d e8 04 93 3c
       0.028649885 0.07681644 0.10331006 0.017946675
0002c0 88 57 00 be 04 c2 be 3d 14 38 e0 3d 3a 2c a7 bc
       -0.1253339 0.09314349 0.10948196 -0.020406831
0002d0 ba 57 70 bd 9c 1b 78 bd b2 5a d7 3d 76 c0 d7 3d
       -0.058677413 -0.060573205 0.10515346 0.10534756
0002e0 ec 64 b7 bd 87 57 9a 3d de a3 8a 3c 92 d1 b8 bd
       -0.08954796 0.07536226 0.016923841 -0.09024347
0002f0 6e a7 1b bd d0 d4 58 3c 1b 64 dc 3c f0 4d aa bd
       -0.03800147 0.013234332 0.026903203 -0.08315647
000300 e0 0c 8a bd c0 a0 8d 3d 00 83 37 3a f4 87 83 3d
       -0.06740737 0.06915426 0.00070004165 0.064224154
000310 26 85 5a bd b1 24 b0 3d bb 46 ce 3d e0 82 45 bc
       -0.053349636 0.08600748 0.100720845 -0.012055129
000320 b7 22 cf 3d 80 f6 1d bd 40 33 54 3d ba 59 b6 3d
       0.10114043 -0.03856516 0.05180669 0.08903833
000330 fc e5 4f 3d 7c c1 78 3d 40 fa 5c 3d 4b 9b e8 bd
       0.05075644 0.060731396 0.053949594 -0.11357745
000340 d4 05 a6 bd 9c bd a2 3d cc c1 1a 3d e0 c3 d3 3d
       -0.081065804 0.07946321 0.037782475 0.103400946
000350 3d 5f bf 3c ec e8 ec 3d 40 e3 6b bb 7b e4 b5 3d
       0.023360843 0.11567864 -0.0035993606 0.0888147
000360 9b 89 0d bd b0 d2 98 3c d8 88 2d 3d db 42 63 3d
       -0.03455506 0.018655151 0.042366832 0.05548368
000370 70 d0 ad 3d b4 bb 52 3d 6f 74 b8 bd d8 dc 5c 3d
       0.08487022 0.05144854 -0.09006583 0.05392155
000380 51 ad 68 bd 40 a9 9e 3c da 3f 8f bd f4 c4 5d bd
       -0.056805912 0.019367814 -0.069946006 -0.054142907
000390 0e d7 e1 3d 37 43 c8 bd bb 6f bf bd d0 f1 10 3c
       0.110273466 -0.09778445 -0.09347483 0.008846715
0003a0 77 5e c8 3d d8 98 9b bd 25 08 85 bd be 5f d1 3d
       0.09783643 -0.07597512 -0.06495694 0.102233395
0003b0 cc 56 17 bd 31 e5 01 3e a4 56 80 3d 92 4d 7b 3d
       -0.03694801 0.12685086 0.062665254 0.061353274
0003c0 97 6a 4a bc f3 fa 86 3d 62 f5 a1 3d a9 25 c4 bc
       -0.012354515 0.065908335 0.07908131 -0.023943739
0003d0 64 34 db bc ce 16 fe 3d 68 a0 7c 3d 22 37 8c bd
       -0.02675838 0.124066934 0.061676413 -0.06846453
0003e0 b0 72 c6 3c 98 3f 66 3c de de 9e 3d aa 74 e1 bd
       0.02422461 0.014053248 0.07757352 -0.1100858
0003f0 c3 a0 d2 3c 60 0e ce bb 7b 04 f0 3d 70 81 a2 3d
       0.025711423 -0.0062883347 0.117196046 0.079348445

fc2.bias f4 [32]
000000 92 2e b7 bd 62 a4 99 3d bb 5d b7 bd f8 1e 57 3d
       -0.089444295 0.07502057 -0.089534245 0.05251977
000010 40 53 f3 bd 53 9a 94 3c 58 ac 4b bd b1 a0 4f 3c
       -0.11881113 0.018139994 -0.049724907 0.012672589
000020 cf e5 43 bc 6a 30 9b 3d dc 7f f5 3d 23 81 87 3c
       -0.011956646 0.075775936 0.11987278 0.01654107
000030 f0 b2 e3 bd af 4b d9 bd f4 1f 7c bd 0e d0 f5 bd
       -0.11118114 -0.106101386 -0.06155391 -0.12002574
000040 02 58 eb 3d 6f 49 8f 3d f8 c9 62 bd 96 aa 7a 3d
       0.114913955 0.06996428 -0.055368394 0.06119784
000050 c0 de 79 bc e6 04 c6 bd 23 b5 ba 3d e4 09 90 bd
       -0.015250862 -0.09668903 0.0911658 -0.070331365
000060 98 d2 c5 bd 40 0e 97 bc e0 cd 1b bd f2 3d d6 bd
       -0.09659308 -0.018439412 -0.038038135 -0.10461034
000070 61 f1 f4 bd 44 a4 ae 3d 50 ad c0 3d 4a ac 8e bb
       -0.11960102 0.08527425 0.09408057 -0.0043540346

pi.weight f4 [1, 32]
000000 8d 41 0c be 6c e4 0b be b1 3a f8 3d e5 25 20 be
       -0.1369688 -0.13661355 0.121205695 -0.15639456
000010 74 9e 0d be b6 fb 2b 3e 22 90 11 be 2f 74 d7 3d
       -0.13829976 0.16795239 -0.14215139 0.10520207
000020 ac c7 81 bd 4b 79 24 3e d4 ce c2 38 37 df 6c bd
       -0.063369125 0.16061895 9.2891656e-05 -0.05783006
000030 bc a5 5e bd 64 44 9b 3d 9d 08 25 be 5d 4d d8 3a
       -0.054357275 0.07581404 -0.16116567 0.0016502548
000040 cf 29 1d be ac 9f aa bc e5 f9 1c be 18 4f 2d be
       -0.1534798 -0.02082809 -0.15329702 -0.16924703
000050 5e 4c 25 be 24 6f c5 bd bc c2 fb bd d2 4d bf bd
       -0.16142413 -0.09640339 -0.12293002 -0.09341015
000060 44 33 00 3e 37 bf dd bd bf 7a 53 3d 49 43 d8 bd
       0.12519556 -0.10827487 0.05163073 -0.105597086
000070 5a cf 13 bd 3d b8 0c 3e d1 c8 ca 3d cb c8 37 be
       -0.036086418 0.13742156 0.09901584 -0.1794769
