model/maddpg/agent_2_critic.pth (torch, 16014 bytes, 5 tensors)

fc1.weight f4 [64, 18]
00000000: 1e6a 093e 84fc dcbd 558e 81be 5289 b5be
00000010: 720f 973d 13cd 713c 90a5 49be f3a4 593f
00000020: f9fb c0bf a1d7 513b a9e7 f0bd 0495 d2be
00000030: 0559 943d 5a9c 6dbe 378e c83e e6fc b63e
00000040: dc6d 8e3d 0ae9 ee3f 4bd5 10be 772c 04be
00000050: 4975 9d3c ed57 6a3e 363e e8be 9faa 35bd
00000060: 4cce 4fbd 8b74 953e b040 94bf f14b 35be
00000070: a7d8 163d f353 96be 09a3 3d3b becd 603e
00000080: ffc6 b93e 692f 81bd 6bee 80bc de50 9c3f
00000090: e3ad 4ebe b6fb 8fbe 5fa4 28be 6a51 65bf
000000a0: 7795 5c3f 3986 bdbd cb3d 5ebf f6f3 9e3c
000000b0: 0efb b23f 2c7b 89bd e101 6d3e fbdc 0dbf
000000c0: ba9d 1bbe 5ab3 38bf ec0c 45be bfc3 033e
000000d0: 630b a3be 0b87 95be 64f7 90be 6ff1 f4be
000000e0: 40a4 43be 57ea c0be 099c 5cbe b637 5e3e
000000f0: 26af 93be 82e4 09bf eae9 17c0 1869 433d
00000100: 0549 89be bb9d 5e3e c280 903d 81e7 3bbf
00000110: fbc3 0d3e 5ae5 f33e 4957 8c3e 2ed6 97be
00000120: 886c 4fbe f07c cbbd f835 c0bd 4754 6e3e
00000130: 2e16 f6be a16a 203d df8d ce3e ee25 b4be
00000140: f492 4ac0 1855 1fbd 26c7 62be d19b fa3e
00000150: 46b9 4bbd 37ec 253f ff0b 0fbd b056 5e3e
00000160: 427b a73d 50af 0d3f d6a9 62be 70e4 19bf
00000170: 86ef b9bd 7dd4 9cbf eeca 843f 663f 00be
00000180: 94cf 99bf 81bf 5f3d 68e5 3cbf 0377 2f3e
00000190: 5e53 193e 885a 0fbf 9949 6c3e 62bf 6abf
000001a0: 3957 8b3d 0823 0dbf dda1 db3d b5f0 32bf
000001b0: 3fcb 87be f027 9ebe b0ba 283d 0ccd 62bf
000001c0: 639b 263f 5dfe 33be 93ee 20bf ef07 273e
000001d0: ab10 1a3f aece 93bd 2ffa 183d 8211 46bf
000001e0: f5d6 41be c836 04bf 107c 203e 17cf 043f
000001f0: 6ace ad3e aaf1 57bc 3f31 dabd 0aff 0dbe
00000200: b11c 853d 57f5 3dbe a531 0cbd dda2 2fbd
00000210: 74a1 e43b 31e6 0ebc 340e afbc 173b afbe
00000220: 87f6 4cbe 1015 be3e 9930 4b3d ceb0 473e
00000230: fc8c 8f3e a382 e1be 86b7 96bf 5678 3bbf
00000240: 9ad0 b73d 9e16 5c3b 46f9 e63c 52c6 c5be
00000250: 975e 753e 3698 37bd ba7d 7dbe fa21 6c3e
00000260: acc4 74bf aedb 83be f790 4abd 143b 4ebf
00000270: f7f1 3b3e 37d0 9fbe 6247 74be c54c 87be
00000280: 8148 42be 460f 65c0 1375 01bd a547 e73d
00000290: 7bcd 2ebc ad54 36bd 379d 953e 2802 41be
000002a0: d61a abbd 6cde 233f 8d3d 23bf 71f9 9fbe
000002b0: 19d0 303e bb85 93bf 86fb 89be 6bf9 6ebe
000002c0: 5d93 043d 3a46 413e 786d a8bf 45ee 84bf
000002d0: 9ad1 403e 393e 9d3e 9f9a 3b3d b74e 303f
000002e0: 52a8 8b3e d974 2fbe d64b 2c3f 4596 82bd
000002f0: f00c 5740 4ffb 0c3e 135a dd3d be0a 1c3f
00000300: 4df2 173e cc3f f73e e726 01be d5fd ef3e
00000310: ee21 bbbe a55b 2a3e 9df2 7bbb 89c1 0cbf
00000320: 0548 053e 55f4 57bf ec2c 863f eaec 4e3e
00000330: ab33 94bf 7152 01be 050b 703e 5001 cb3d
00000340: bd63 03bf 7221 1dbf a092 3dbd 375f 8cbf
00000350: af1c 17be 96e9 bd3e 423e 0cbe a8ab 543f
00000360: cb8a 1c3e 216c 203d 2be8 783d e76a 5cbe
00000370: 82ff db3d e1b0 68bc 4e1a 5dbe 71de 193f
00000380: d44a eb3e 65ed d03d 8cd4 d1be 67cd 35be
00000390: 9906 cc3d 23c5 46bd c9ad 7ebd 31e0 963f
000003a0: bf53 abbe 809e 023f 5708 053e 4248 f53d
000003b0: d3f0 233e d4de 2b3e 9bdb 69be 7928 0c3e
000003c0: c8fd 2cbe 27ca 1c3d 5902 45be 704b 05bd
000003d0: 3890 8f3d 4663 2ebe c3bd d23c 887b bdbd
000003e0: 1e8c 503e 291d ac3b 8016 053e 760a cfbd
000003f0: fc66 b6bd 260b 58bf ecca 99bd 20f6 89bf
0.13419387 -0.10790351 -0.25303903 -0.3545633 0.07375993 0.014758366 -0.19692063 0.8501732
-1.5076896 0.0032019394 -0.11762936 -0.41129315 0.07243542 -0.23204175 0.39171 0.3573982
0.06954548 1.8664868 -0.14143865 -0.12907587 0.019220965 0.22885104 -0.45359963 -0.04435217
-0.05073385 0.29190478 -1.1582241 -0.1770475 0.03682771 -0.29360923 0.0028936288 0.21953484
0.36284634 -0.06307871 -0.015738687 1.2212179 -0.2018352 -0.28121728 -0.16468953 -0.89577353
0.86165565 -0.092541166 -0.8681304 0.019403439 1.3982866 -0.06712946 0.23145248 -0.55415314
-0.15196887 -0.7214867 -0.1924321 0.1286764 -0.31844625 -0.29204592 -0.28313744 -0.4784045
-0.19105625 -0.37678787 -0.21543898 0.2170094 -0.28844565 -0.538643 -2.373652 0.047707647
-0.26813522 0.21739857 0.070558086 -0.7340012 0.13844292 0.4763592 0.27410343 -0.29655594
-0.20256245 -0.09935939 -0.09385294 0.23274337 -0.48063797 0.03916419 0.40342614 -0.35185188
-3.1652193 -0.03889951 -0.22146282 0.48947003 -0.049737237 0.6481356 -0.03492355 0.21712756
0.081778064 0.5534563 -0.221351 -0.6011419 -0.090788886 -1.2252346 1.0374429 -0.12524185
-1.2016473 0.05462599 -0.73787546 0.17135243 0.14973208 -0.55997515 0.2307495 -0.91698277
0.06803746 -0.5513158 0.10724232 -0.6989854 -0.26522252 -0.30889845 0.041193664 -0.88594127
0.6508085 -0.175775 -0.62864035 0.1631162 0.60181683 -0.072171554 0.03734797 -0.77370465
-0.18929656 -0.5164609 0.15672326 0.51878494 0.33946544 -0.013180176 -0.10653924 -0.13866821
0.06499613 -0.18550621 -0.034227032 -0.042879928 0.0069772545 -0.008721874 -0.021369077 -0.3422477
-0.20015918 0.37125444 0.049606893 0.1950104 0.2803725 -0.4404498 -1.1774757 -0.73230493
0.089753345 0.0033582817 0.028195035 -0.3862787 0.23961864 -0.044822894 -0.24754992 0.23059836
-0.956126 -0.2575354 -0.049454655 -0.80558896 0.18354021 -0.31213543 -0.23855355 -0.26425758
-0.1897297 -3.5790572 -0.03160579 0.11292962 -0.010669108 -0.044514347 0.29221508 -0.18848479
-0.08354728 0.64011264 -0.63765794 -0.31244996 0.17266883 -1.1525186 -0.2694971 -0.23337333
0.0323671 0.18874446 -1.3158407 -1.0385214 0.18829957 0.30711535 0.045801755 0.6887011
0.27276856 -0.17134418 0.67303216 -0.06376318 3.3601646 0.13767742 0.10808196 0.6095389
0.14838524 0.4829086 -0.12612496 0.46873346 -0.36549324 0.16636522 -0.003844417 -0.5498281
0.13015755 -0.84357196 1.0482459 0.20207563 -1.1578268 -0.12629105 0.23441704 0.0991236
-0.51324064 -0.6137916 -0.04628241 -1.0966557 -0.14757036 0.37092274 -0.13695624 0.83074427
0.1528732 0.03916562 0.060768288 -0.21525155 0.107420936 -0.0142023275 -0.21592066 0.60105044
0.45955527 0.102015294 -0.40982473 -0.17754136 0.09962196 -0.048527848 -0.062177453 1.1787168
-0.3346233 0.510231 0.12991463 0.11976673 0.16009836 0.16784221 -0.22837679 0.13687314
-0.16893685 0.038278725 -0.19239177 -0.032542646 0.070099294 -0.17030057 0.025725251 -0.09252077
0.2036595 0.0052524996 0.12996864 -0.10109417 -0.089063615 -0.8439201 -0.075094074 -1.0778236

fc1.bias f4 [64]
00000000: d8ee bc3e e670 053d 3bf7 db3e 159d 263f
00000010: 9feb 3a3d ed1d 4f3f 8d10 283f 117e 5d3e
00000020: 63ed 6c3e 8308 29be 7099 27bf 0c88 403f
00000030: d940 bfbe cf98 253c 5a72 ea3e 9cc2 ca3e
00000040: 0eb4 cc3d 552e 09bf 0367 503e 4813 903e
00000050: e423 b83e c295 01bf 5ad2 82bf 486d fa3e
00000060: 53ef f73d cfea 82be f92c 113e c9a6 dc3d
00000070: 1d8a 4abe de0c 303f 0e02 5c3f bcb8 1a3f
00000080: e836 8b3f 59bc 3d3d 3c57 983c e2d9 c93b
00000090: abcd 7bbd 261d cfbc 5141 2c3f 5110 9abf
000000a0: e11c 25bf 8662 fb3d c2b2 93be a206 8dbc
000000b0: 42f9 2a3f f3db 003f 4819 05bf 531a 863e
000000c0: 9e4c 4cbf 82ee 98bf d3fc b83e ce7d 1fbf
000000d0: 157d 383f b476 843c 475e 883f 098c 35bf
000000e0: 2b80 8b3d 420b 35bf bd79 3f3f 4ed5 dbbd
000000f0: 0a0a e8be e467 073c a0f4 17be a56e 2d3f
0.36900973 0.03257837 0.4296206 0.6508344 0.045634862 0.8090504 0.65650254 0.21630122
0.23137431 -0.16507153 -0.654685 0.7520759 -0.37354162 0.010107233 0.45790368 0.396016
0.0999528 -0.5358632 0.20351796 0.2813971 0.35964882 -0.5061914 -1.0220444 0.489115
0.12106194 -0.2556977 0.14177312 0.10773999 -0.19779249 0.68769634 0.85940635 0.6043813
1.0876131 0.0463222 0.018596284 0.006160007 -0.061475437 -0.025282454 0.67287165 -1.2036229
-0.6449719 0.12274651 -0.2884732 -0.017215077 0.6678659 0.50335616 -0.519917 0.2619196
-0.7980441 -1.1947787 0.3613039 -0.6230134 0.7206586 0.016169883 1.0653771 -0.709168
0.068115555 -0.70720303 0.7479513 -0.10734044 -0.4532016 0.008264516 -0.14839411 0.67746955

fc2.weight f4 [32, 64]
00000000: 1d56 c13e a1a2 17bf 11fc 8b3d 911b 383e
00000010: 037d 133e 5b04 323d a048 f83e e11e 8ebe
00000020: cbe4 df3c e1d5 e63e aac9 0fbb 3dc9 df3d
00000030: 6e97 41bf 2066 803c 1050 ee3d 1f12 4b3e
00000040: a6b5 72be 5002 0bbd dbd1 8fbf c52f 323e
00000050: c1f8 d13d 21ef 94be 9f3b a8be 27ad 4cbf
00000060: 6b03 733d 9ea7 f43c 40b2 643c e4bb abbd
00000070: f25a a93d c236 72be 5259 b03e 0c14 a13e
00000080: f93e 033e a053 86bd fc11 51be 10c4 0dc0
00000090: d15b 593d afef 4fbe 7874 913e 753e b83d
000000a0: 879e 1ebe ea20 da3d fd00 c73c 8045 de3a
000000b0: d6fd 48bd 28e2 f3bd ba35 04be 6643 bdbf
000000c0: 0c85 73be 6251 67be 21bd f43d fd5e 713d
000000d0: 043a 9b3e 9e06 963b b7c2 d63d f8bc c9bc
000000e0: 4db5 863e 880e 2cbe a489 e43d 2ecd a23d
000000f0: 8250 66bc a112 a63e 905c abbe 740a acbf
00000100: 961d 0fbf f3cb 61be aae9 233e 64ec e33c
00000110: aa68 3b3d ea7c 3d3d bb56 9f3e 6f30 983e
00000120: 0760 c73e a5b3 dfbe 6c5c 1f3e 4d37 4e3e
00000130: 93a1 08be aeda f23d 15c1 303e 7e01 67bc
00000140: e6ee 3fbd b5ad 1fbe 6203 4dbf b798 563e
00000150: e47a 3abc 2665 f8bd 1352 5cbe b120 0bbf
00000160: 5654 893d 3478 61bf e05e 993c 30c7 05c0
00000170: 58d8 35bd b7d2 1f3d 5366 973d 43cd 3e3e
00000180: 9eaa 3b3e 5e04 073e b49b 6cbe 87ac 2cbf
00000190: de8e ad39 4396 a3be bd86 9d3e d32b e8bd
000001a0: 22a0 36be a7df a93d 9112 14bd 60bd 9cbb
000001b0: 6586 fe3d 1380 b8bd 9d6a 92bd d1cc 95be
000001c0: 831a 18be da54 57bd 6dab 3d3c 2c65 95bd
000001d0: 8041 9b3e df13 0e3f 1acd 403e 13f4 19bd
000001e0: d730 023e d8e5 f6be 4af8 123e 4c50 4d3d
000001f0: ee54 73be f1da 35bd 7e59 523e 252f 09bf
00000200: c084 8abe 19e2 cb3d ed11 6e3d 1b66 823d
00000210: 4922 813d 23a5 61be b1c7 7a3e 2e5a 573e
00000220: 990f 70be b2ac 07bf c8cd b83d 7088 1abe
00000230: 3f50 8e3e da1d 15bc 290d 9abd 510d 16be
00000240: 7383 d23d 3402 253e 5b59 d93e 6462 d83d
00000250: 086f e73d dc11 023e 66e9 d53e 8d7a 05be
00000260: faed bcbd fa85 963e c8cb 51bd 391b 6abe
00000270: 3063 30bd e484 70be a280 66be 8597 8ebe
00000280: 9330 bbbe 59e8 dbbd aef5 83bf abf5 90be
00000290: 6884 ec3d e121 a9be 22f6 f3be c7ff ef3d
000002a0: 8285 fd3d d621 4f3d c34e 1d3e 40c2 e5bc
000002b0: 09c4 0cbd 96c8 a7bd 6295 163e d1aa 3b3f
000002c0: 1541 6b3e 28f3 1a3e b9ff eabc dd8d 403e
000002d0: b03d 8fbe 9e29 c0be 4946 eabe 467c 7d3e
000002e0: af52 3a3d 4766 b43e 1b8d d7bd b40e 4f3d
000002f0: ca32 2e3e 7e8f dcbc e217 0f3e 1ddd 9abb
00000300: 8e14 923d 71ee 863d d3d7 4c3e 1d5d c9bd
00000310: f3ad 39bd 55bb e53d fa6a d23e 2f71 70be
00000320: 8c5f 273f 6005 8e3f e5e9 e03d ae34 6c3e
00000330: 22e6 f43e 2183 253d 6bde 2d3e 68e1 c93c
00000340: 40f4 d83d 68e2 8cbd 149c 863e 491f a93d
00000350: a2ab 0c3e f279 9fbe cbba 3bbe e2f9 60be
00000360: 4e85 4a3e 2a03 d2bc 009c 443c 12ff aa3e
00000370: 20bd 3dbc 8001 6f3e 2bf3 443e c770 893e
00000380: a4cd e23d 1713 60bd 19d3 f9bd b74d 143e
00000390: 335e de3d 2a13 f7bd b134 123f 500d b73d
000003a0: 12e1 8dbd adf6 c23d ef01 1c3d 90c2 bf3c
000003b0: 8aa3 e83d 2c67 bf3e 46b8 fcbd 4a2e 16bf
000003c0: 05a3 38be 6551 bcbd 1093 403e a02e 69bc
000003d0: 9ffe 8a3e 6308 743e 59f3 963e a6c9 87bd
000003e0: 7c45 2dbe e682 9abe d922 5d3e d8dd f83c
000003f0: 6952 0fbe 50b5 c13d ec5f 9c3c bd0e 283e
0.37761012 -0.59232527 0.06835187 0.17979266 0.14403157 0.043461185 0.48492908 -0.27757934
0.027330777 0.45085052 -0.002194027 0.10927055 -0.7562169 0.015673697 0.116363645 0.19831131
-0.23702106 -0.033937752 -1.1235918 0.17401035 0.10252524 -0.2908869 -0.32857987 -0.7995171
0.05932943 0.029865082 0.013958514 -0.08385447 0.082692996 -0.23653701 0.34443146 0.31460607
0.12816991 -0.06558919 -0.20417017 -2.2150917 0.05306608 -0.20306276 0.2840917 0.08996288
-0.15490161 0.10650809 0.024292463 0.0016957968 -0.0490702 -0.1190837 -0.1291112 -1.4786193
-0.23781222 -0.22589639 0.11950136 0.05892848 0.303177 0.0045784255 0.10486358 -0.02462624
0.26310197 -0.16802418 0.11159065 0.07949291 -0.0140572805 0.32436088 -0.33469057 -1.344069
-0.5590452 -0.22050457 0.16007105 0.02782268 0.045754112 0.046261705 0.31120858 0.29724452
0.3894045 -0.43691745 0.155626 0.20138283 -0.13342886 0.11858116 0.17261155 -0.014099477
-0.04685869 -0.15593608 -0.80083287 0.20956694 -0.0113818385 -0.121286675 -0.21515684 -0.5434676
0.06705539 -0.8807404 0.018721998 -2.0902824 -0.044395775 0.039019313 0.07392564 0.18632989
0.18326804 0.1318526 -0.23106271 -0.67450756 0.00033103576 -0.31950578 0.3076686 -0.11336484
-0.17834523 0.082946114 -0.03615052 -0.0047833174 0.124279775 -0.09008803 -0.07149241 -0.29257825
-0.14853863 -0.052571155 0.011576516 -0.07294688 0.3032341 0.5549907 0.1882824 -0.037586283
0.12713943 -0.48222232 0.14352527 0.050125405 -0.23762867 -0.044398252 0.20541951 -0.5358756
-0.27054405 0.09955234 0.058122564 0.06367131 0.063053675 -0.22035651 0.24490239 0.21030495
-0.2344345 -0.5299789 0.09023625 -0.1509111 0.27795598 -0.009101355 -0.07522041 -0.14653517
0.10278978 0.16114122 0.42450985 0.105656415 0.113004744 0.12702125 0.4177963 -0.1303503
-0.09225078 0.2939909 -0.05121973 -0.22861947 -0.043063343 -0.23488194 -0.22510007 -0.27849975
-0.36560497 -0.10737676 -1.030935 -0.2831243 0.11548692 -0.3303366 -0.47648722 0.117187075
0.1237898 0.050569378 0.15362076 -0.028046727 -0.03436664 -0.081925556 0.14705423 0.7330752
0.22974046 0.15131819 -0.028686391 0.18804117 -0.2797675 -0.3753175 -0.45756748 0.24754438
0.04548901 0.3523428 -0.105249606 0.05055113 0.17011562 -0.026923891 0.13973954 -0.004726066
0.07132827 0.06588448 0.20004205 -0.09832213 -0.045331907 0.112173714 0.41097242 -0.23480676
0.6538017 1.109539 0.10982112 0.2306697 0.47831827 0.040408257 0.16979377 0.024643615
0.10593462 -0.06879121 0.26290953 0.0825792 0.13737348 -0.31147724 -0.18332975 -0.21970323
0.19777414 -0.025636274 0.012000084 0.33397728 -0.011580735 0.23340416 0.19233386 0.26843855
0.11074379 -0.054705705 -0.12198467 0.14482771 0.10857811 -0.12064202 0.5711165 0.08938086
-0.069276944 0.09519706 0.03808778 0.023408204 0.113593176 0.373834 -0.12339835 -0.5866438
-0.18030937 -0.09195212 0.188061 -0.014232308 0.27147385 0.23831324 0.29482535 -0.06630258
-0.16921037 -0.30177993 0.21595325 0.03037922 -0.1399628 0.09458411 0.019088708 0.16411872

fc2.bias f4 [32]
00000000: c0c8 1b3f 8f56 033f ae19 4cbf fd6a 053f
00000010: 8c0f 923d 0d6c 6b3b fc5f d4be 2da3 3cbf
00000020: 665e 613e f057 25bf c0dd d5be 44e9 1fbf
00000030: b6fd ea3e 2a71 3abf 3e13 2b3f 84b6 083d
00000040: 2bd7 233f 0ca9 853d abac 0bbf 20ff cfbc
00000050: a35a 0f3f e4ec 2bbf b0b7 cfbe aa24 283f
00000060: 3634 88bd e242 223f 902a 163c dc89 323d
00000070: ca7f f2be e9b8 dd3d dafb 3e3e fb2f 96bd
0.60853195 0.5130395 -0.79726684 0.52116376 0.071318716 0.0035922558 -0.4147948 -0.73686486
0.22008666 -0.64587307 -0.41770744 -0.6246531 0.4589669 -0.72828925 0.66826236 0.033377185
0.64000195 0.06526384 -0.54560345 -0.025390208 0.55997676 -0.6715834 -0.4056983 0.65680945
-0.066505834 0.63383305 0.009165421 0.043588504 -0.4736312 0.108262844 0.18650761 -0.0733337

q.weight f4 [1, 32]
00000000: 5bc6 f73e 8faf d23e aa1c 99bf 0154 883e
00000010: c564 293e aad5 b43d 5176 d6bf a9c5 3ebf
00000020: 745a f43e 0f02 50bf 39f4 1abf 900e 15bf
00000030: 738f d1bf 0b4b 98c0 c1e4 ee3e 38b7 e3bd
00000040: c540 373f 2da8 533c c88e 76bf 71fd ce3d
00000050: dc62 e93e cfb5 4ebf 9713 82bf 4d9a a03e
00000060: f321 b1bd 01b0 0c3f 61fc 01be 5762 523f
00000070: ee58 0ebf 1feb afbd d8af cf3e aeb9 193d
0.4839352 0.41149566 -1.1961873 0.2662659 0.16542347 0.08829816 -1.6754857 -0.74520355
0.4772526 -0.8125314 -0.60528904 -0.58225346 -1.6371902 -4.7591605 0.466589 -0.111189306
0.71583205 0.012918514 -0.96311617 0.10106934 0.45583236 -0.8074617 -1.0162228 0.31367722
-0.086490534 0.5495606 -0.12693931 0.82181305 -0.55604446 -0.08589768 0.40563846 0.037530594
