model/maddpg/agent_1_target_actor.pth (torch, 12746 bytes, 5 tensors)

fc1.weight f4 [64, 5]
000000 62 bb 05 be fc d6 9f bd 3a 60 06 bf 84 33 98 3d
       -0.13059762 -0.07804677 -0.5249058 0.07431701
000010 a3 58 4a bd 02 ff b4 be 19 a0 bf bb fc 3a a0 3e
       -0.049400937 -0.35350806 -0.0058479425 0.31295002
000020 52 ec 87 3e 0f 45 5b bc 8f 58 85 be 5e 49 cd bb
       0.26547486 -0.013383164 -0.26044127 -0.0062648496
000030 4e a7 fb be 2e 2d ba be 5d be 6d 3d b6 50 57 3e
       -0.4915108 -0.36362594 0.058042873 0.21026883
000040 3e 38 ba 3d 3e 8f 3b be a7 68 e8 3d 49 27 d7 be
       0.090927586 -0.18316361 0.11348086 -0.4202216
000050 80 bf d7 3e a7 9c 92 3d 3f 4e 94 be 28 9e 98 3e
       0.4213829 0.07158785 -0.28965947 0.29808164
000060 90 c6 ad 3e 5c f1 d8 be 93 fd 1a bd 02 e1 79 be
       0.33940554 -0.42371643 -0.037839483 -0.2440224
000070 da 41 fd bd ab 8b 0b 3e ce df bc be 1b a9 ca 3e
       -0.12366076 0.13627498 -0.368895 0.39582142
000080 8d c0 bc 3d cd e0 67 bd 34 7e 9d 3e 14 08 13 bf
       0.09216414 -0.05661087 0.30760348 -0.574342
000090 1c 9a 99 3e 23 4e 92 3e 14 ce a4 3e f8 f3 24 bd
       0.3000039 0.2857524 0.32188475 -0.04027173
0000a0 7d 8f ad be aa ed 03 bd f8 a4 6d 3e d6 86 b3 bc
       -0.33898535 -0.032209076 0.23207462 -0.02191488
0000b0 15 98 2d 3e e8 8f bb 3e 41 a7 54 3d 06 10 82 be
       0.16952546 0.3663323 0.05191732 -0.2540285
0000c0 1e 08 b7 3e c9 5b ae bd 6f 2f c3 be ee 53 7f 3e
       0.3574838 -0.085136004 -0.38122126 0.2493436
0000d0 d9 73 bd 3d fc 04 00 bf ba c6 b7 3e 12 14 b8 be
       0.09250612 -0.50007606 0.35893804 -0.35952812
0000e0 00 c1 9d 3d d9 aa b8 3e 16 e5 75 be 71 05 a3 3e
       0.077028275 0.36067846 -0.2401317 0.3184009
0000f0 91 7f 64 be d7 08 08 3e 07 8f 01 bf 79 d4 a3 be
       -0.22314288 0.13284622 -0.5060887 -0.3199804
000100 e9 fc 75 bd b0 dc ee bc 5e d6 82 3e e0 79 20 bf
       -0.060055647 -0.029157966 0.25554174 -0.62685966
000110 dd ac 32 bd 54 3b 58 bd ba f7 73 be f1 4f ba be
       -0.043621887 -0.052790955 -0.23824969 -0.36389115
000120 ac 35 11 bf 5b f7 57 3e e5 4b fb bc 10 d2 80 be
       -0.5672252 0.21090452 -0.030675838 -0.25160265
000130 23 92 0f 3d 1e 40 c1 3e 94 c0 20 3e 05 24 be 3e
       0.035051476 0.3774423 0.15698463 0.37136856
000140 80 cb 95 3e 3d 73 b9 3e f6 85 fc 3e 05 52 6e bd
       0.2925682 0.36220732 0.49320954 -0.05818369
000150 8d 8e 3c 3e d4 f0 d9 be 6a 81 fb 3d 10 fa 5a be
       0.18413754 -0.4256655 0.12280543 -0.21384454
000160 b6 44 71 be 52 d3 87 bc 88 09 91 be fe c6 83 be
       -0.23561367 -0.016580258 -0.28327584 -0.25737756
000170 62 9e f5 be 9b 26 8d bd 4a 16 c4 bd f2 84 06 bd
       -0.479724 -0.06892129 -0.09574564 -0.03284163
000180 3c a7 a8 3d 57 70 96 be 3e e6 03 bd 7a 0a cd 3d
       0.082350224 -0.29382583 -0.032201998 0.10011764
000190 f1 d0 31 be 2f 79 d7 3d 3f 36 98 be 94 02 d6 3e
       -0.17364861 0.10521161 -0.29728886 0.41798842
0001a0 1a 66 b8 bc d9 b7 a1 be 10 9b 15 3f 44 e2 d7 be
       -0.022509623 -0.31585577 0.5843973 -0.42164814
0001b0 20 2b 6a 3e c9 8e b2 bd 6f 68 06 3e 37 de 98 3e
       0.22868013 -0.0871864 0.13125776 0.29857036
0001c0 a5 2d a6 3e 95 11 b9 3d e3 15 d2 3d 41 4d a9 3d
       0.324567 0.09036557 0.10258081 0.08266688
0001d0 dd a9 66 be 0f cb 6a 3e fd 0b d5 be 87 e6 ad be
       -0.22525735 0.22929023 -0.4161071 -0.3396494
0001e0 a0 ce c5 3e 8f b2 4f 3e e7 12 1d 3e 65 f9 b6 3e
       0.38634205 0.20282958 0.15339242 0.35737148
0001f0 23 38 01 be a6 84 bd be c3 9d 98 be 31 94 b8 3d
       -0.1261907 -0.37015265 -0.29807863 0.0901264
000200 92 70 cc 3e dc 50 e0 3e d1 6d a8 3e 3c 7c d2 be
       0.39929634 0.4381169 0.32896283 -0.41110408
000210 64 28 ea be 71 4b 28 3e 0e 78 06 3e 89 01 a3 bd
       -0.4573394 0.16435029 0.13131735 -0.07959277
000220 ee 71 ba 3e 51 a6 29 bf 0d ba bb 3e 41 77 bb bd
       0.36415046 -0.66269404 0.36665383 -0.09153605
000230 c1 a9 a4 3e 4c 07 2c 3e 75 9f 25 3f 0d c2 29 be
       0.32160762 0.16799659 0.6469644 -0.16577931
000240 5e 34 84 3e d5 f2 61 be 62 2b 44 bd 5c f0 6d 3d
       0.25821203 -0.2206529 -0.047892936 0.058090553
000250 77 46 01 3e de 22 b0 3e 0c 18 e2 3e 06 e0 c9 3e
       0.12624536 0.34401602 0.4415897 0.3942873
000260 4d a0 9e be cb 6a 79 be 3b 35 84 be 85 ed 2b be
       -0.30981675 -0.24357145 -0.25821862 -0.16789825
000270 da 35 ff 3e 4d 3d fc 3e 54 8b 93 3e bb 0e 05 3d
       0.49845773 0.4926552 0.28817236 0.03248475
000280 97 71 01 3e e1 85 c8 be fa 09 46 bd aa 11 4d 3e
       0.12640987 -0.39164641 -0.04834936 0.2002627
000290 46 03 92 be 47 e3 0d bf 2f b5 cd 3e 95 2e 00 3f
       -0.28518122 -0.5542492 0.40177295 0.5007108
0002a0 e2 1c 3c 3e 0c 69 63 bd b5 34 94 3e f5 e4 ca 3e
       0.18370393 -0.055520102 0.28946462 0.39627805
0002b0 7d ff 1b be 33 5e e4 3e 1a 46 1a 3c c7 f4 08 bf
       -0.1523418 0.44603118 0.009416128 -0.534985
0002c0 be 38 80 3e a3 66 d0 3e 70 67 5b be 9b 06 8a 3d
       0.2504329 0.40703306 -0.21426177 0.06739541
0002d0 86 67 39 3d 64 5c b2 3e 28 34 19 3f 13 45 8d be
       0.045264743 0.34836113 0.5984521 -0.27591762
0002e0 82 a7 8d 3d 71 4c 2c be d8 30 92 3e ce 5c 3d be
       0.06916715 -0.16826035 0.2855289 -0.18492433
0002f0 d2 35 82 3e c1 f4 e4 3e a2 cc ff 3d c1 d0 aa bd
       0.25431687 0.44717982 0.124902025 -0.08340598
000300 81 2c e3 3e c7 c4 00 3e e1 b2 fc 3d e8 7c 10 3f
       0.4436989 0.12575065 0.12338806 0.5644059
000310 6b 89 9b 3e b5 b5 b3 bd 29 32 aa 3e fd b2 be 3e
       0.3037828 -0.08774892 0.33241394 0.37245932
000320 fa e0 d7 bc dd 79 74 bd fd b6 e1 3d b0 aa d1 bc
       -0.026352394 -0.05968653 0.1102123 -0.025594085
000330 71 22 b6 be 84 30 3c be fc f7 60 3e 04 6f 69 3e
       -0.35573152 -0.18377882 0.21969599 0.22796255
000340 3e db 30 3d 7c 5d d4 be 54 15 6f bb 14 79 2e 3e
       0.043177836 -0.41477573 -0.0036481218 0.17038375
000350 72 1a 05 3e 01 1a a4 3d 63 13 08 be a0 dd 1f be
       0.1299837 0.08012772 -0.13288645 -0.15611887
000360 67 75 0b 3e f7 22 99 3e 03 b6 d5 3d 47 05 40 3e
       0.13619004 0.2990949 0.104351066 0.18752013
000370 8f fa 1c 3e d4 d0 96 3e a0 ef 9c be d2 a0 45 3e
       0.15329956 0.29456198 -0.3065157 0.1929963
000380 3e 40 75 3e f5 cc ac 3d bb 6d 8a be 2f 29 9c be
       0.23950288 0.0843753 -0.27036843 -0.3050017
000390 50 42 d0 3e 6d bd a3 ba 91 63 85 3e 10 cf 9f be
       0.40675592 -0.0012492366 0.26052526 -0.31212664
0003a0 da 54 d5 3e c6 95 28 3e bf 0a 5d be d5 bc 6a be
       0.416663 0.16463384 -0.2158613 -0.22923596
0003b0 39 c6 b5 be fc 88 ec 3e 5a d5 73 3e b0 97 94 3d
       -0.35502794 0.4619826 0.23811856 0.072554946
0003c0 6a b8 8f 3e 8e 1c f6 3d 52 de 01 3f 8a b5 37 be
       0.28070384 0.12017165 0.5072986 -0.17940345
0003d0 29 68 a1 3e c5 2e f7 be db 33 d0 3e e4 d1 ad be
       0.3152478 -0.4827787 0.40664563 -0.33949196
0003e0 bd 35 a4 3d bd 57 2f be 5f 1b 44 3c 09 a6 6b be
       0.08018062 -0.17123313 0.011969416 -0.23012556
0003f0 8d 47 b3 be b3 e8 de be 79 28 2f bc 55 31 a2 3e
       -0.35015526 -0.4353691 -0.010690802 0.31678262

fc1.bias f4 [64]
000000 f8 2f 9b bd 63 6f 01 3f bd 20 f4 bd 56 44 0f be
       -0.07577509 0.5056059 -0.11920307 -0.13990912
000010 ee 70 8f 3e ce 57 02 bd 6d 90 77 bd 85 17 25 3c
       0.28015846 -0.03182202 -0.06044047 0.010076408
000020 c6 ca 4f be 97 9f 93 3e b3 d4 d9 be 5a 05 5e be
       -0.20292196 0.28832695 -0.4254509 -0.21681729
000030 00 46 a5 bc df d7 88 be 5e 29 8a be a9 7b bd bd
       -0.02017498 -0.26727197 -0.26984686 -0.09252102
000040 85 df be 3d 3d 22 61 3e c7 f5 0c 3c 1c ea 2d 3e
       0.09319977 0.21985717 0.00860352 0.16983837
000050 7c 1e 92 be 91 24 2f 3d b1 75 e2 3c 64 17 f2 bd
       -0.28538883 0.04275948 0.02764401 -0.11820868
000060 63 07 78 3c 74 b8 a5 be 33 cb 8c be c0 27 10 3c
       0.01513848 -0.3236729 -0.2749878 0.00879854
000070 8e 01 87 be 9b 5a 95 be 54 12 c3 3c e4 e4 95 3e
       -0.26368374 -0.2917069 0.02381245 0.29276192
000080 7c bb 05 3e 3f ee 4a 3c ef 50 a6 3e 04 2e 1b 3f
       0.13059801 0.012385904 0.32483622 0.6061709
000090 39 91 e9 3e ee e6 f3 3d 95 43 20 be eb e0 02 be
       0.4561861 0.11909281 -0.1565078 -0.12781112
0000a0 d7 ed 88 be 85 92 c0 be 38 25 e2 3d a8 f5 d8 3e
       -0.26743957 -0.37611786 0.11042255 0.4237492
0000b0 b8 9e ad bd fa 57 be be 47 2d f2 bd dc 2d 2a be
       -0.08477539 -0.37176496 -0.11825042 -0.16619056
0000c0 0e 96 c1 be 6a 70 c2 3d 3d 3f f1 3e 59 4d b9 3e
       -0.37809795 0.094940975 0.4711856 0.36191824
0000d0 97 1d 90 3e 16 b6 41 be 9b b7 dc be bc 52 1b 3f
       0.28147575 -0.18917117 -0.4310883 0.6067312
0000e0 4e de cf bc 80 5b 57 3e d1 d8 2b 3b eb cd 9a 3e
       -0.025374558 0.21030998 0.0026221762 0.30235228
0000f0 7f e7 48 3e 6a 15 f4 3d a4 5a 35 3d b0 f5 2e 3e
       0.19619559 0.11918147 0.044275895 0.1708591

fc2.weight f4 [32, 64]
000000 da f9 48 bd 36 08 b9 3d 97 33 44 3d 38 bd a5 bc
       -0.049066402 0.09034769 0.047900762 -0.020231828
000010 b2 e4 4e bd b5 79 24 3e c9 b0 a4 3d 43 60 03 3f
       -0.05051107 0.16062053 0.080415316 0.5131876
000020 35 b8 24 3e 74 f0 df bd 82 21 02 bc d5 c2 29 3e
       0.16085894 -0.10934535 -0.007942559 0.16578229
000030 5d f5 a8 3a 93 f1 1c be c2 1e 37 3e 64 e1 a0 bd
       0.0012890507 -0.15326528 0.17882827 -0.0785549
000040 3d cb fb 3d 94 73 18 3e 26 30 00 3e 4e 1c 0e bd
       0.12294624 0.1488784 0.12518367 -0.034694962
000050 83 f3 11 be 56 63 7b 3e 2a 9d 86 3d bf b0 8e bd
       -0.14253049 0.24549612 0.065729454 -0.069673054
000060 08 05 ea 3c c5 14 b3 bb 60 05 69 be e0 f2 d0 3d
       0.028566852 -0.0054651224 -0.22755957 0.10202575
000070 43 ab 5c 3d c8 ef 26 bc a0 82 fe bb 70 39 52 3e
       0.053874265 -0.010189004 -0.0077670366 0.20529723
000080 f1 69 a5 3d 23 21 8d 3e 68 34 d2 bc 51 29 69 3e
       0.08076847 0.27564344 -0.025659755 0.22769667
000090 3b 20 d9 3d b8 1c 19 3d c8 63 dc bc 4c 7e ad bd
       0.106018506 0.037380904 -0.026903048 -0.08471355
0000a0 b4 dc c1 bd d8 94 ad 3d bf 5a 94 bd 4c a5 da 3d
       -0.09465924 0.08475655 -0.07243871 0.10676059
0000b0 30 54 99 3c 23 fb 0a 3d b4 b9 d8 3d 0e 24 3b 3e
       0.018716902 0.03393091 0.10582295 0.18275473
0000c0 cb 94 0a 3e 66 7a 86 bd d8 4e 26 be e9 7b be bd
       0.13533323 -0.065663144 -0.16241014 -0.09300978
0000d0 45 92 35 bc a9 6a eb 3e a8 13 f3 3c 2f ac c2 3d
       -0.011082237 0.45979813 0.029672459 0.09505498
0000e0 52 ee 76 3d 70 5e 10 3d 9f 68 4d 3e df 5f 03 3e
       0.060285874 0.035246313 0.20059441 0.1282954
0000f0 60 52 98 3e 87 e6 1a bc e0 61 25 3d 78 6a a4 bd
       0.29750347 -0.009454376 0.040376544 -0.0802812
000100 5e d0 83 bd ae 07 3a 3d c6 c3 b3 3d a2 1c 7b bc
       -0.06436227 0.04541748 0.08777575 -0.015326651
000110 bc a7 ea bd cf e3 0c 3e 60 b2 a1 bd 73 ee 03 3f
       -0.11457774 0.13758777 -0.078953505 0.5153572
000120 2a 32 03 bd 20 e3 ee bd 03 11 0b 3e 88 3c d5 3d
       -0.032030262 -0.116644144 0.13580708 0.10411936
000130 f0 e7 80 3a 5f f9 11 be 80 ba 5c 3e 13 29 c1 3d
       0.0009834748 -0.14255284 0.21555519 0.094316624
000140 ad dd 67 bc 42 31 36 3d b0 00 80 3d 53 f5 d2 bd
       -0.014151973 0.04448057 0.06250131 -0.10300698
000150 72 72 07 bd 25 33 63 3e 8d e9 31 3e ee 0f c6 3d
       -0.033068128 0.22187479 0.17374249 0.09671007
000160 fe 4f ae bd 59 41 a2 3d 99 38 71 be f1 d5 ac 3c
       -0.08511351 0.0792262 -0.23556747 0.021098109
000170 ef 96 11 3d 81 f4 3c bd ab f6 ce bd e0 89 95 3e
       0.035544332 -0.046131615 -0.10105642 0.29206753
000180 60 78 01 3d 10 26 9c 3e 36 69 9b 3d 3c a8 53 3e
       0.03160894 0.3049779 0.07588427 0.20669645
000190 65 9a 80 3d 27 5d 8e 3c ad 3a 7e 3d 01 e7 b8 bc
       0.062794484 0.017378403 0.062067676 -0.022571089
0001a0 8a ce b6 bd 9c 81 55 3d ce f7 b8 3d 75 d7 3d bd
       -0.08926113 0.05212556 0.0903164 -0.046348054
0001b0 1e e2 7f 3d e5 e5 b2 bd fc ad f9 3d c8 f5 25 bd
       0.0624715 -0.08735255 0.12191388 -0.0405176
0001c0 9d 2c a5 3d b1 24 7c bd 5a e7 49 be 65 7f 28 3d
       0.0806515 -0.06155843 -0.1971716 0.041137118
0001d0 03 3e 00 be 21 df a5 3e 40 12 ac 3c 91 b7 23 3e
       -0.12523656 0.32396796 0.021004796 0.15987994
0001e0 6e 07 f9 3d 82 36 b2 3d 39 19 64 3e 6e 80 82 bd
       0.1215962 0.08701803 0.22275247 -0.06372152
0001f0 ec ea 91 3e 99 41 23 3d e8 38 19 bd 41 24 74 bc
       0.28499544 0.03985748 -0.037407786 -0.014901222
000200 b0 2c 6a 3d 43 ab 83 bd d7 ec d4 3c 4a 38 f6 3d
       0.057171524 -0.0642915 0.02599184 0.12022455
000210 8c dd da bd 8b 17 c9 bd f0 fa 2a 3d f9 63 a3 bd
       -0.10686788 -0.098189436 0.04174322 -0.07978053
000220 5f ef 42 bd a4 88 94 3d 8a f6 c1 3c ab da 1b 3b
       -0.047591563 0.07252625 0.02367713 0.002378146
000230 ac e1 de bd 5d e3 2b bc a9 f5 b1 3d 2a 3b 75 bd
       -0.10882887 -0.010491219 0.08689434 -0.059870876
000240 e3 15 92 3d 76 1f 32 bd 3e c3 cd 3c a3 bf 96 3d
       0.07133081 -0.043487035 0.025117513 0.073607706
000250 c3 cb 88 bd 6c e9 24 3d 0d 76 be 3c e2 df d6 3d
       -0.066794895 0.04026167 0.02324965 0.10491921
000260 80 6e d0 ba d1 65 ba 3d ef ab 1a 3d 40 3a a8 3c
       -0.0015902072 0.09101451 0.037761625 0.020535588
000270 f3 b6 df 3d e3 6b cc bd a0 10 62 bc ac 8d 2c 3c
       0.10923567 -0.09981515 -0.013797909 0.010531824
000280 b8 1e 04 3d 1e a4 c1 3d a8 70 ef bd d1 97 fa 3c
       0.03225586 0.09455131 -0.11691409 0.03058997
000290 5a 7e 75 bb 3f 66 d0 3c 04 f9 67 3c fb 06 18 3d
       -0.0037459345 0.02543938 0.014158491 0.037116032
0002a0 26 c8 d9 3d 90 ee b1 3c 8b 35 84 bd 40 fc 90 bd
       0.106338784 0.0217202 -0.06455525 -0.07079363
0002b0 f5 cc 2c bd 14 b5 24 3d 54 a8 2a bd 00 47 10 bd
       -0.04218765 0.040211752 -0.041664436 -0.03522396
0002c0 46 8e 3e bd 5f ec 4f bd 9b b9 1a 3c c0 b7 51 bd
       -0.0465224 -0.05076253 0.009443666 -0.05120063
0002d0 b2 16 36 bd 08 b1 a5 3d 0c a0 a4 3d d2 92 7f bc
       -0.044455238 0.08090407 0.08038339 -0.0155989695
0002e0 ef f0 9b 3c 5e ce bb bd e6 68 cb 3c a6 85 41 3d
       0.019035785 -0.09170221 0.024830293 0.047246598
0002f0 c7 96 87 bd 9b 54 56 3b b4 46 88 bd 33 c0 12 3c
       -0.06620555 0.0032704237 -0.066541106 0.008956957
000300 50 f2 a6 3d 1c 2b dd 3d cc 7d 78 bd 4c 70 77 3d
       0.08151686 0.10799238 -0.060666844 0.06040983
000310 b2 5f 94 bd 58 a5 a0 3c 70 7c 44 bc f8 2b d8 bd
       -0.07244815 0.019610092 -0.011992559 -0.105552614
000320 70 5a db 3d a8 f5 f8 bd 74 b5 ad bd 84 1d f5 bd
       0.10710609 -0.1215623 -0.08481875 -0.1196852
000330 34 e8 bb bd 40 75 9d bd 8d c2 6b bd a8 bf f2 bc
       -0.091751486 -0.07688379 -0.057558585 -0.029632404
000340 18 86 b1 bd 40 c0 3b 3c 72 fb ee bd 7a a7 b8 3d
       -0.086681545 0.01145941 -0.11669053 0.090163186
000350 e0 40 d4 3d 96 96 bc bd 80 90 e8 ba 4e 9d 89 bd
       0.103639364 -0.092084095 -0.001774326 -0.067194566
000360 6c e6 f4 bd 98 a9 9a 3c 9c a3 67 bd b0 54 bc bd
       -0.11958012 0.018879697 -0.056552514 -0.0919584
000370 1a 7a a6 bd 38 d6 14 bd e8 6c 04 bd ce 9e f2 3d
       -0.08128758 -0.036337107 -0.032330424 0.11846696
000380 9e d2 87 3d 10 55 7c bd 13 25 ca 3d b8 f6 09 bd
       0.06631969 -0.06160456 0.098703526 -0.033682555
000390 06 65 e8 bd f0 88 f0 3c fc 92 f9 bd 44 12 2b bd
       -0.11347394 0.029362172 -0.12186238 -0.041765466
0003a0 54 b8 12 3d 2a 49 d9 bd fa ea d5 3d 50 9c ea 3c
       0.03582032 -0.10609658 0.10445209 0.028638989
0003b0 a5 db 22 bd dc 6e df bd b4 d1 67 bd 10 7f 6b bc
       -0.03976025 -0.109098166 -0.056596473 -0.014373556
0003c0 f8 64 e5 bc 20 da c8 bd 60 c1 49 3c d4 73 40 3d
       -0.028002247 -0.09807229 0.012314171 0.046985462
0003d0 00 2c c8 3b ec 62 0f 3d e0 7b 7b 3d f8 74 a2 bd
       0.006108761 0.03500645 0.061397433 -0.07932466
0003e0 3a 6a b6 bd 4c aa 1c 3d aa af a7 3d 72 42 97 3d
       -0.0890698 0.038248345 0.08187802 0.0738572
0003f0 b6 d0 a6 3d 72 93 f8 bd a4 0a 06 bd 28 d5 e1 bc
       0.08145277 -0.12137498 -0.03272499 -0.027567461

fc2.bias f4 [32]
000000 e3 69 c4 3d e2 53 37 3e 56 c1 fc bd 67 ab c2 3d
       0.09590509 0.17903093 -0.123415634 0.09505349
000010 f0 4d 22 bd 18 18 53 bd 40 b9 17 be 7d 6e a6 bc
       -0.03962511 -0.05153665 -0.14816761 -0.020316357
000020 55 a9 27 bd 96 e1 90 3d fc 7c 15 bd 54 d1 98 3d
       -0.040932972 0.07074277 -0.036496148 0.07461801
000030 f0 54 9c 3d 98 d8 e3 bd ac 8a a0 bd 33 58 82 bd
       0.07633388 -0.11125296 -0.078389496 -0.06364479
000040 80 e2 a6 3d d3 e2 53 bd c3 8d 8a bd 16 f9 3a 3d
       0.0814867 -0.05172999 -0.0676532 0.045647703
000050 d6 88 bb bc 7b e3 86 bd 91 ca a4 bb ae 25 4e 3d
       -0.022892397 -0.06586357 -0.0050290306 0.050328903
000060 84 c3 59 3e 8d 30 a2 bd 76 3e 01 3e ca 64 f9 bc
       0.2126599 -0.079194166 0.12621483 -0.030443568
000070 29 ff a5 bd cb 7a c6 bd 16 49 b6 bd 3a 75 36 be
       -0.081053086 -0.0969139 -0.08900659 -0.17818156

pi.weight f4 [1, 32]
000000 9f a7 8f 3e e6 cf fe 3d 70 e9 ef bd 22 df f5 bd
       0.28057572 0.12441997 -0.117144465 -0.1200545
000010 ed 3b 30 3e 64 f1 ae bc 1b 5e 0a be f6 7d f5 bb
       0.1721036 -0.021355338 -0.13512461 -0.0074918224
000020 45 d9 be 3d d9 20 a6 3d b7 e4 19 be f6 0e fb 3d
       0.093187846 0.08111734 -0.15028654 0.12258713
000030 dc 19 38 bd 51 0a 0a 3e a7 57 51 3d 63 80 13 be
       -0.044946536 0.13480498 0.051108982 -0.14404444
000040 74 cf dd 3a 60 a6 e3 3d e2 ef 0f be 63 e8 4a 3e
       0.0016922788 0.11115718 -0.14056352 0.19815211
000050 8e 78 08 3e 64 55 81 3c fa 67 4c bc ef bd 57 be
       0.13327238 0.015787788 -0.012475962 -0.21068548
000060 02 bb 77 3e 5a 11 83 3d c1 da 20 3e 53 4f 1d be
       0.24192432 0.06399794 0.15708448 -0.15362291
000070 25 b9 2e be be f2 03 be f5 73 7f 3c 7b 01 5b be
       -0.17062815 -0.12885568 0.015591611 -0.21387284
