model/maddpg/agent_0_target_actor.pth (torch, 12746 bytes, 5 tensors)

fc1.weight f4 [64, 5]
0.16656609 -0.012384754 0.3294433 -0.43167627 -0.19851795 -0.2673733 -0.0072465423 0.39540258
0.22100672 -0.1073704 0.26530468 0.08667995 0.13204175 0.0033412238 0.18368271 -0.013587776
0.56678414 0.087288484 -0.17251912 -0.16898157 0.09742575 -0.036220845 0.0020719504 -0.6929852
-0.589273 0.11424024 -0.028717637 -0.093424775 0.0771661 -0.029744517 0.43395653 0.11115644
-0.036875386 0.33162734 0.067499034 0.1154175 -0.67975 -0.625823 -0.12137411 0.5719988
-0.13169286 0.30442655 0.15351266 -0.34870094 -0.7741906 -0.09412365 0.50310695 0.10815534
-0.13449131 -0.11084128 -0.24393745 0.059626125 0.23973683 -0.41916263 -0.44583276 0.3481982
0.2117261 -0.18551962 -0.32154527 -0.015291272 0.2631205 -0.23974277 -0.21093433 0.16840935
0.14347224 -0.1744339 -0.10332363 0.24903366 -0.10149824 -0.14885753 0.26364502 0.2090255
-0.18943045 0.2830672 0.18851104 0.23000568 -0.25170147 -0.18531981 0.0027156074 0.061968658
-0.2349282 -0.1445034 0.33065858 0.21374916 0.10886314 0.08470858 0.195087 0.033835962
0.115556754 0.2574771 -0.23190747 -0.35862225 0.3501144 0.030846171 0.43058345 0.10624352
0.27078566 -0.059753153 -0.54831856 0.0990455 0.01402863 -0.10465122 0.10331693 -0.401751
0.2581359 0.13205348 -0.030606734 -0.07065056 -0.087693796 -0.75954574 -0.031291258 0.44870868
0.17844233 0.24047591 0.48864082 0.44078425 0.0007479139 -0.33442855 0.3669727 0.2585011
0.1892786 0.12111391 0.216716 -0.2681463 0.07955437 -0.13410537 0.16720988 0.19922982
-0.03990932 -0.3128017 0.06533011 0.6016052 -0.012498779 -0.7884659 -0.8200624 0.05360587
0.17281985 -0.04577503 -0.06874179 0.045982357 -0.019829461 0.3221656 0.20178235 0.4434182
-0.10309019 -0.287168 0.53068155 0.36600715 0.12607475 -0.14535576 0.12789904 0.55881494
-0.13959643 -0.11597399 -0.23698458 -0.04027824 -0.09461438 0.14186786 0.038491435 0.36771625
-0.27461523 -0.37569588 0.31955126 0.36994103 0.31675577 0.14295965 0.23501018 -0.10629045
0.1701498 -0.40170142 -0.15340684 0.48653382 0.24149814 -0.41205478 0.017181706 0.10635443
-0.26176688 0.2324859 -0.25784296 -0.4461449 0.29834986 0.116216876 -0.19318852 -0.08799331
0.24680145 -0.03471955 0.09845244 0.0016790191 -0.026971966 -0.432979 -0.021571854 -0.43819982
0.39811268 0.36346915 -0.33189538 0.001575875 -0.17744096 0.09286524 0.060096625 -0.32965425
0.37437811 0.39249375 -0.32303813 0.3502167 -0.21911079 0.44076827 0.38587674 0.3551965
0.32674 0.10624439 0.043052062 0.25768337 0.14386564 -0.30695832 -0.15913503 -0.25536156
0.34813112 0.37144378 0.3305863 -0.16277027 -0.26417398 -0.16554558 0.34740412 0.15931176
-0.3707824 0.2455022 -0.14608745 -0.021451848 0.4024099 -0.2335668 -0.23870736 0.10469488
0.4193064 0.22443034 -0.14170627 0.32668462 0.12989116 0.19119327 0.31128612 -0.063083574
-0.07788434 0.25629875 0.07558808 -0.23595044 -0.30740082 0.19040202 0.4436989 -0.1806149
-0.07346541 -0.52518004 0.083151914 -0.13181044 0.287424 -0.22335005 0.07385442 -0.27313703
00000000: 4d90 2a3e 6ce9 4abc cbac a83e ac04 ddbe
00000010: 4a48 4bbe 27e5 88be 6774 edbb 3572 ca3e
00000020: 964f 623e 03e5 dbbd 04d6 873e 4285 b13d
00000030: f435 073e 6ff8 5a3b 5217 3c3e 439f 5ebc
00000040: c418 113f 4ec4 b23d daa8 30be 8109 2dbe
00000050: 2787 c73d 4f5c 14bd 8fc9 073b 7a67 31bf
00000060: 98da 16bf c9f6 e93d 4041 ebbc 7d55 bfbd
00000070: 4309 9e3d c6aa f3bc 8d2f de3e fda5 e33d
00000080: a50a 17bd 0fcb a93e ef3c 8a3d 0360 ec3d
00000090: 1904 2ebf f035 20bf fd92 f8bd 836e 123f
000000a0: 7eda 06be ccdd 9b3e 6c32 1d3e ee88 b2be
000000b0: 5b31 46bf e6c3 c0bd 9ecb 003f 8c80 dd3d
000000c0: 17b8 09be c100 e3bd bdca 79be 863a 743d
000000d0: 927d 753e 7c9c d6be 3144 e4be 0947 b23e
000000e0: bace 583e dbf8 3dbe 95a1 a4be 3e88 7abc
000000f0: bbb7 863e 217f 75be 2bff 57be 8073 2c3e
00000100: 63ea 123e cd9e 32be 579b d3bd ae02 7f3e
00000110: 4fde cfbd 1c6e 18be 7bfc 863e c80a 563e
00000120: 0efa 41be 2fee 903e 0a09 413e 9c86 6b3e
00000130: 04df 80be 7ac4 3dbe 55f8 313b d9d2 7d3d
00000140: 0591 70be b3f8 13be 154c a93e 0fe1 5a3e
00000150: a3f3 de3d b17b ad3d e3c4 473e 9497 0a3d
00000160: 05a9 ec3d 0ad4 833e 2779 6dbe 569d b7be
00000170: 3242 b33e 1cb1 fc3c 6f75 dc3e 3496 d93d
00000180: 6ba4 8a3e b9bf 74bd 9b5e 0cbf 5ed8 ca3d
00000190: 57d8 653c 6153 d6bd d497 d33d 4fb2 cdbe
000001a0: 642a 843e 0739 073e f9ba fabc 3eb1 90bd
000001b0: ce98 b3bd 9771 42bf 432b 00bd 25bd e53e
000001c0: 96b9 363e 513f 763e 212f fa3e 79ae e13e
000001d0: a70f 443a 383a abbe d9e3 bb3e 425a 843e
000001e0: 40d2 413e 920a f83d cdea 5d3e 794a 89be
000001f0: 67ed a23d eb52 09be 1139 2b3e e702 4c3e
00000200: f577 23bd 8b27 a0be cbcb 853d cc02 1a3f
00000210: aec7 4cbc e7d8 49bf 9cef 51bf d491 5b3d
00000220: b0f7 303e 997e 3bbd 7fc8 8cbd ff57 3c3d
00000230: 6571 a2bc e4f2 a43e 08a0 4e3e b607 e33e
00000240: f320 d3bd af07 93be bfda 073f 4a65 bb3e
00000250: bd19 013e 24d8 14be f7f7 023e 7f0e 0f3f
00000260: 5ef2 0ebe c583 edbd 16ac 72be ccfa 24bd
00000270: 2fc5 c1bd cf45 113e 32a9 1d3d 4e45 bc3e
00000280: 5e9a 8cbe 365b c0be 399c a33e e968 bd3e
00000290: d02d a23e 0464 123e 82a6 703e cfae d9bd
000002a0: c03b 2e3e cfab cdbe af16 1dbe f61a f93e
000002b0: 4a4b 773e d8f8 d2be a6c0 8c3c 5ad0 d93d
000002c0: 4f06 86be c910 6e3e fe03 84be 1b6d e4be
000002d0: 50c1 983e 1d03 ee3d 36d3 45be d635 b4bd
000002e0: 85b9 7c3e 1636 0ebd 6fa1 c93d 8812 dc3a
000002f0: 50f4 dcbc 6caf ddbe 75b7 b0bc ba5b e0be
00000300: 6dd5 cb3e a118 ba3e 31ee a9be 978d ce3a
00000310: 15b3 35be 2230 be3d e127 763d 71c8 a8be
00000320: 7dae bf3e f1f4 c83e 4165 a5be 9a4f b33e
00000330: 945e 60be 61ac e13e a391 c53e 51dc b53e
00000340: 774a a73e a996 d93d 5c57 303d 13ef 833e
00000350: 8451 133e a429 9dbe 4bf4 22be c0be 82be
00000360: 3e3e b23e e12d be3e 9c42 a93e 40ad 26be
00000370: d041 87be c884 29be f4de b13e 9f22 233e
00000380: 31d7 bdbe ee64 7b3e f397 15be c9bb afbc
00000390: ac08 ce3e 232c 6fbe b46f 74be 456a d63d
000003a0: 54af d63e 11d1 653e 731b 11be 3543 a73e
000003b0: 3002 053e 2bc8 433e e560 9f3e f631 81bd
000003c0: d381 9fbd 9739 833e eccd 9a3d fe9c 71be
000003d0: a463 9dbe bff8 423e 812c e33e 1df3 38be
000003e0: 0875 96bd 3372 06bf 8d4b aa3d 51f9 06be
000003f0: 3d29 933e e0b5 64be fc40 973d 9ed8 8bbe

fc1.bias f4 [64]
0.18896316 -0.26338693 -0.06581624 0.015518037 0.08764387 -0.38980433 -0.04039963 0.37221095
-0.6506539 -0.13358234 0.24358131 -0.27837035 -0.07602915 -0.3938962 0.30698058 0.30041468
-0.594548 -0.18955518 0.15060447 -0.5356466 -0.25688085 -0.69222224 0.28232512 -0.37914106
-0.4354538 -0.113397695 -0.46680167 0.008749141 -0.3499003 0.18105449 -0.65071946 0.2589438
-0.03065442 0.0953068 -0.22639878 0.03376298 0.07306605 -0.53531283 -0.07550991 -0.09589242
0.16461353 -0.23450969 0.24444465 0.16071013 0.2098274 -0.4305911 -0.04776879 0.021952234
-0.7483758 -0.5824959 0.02257188 0.36330107 0.12710628 -0.13462095 -0.2567428 0.3821257
-0.10100729 -0.005623191 -0.2978611 0.28031123 0.4336072 -0.14558375 -0.15354246 -0.22691585
00000000: 8f7f 413e a7da 86be aaca 86bd 5d3f 7e3c
00000010: a17e b33d 6f94 c7be 157a 25bd 6f92 be3e
00000020: 4191 26bf cfc9 08be 616d 793e 8f86 8ebe
00000030: 2cb5 9bbd c3ac c9be 8f2c 9d3e f4cf 993e
00000040: 4c34 18bf c11a 42be 0f38 1a3e 2320 09bf
00000050: e385 83be 7a35 31bf eb8c 903e c71e c2be
00000060: cdf3 debe 0d3d e8bd a100 efbe 8f58 0f3c
00000070: 2226 b3be 5966 393e 8d95 26bf 4894 843e
00000080: fa1e fbbc 3630 c33d 15d5 67be 0d4b 0a3d
00000090: a7a3 953d 430a 09bf f1a4 9abd 3f63 c4bd
000000a0: 7390 283e 4f23 70be b34f 7a3e 3291 243e
000000b0: fedc 563e 7076 dcbe 35a9 43bd 2cd5 b33c
000000c0: 8e95 3fbf 741e 15bf aae8 b83c 9902 ba3e
000000d0: 2628 023e 13da 09be cb73 83be fba5 c33e
000000e0: e9dc cebd bf42 b8bb 4081 98be f484 8f3e
000000f0: c301 de3e e813 15be 3c3a 1dbe a15c 68be

fc2.weight f4 [32, 64]
-0.024010405 0.08417404 0.05273892 -0.016036367 -0.053994223 -0.010744819 -0.10359116 -1.0513257
0.048949428 0.02855 0.052250784 0.09677386 -0.026252799 0.07851027 -0.08012027 -0.059157252
0.1301342 0.02519986 0.029870555 0.06686492 0.116517246 0.09068743 0.008057298 -0.08378616
-0.06841974 -0.045102194 -0.051196158 -0.11253233 -0.04278545 -0.05737482 0.04617967 -0.05169697
-0.031122342 -0.008643419 0.09845765 0.01717165 0.03463573 0.06449341 -0.0047375113 0.003538087
0.040821537 -0.054669246 -0.08874561 0.035900906 -0.021599293 -0.057103425 -0.073836446 0.11916238
0.09996416 0.02243437 -0.097287916 -0.036094442 -0.04250866 0.095670536 0.1024549 -0.11372809
0.05951719 -0.025573954 -0.014767857 0.12646106 -0.080075726 0.0014811478 0.005188426 0.073274665
-0.088066876 -0.09329198 0.08807559 0.07451817 0.13407257 -0.019180885 -0.0038930923 0.13000594
0.03550894 -0.14437228 0.07354959 -0.05011657 0.04576542 -0.020925164 -0.05338745 0.0459162
0.18071923 -0.011798263 -0.06691347 -0.015861835 0.074444935 0.016623098 0.08471728 -0.112581745
0.07242581 -0.09546569 0.09697126 0.019428328 -0.092586786 -0.020339267 0.18827412 0.08030556
-0.05167277 0.034212537 0.19443128 -0.037450433 -0.00752507 0.0838761 0.11732884 -0.050935015
-0.121284276 -0.028599426 -0.0037665963 -0.10209951 0.03360718 0.11926736 0.10950729 -0.12326194
0.13278064 0.276913 -0.09171094 0.027659297 -0.08434722 0.009851009 -0.0064962953 -0.0045550168
0.1159541 0.02695781 0.0122483475 0.084081165 0.10785806 -0.11762057 0.032300718 0.17944218
-0.029508606 -0.111117035 0.11205828 -0.016772112 -0.14479995 0.024997931 0.10396467 -0.039435405
-0.05865196 -0.035599098 0.014697914 -0.017778054 0.023345018 -0.006768603 -0.03427103 -0.08217724
-0.0015787272 0.099721566 -0.009299263 -0.16512366 0.026771113 -0.1960421 0.03830142 -0.101179354
-0.015478715 0.0521238 -0.06424158 0.06586571 -0.10634875 -0.12043093 -0.047637757 0.1149665
-0.11033688 -0.08842693 -0.016261933 0.12003282 0.034421526 0.030454742 0.11105761 -0.18996243
-0.111457445 0.037648574 0.066221945 0.09667939 -0.051914454 -0.073458806 0.0831034 -0.09068644
0.024185445 -0.028640898 -0.0700552 0.009710769 -0.022340681 -0.040796626 0.059210006 -0.091189384
-0.031741098 -0.010692924 -0.11716906 -0.07467091 0.10931133 -0.13637333 0.023837503 -0.047719713
-0.09327705 -0.034183383 0.075246856 -0.095228575 -0.13729867 0.034833044 0.123866394 0.2277867
-0.0009541554 -0.1073567 -0.14974415 -0.11380032 -0.08589946 0.007853314 0.11520434 -0.0036652237
-0.12692003 0.03206095 -0.035099834 0.0443507 -0.03147754 -0.035669874 0.1153878 0.04074256
0.05483079 -0.0035089701 -0.008944757 0.04394658 0.008270279 0.062136054 -0.02252974 -0.00619936
-0.09217194 0.062738225 -0.12381498 0.09216671 -0.06814577 -0.04394488 0.07805088 -0.050021634
-0.048912406 -0.07792808 -0.025368497 0.04689568 -0.015907332 0.010109395 -0.10726163 0.05051282
0.013580977 -0.14964283 0.032198906 -0.005933255 -0.018765554 0.10682565 -0.12236272 0.09497513
0.020964518 0.08477765 0.096514866 0.0006902261 0.041204274 -0.04412636 0.048294522 0.09176404
00000000: 78b1 c4bc 7063 ac3d c404 583d b35e 83bc
00000010: 0c29 5dbd 0a0b 30bc 9a27 d4bd d791 86bf
00000020: 327f 483d b1e1 e93c eb04 563d 6031 c63d
00000030: 1c10 d7bc fec9 a03d 1916 a4bd e04e 72bd
00000040: e641 053e f06f ce3c 18b3 f43c 7af0 883d
00000050: 98a0 ee3d 55ba b93d c202 043c 1498 abbd
00000060: a61f 8cbd 14bd 38bd 10b3 51bd 5a77 e6bd
00000070: cc3f 2fbd dc01 6bbd e526 3d3d 34c0 53bd
00000080: 48f4 febc 209d 0dbc 2aa4 c93d 8fab 8c3c
00000090: 32de 0d3d 1f15 843d 203d 9bbb 40df 673b
000000a0: 7c34 273d dcec 5fbd 42c0 b5bd d40c 133d
000000b0: 00f1 b0bc 48e5 69bd 9037 97bd 680b f43d
000000c0: 02ba cc3d 49c8 b73c e33e c7bd c4d7 13bd
000000d0: 901d 2ebd eaee c33d e0d3 d13d 46ea e8bd
000000e0: 4cc8 733d 7880 d1bc e2f4 71bc 027f 013e
000000f0: befe a3bd 1323 c23a ac03 aa3b 0711 963d
00000100: 685c b4bd de0f bfbd fa60 b43d fb9c 983d
00000110: 524a 093e 3b21 9dbc 4023 7fbb 4720 053e
00000120: d371 113d 54d6 13be 2ba1 963d 0847 4dbd
00000130: 8574 3b3d 406b abbc ccac 5abd a012 3c3d
00000140: 760e 393e 804d 41bc ee09 89bd aef0 81bc
00000150: 9676 983d 2a2d 883c 4180 ad3d 4291 e6bd
00000160: fc53 943d 8483 c3bd de98 c63d 2828 9f3c
00000170: 249e bdbd 899e a6bc eeca 403e 3e77 a43d
00000180: d4a6 53bd 7222 0c3d fe18 473e a065 19bd
00000190: dd94 f6bb 3cc7 ab3d 1a4a f03d 3ca1 50bd
000001a0: e463 f8bd 5849 eabc 00d9 76bb 8c19 d1bd
000001b0: afa7 093d 7242 f43d 5c45 e03d c270 fcbd
000001c0: a6f7 073e 8ac7 8d3e f2d2 bbbd c095 e23c
000001d0: 3cbe acbd 2066 213c e0de d4bb 4042 95bb
000001e0: 5879 ed3d a0d6 dc3c 4bad 483c bf32 ac3d
000001f0: b0e4 dc3d 0ee3 f0bd c24d 043d b1bf 373e
00000200: 08bc f1bc 5491 e3bd d07e e53d ab65 89bc
00000210: 7046 14be 76c8 cc3c 6eeb d43d 0587 21bd
00000220: 0a3d 70bd 5cd0 11bd 85cf 703c 48a3 91bc
00000230: 0d3e bf3c 28cb ddbb c85f 0cbd 8a4c a8bd
00000240: 4bed ceba d23a cc3d f05b 18bc 2d16 29be
00000250: 184f db3c 43bf 48be f3e1 1c3d 1f37 cfbd
00000260: 709a 7dbc c47f 553d 1791 83bd 9ae4 863d
00000270: 60cd d9bd 7ea4 f6bd cf1f 43bd 8e73 eb3d
00000280: 4df8 e1bd 2e19 b5bd bf37 85bc c4d3 f53d
00000290: 96fd 0c3d 397c f93c 2c72 e33d 8385 42be
000002a0: cd43 e4bd 6435 1a3d 5f9f 873d d8ff c53d
000002b0: 40a4 54bd 9271 96bd 1e32 aa3d d0b9 b9bd
000002c0: 8e20 c63c 51a0 eabc 1a79 8fbd eb19 1f3c
000002d0: ce03 b7bc 5d1a 27bd 3186 723d 80c1 babd
000002e0: f402 02bd 6031 2fbc 55f6 efbd 10ed 98bd
000002f0: 9ede df3d 73a5 0bbe de46 c33c bf75 43bd
00000300: 0a08 bfbd e003 0cbd 061b 9a3d 3307 c3bd
00000310: 0698 0cbe 18ad 0e3d aaad fd3d eb40 693e
00000320: 4920 7aba d4dd dbbd 8856 19be 2410 e9bd
00000330: 0eec afbd 30ab 003c 41f0 eb3d 4034 70bb
00000340: 53f7 01be 5852 033d d8c4 0fbd 14a9 353d
00000350: 98ee 00bd 931a 12bd 7050 ec3d ace1 263d
00000360: 4096 603d c0f6 65bb 088d 12bc 5401 343d
00000370: 1080 073c 6082 7e3d 4a90 b8bc 0024 cbbb
00000380: a4c4 bcbd e67c 803d b592 fdbd e6c1 bc3d
00000390: 0290 8bbd 8cff 33bd 24d9 9f3d 7ce3 4cbd
000003a0: 6058 48bd c298 9fbd 98d1 cfbc af15 403d
000003b0: 1850 82bc e0a1 253c fcab dbbd 88e6 4e3d
000003c0: bf82 5e3c f83b 19be 00e3 033d c06b c2bb
000003d0: 38ba 99bc 68c7 da3d 4e99 fabd 5282 c23d
000003e0: c8bd ab3c e89f ad3d 96a9 c53d 4af0 343a
000003f0: d0c5 283d d8bd 34bd 7ad0 453d c9ee bb3d

fc2.bias f4 [32]
0.15925556 0.06693465 -0.023849798 0.12518531 -0.12744753 0.028838895 0.00800561 -0.028265424
0.09466065 0.2998527 0.05218325 -0.037350357 -0.08208797 -0.057466805 0.010036733 -0.12949644
0.020238683 -0.09903681 -0.17121823 0.32970527 -0.08080051 0.11389699 0.016080324 -0.10469231
0.10673078 0.07796564 -0.032776624 0.04017128 -0.15388519 0.1353623 -0.12164985 0.16580611
00000000: e413 233e 0915 893d a760 c3bc 9430 003e
00000010: 9b81 02be 8c3f ec3c f629 033c e48c e7bc
00000020: 71dd c13d 4b86 993e 1bbe 553d b0fc 18bd
00000030: bd1d a8bd 5062 6bbd 1c71 243c b79a 04be
00000040: 98cb a53c d0d3 cabd d553 2fbe 21cf a83e
00000050: bd7a a5bd d342 e93d e2ba 833c ec68 d6bd
00000060: ab95 da3d 73ac 9f3d c840 06bd a48a 243d
00000070: 1494 1dbe 6a9c 0a3e 8e23 f9bd 14c9 293e

pi.weight f4 [1, 32]
0.23748226 0.061983693 -0.005012825 -0.20234078 -0.11294979 0.0833717 0.017760245 0.038133956
-0.14638738 0.46451893 -0.22906244 0.098132804 -0.034331746 0.11991587 0.053125855 0.06642161
-0.15144436 0.037304092 0.030064892 -0.28651172 -0.12684998 -0.08084789 -0.13238576 -0.020078495
-0.003234661 -0.075763546 0.27709496 0.104986385 -0.008906759 -0.16165234 0.10656687 0.030589225
00000000: 8d2e 733e 9de2 7d3d a042 a4bb 6c32 4fbe
00000010: 3852 e7bd c8be aa3d ef7d 913c 5a32 1c3d
00000020: 93e6 15be 6dd5 ed3e 588f 6abe daf9 c83d
00000030: 729f 0cbd 7496 f53d 7f9a 593d 0e08 883d
00000040: 3b14 1bbe 2dcc 183d a64a f63c aab1 92be
00000050: f6e4 01be 9493 a5bd 2290 07be a87b a4bc
00000060: 9bfc 53bb eb29 9bbd 64df 8d3e 1a03 d73d
00000070: a8ed 11bc 3188 25be bb3f da3d 4196 fa3c
