model/maddpg/agent_0_critic.pth (torch, 16014 bytes, 5 tensors)

fc1.weight f4 [64, 18]
000000 6e d1 a4 bd 80 b0 73 bc 42 62 56 be 02 f8 b6 be
       -0.08047758 -0.014873624 -0.2093592 -0.3573609
000010 d2 f0 98 3e 24 01 f4 bb 0f 43 13 bf 99 0e b6 3e
       0.2987123 -0.007446425 -0.575242 0.35558012
000020 3a 6f 92 40 06 29 1a 3e 2e 71 31 be 7c 4a cc be
       4.5760775 0.15054712 -0.17328331 -0.39900577
000030 b4 bd 45 bd cf 0a 74 be 12 be 40 be 10 1b 27 3d
       -0.048276618 -0.23832248 -0.18822506 0.040797293
000040 03 ab ab 3d 78 2e 2a 3f d7 7d 28 3d 29 f2 54 3e
       0.08382227 0.66477156 0.041135635 0.20795502
000050 c3 b3 35 3e e6 83 18 be 44 17 01 3e 93 fe cd 3a
       0.17744355 -0.14894065 0.12606531 0.0015716128
000060 cb 82 1d be 43 a2 1a be ee 46 41 3e ad b2 44 be
       -0.15381925 -0.1510096 0.18874714 -0.19208784
000070 e7 fe 17 bd 21 a2 a2 bd b4 ba 14 3e 53 7b af 3c
       -0.03710833 -0.0794108 0.14524347 0.02142111
000080 f6 94 a5 bc cd a7 c3 bb d6 fa df 3d 80 47 ea 3c
       -0.020212632 -0.005970931 0.10936515 0.028598547
000090 78 8f 44 3e 17 ab 65 3e d1 de 16 bd 1f cd 74 be
       0.19195354 0.22428547 -0.036833588 -0.23906372
0000a0 6f 58 0c 3e 68 5c 5b 3e a0 20 f7 bd cc f5 2f 3e
       0.1370561 0.21421969 -0.120667696 0.17183608
0000b0 67 ff 37 3e 63 e7 7b be 88 b5 a2 3c bc e9 f3 bd
       0.17968522 -0.24599986 0.019861951 -0.11909816
0000c0 2b 1b 2d bd ca 0d b7 3d f4 88 cc bd 2a 9f 20 be
       -0.042262238 0.08938177 -0.09987059 -0.15685716
0000d0 b8 7d ec bd 44 42 9a 3d 52 f4 ce 3c 2d f3 89 bf
       -0.115474164 0.075321704 0.025262985 -1.0777336
0000e0 96 ac 24 3e 61 2d bb bf c9 c9 c7 3f 2b b5 f6 3c
       0.16081461 -1.4623224 1.5608455 0.030115684
0000f0 f2 df 96 bf 76 f8 30 3c 83 2d 2e c0 e7 25 dd 3d
       -1.1787093 0.010801425 -2.7215278 0.10798245
000100 c5 bc af 3d 33 66 0a bf 85 a8 a3 3e d4 eb be bf
       0.08580927 -0.54062194 0.31964508 -1.4915719
000110 9c e5 fd bd bb 0b 3b bf 4d 78 86 3f 36 4d 78 bf
       -0.1239731 -0.73064774 1.0505463 -0.96992815
000120 55 be 28 3d d9 f2 85 3e 8d 38 c2 bd 8c c9 79 bd
       0.04119714 0.2616184 -0.094834425 -0.060983226
000130 5f 85 0c be 88 63 54 3d bc 8d 3b 3e 26 f8 95 be
       -0.13722752 0.051852733 0.18315786 -0.29290885
000140 77 70 08 c0 b1 7c 49 be 79 4d e2 be 56 41 4e 3e
       -2.1318643 -0.19676472 -0.44199732 0.20142111
000150 3b 1c 2e be 95 6e 95 bd 49 50 b6 bd ca cc 79 3f
       -0.17002957 -0.072964825 -0.08902032 0.9757811
000160 e8 5c c3 3e ff 0c 8a 3f cf 1c f3 3d 43 43 bc 3d
       0.3815682 1.0785216 0.11870729 0.09192517
000170 4e 58 6e 3e 85 a5 41 ba 1b d1 f1 bd e2 fb fe bb
       0.23275873 -0.000738703 -0.11807462 -0.0077814916
000180 2b e0 78 3d 10 af 95 3d 18 86 80 3d db c6 fe bd
       0.06076066 0.07308781 0.06275576 -0.124402724
000190 c3 b1 38 be b2 e2 15 3d eb 09 a8 bc 36 e7 58 3e
       -0.1803656 0.036593147 -0.020512542 0.2118195
0001a0 97 fc c0 bd 5e 07 e1 bd 35 5c 27 be d9 72 9a bd
       -0.09423178 -0.10987733 -0.16343768 -0.07541437
0001b0 6c 8b e9 bb 2e cd d4 3e 9f 0b e1 3d 3f 2f c6 3e
       -0.007127216 0.4156279 0.10988545 0.3870792
0001c0 a7 8f 9b be b7 d7 99 bc 87 4f 38 3f 32 02 8d 3e
       -0.30383036 -0.018779619 0.7199635 0.27540737
0001d0 67 f5 98 40 99 c8 23 3e 7d 3c 70 3d ec dd 04 3f
       4.7799563 0.1599449 0.058651436 0.51901126
0001e0 55 51 32 be b1 cb eb 3e 4e 9d 27 be 99 14 4c bf
       -0.17413838 0.46053842 -0.163686 -0.7971893
0001f0 a4 9e ff bd e5 e7 52 bf b9 b8 07 3e 67 27 e4 be
       -0.1248143 -0.8238509 0.1325406 -0.44561312
000200 5e 32 81 be 3a 04 b3 3e 89 33 7c 3f b2 b1 ee bd
       -0.2523374 0.34964162 0.98516136 -0.116549864
000210 89 23 10 3e b8 18 94 be 66 c5 90 c0 d6 37 02 be
       0.14076056 -0.2892511 -4.5240965 -0.12716612
000220 75 3f 87 3e 03 75 1b 3f b9 8f 37 be 01 ca a4 3c
       0.264156 0.6072542 -0.1792592 0.020115854
000230 f1 ef 5a 3d 51 a5 91 bf be ca ff 3e 86 06 20 3f
       0.053451482 -1.1378576 0.49959368 0.62509954
000240 90 ec 55 be d8 d5 07 bd 3d 1a 72 be 5a 4e 08 3f
       -0.20891023 -0.03316292 -0.23642822 0.53244555
000250 b4 3e dd be 90 d0 a7 bd d5 94 85 3e 7e e1 30 3d
       -0.432119 -0.08194077 0.26090112 0.043183796
000260 14 08 01 c0 c6 32 46 bd de 98 5e 3d 28 61 a2 3e
       -2.016118 -0.048388265 0.054345004 0.3171475
000270 14 65 ac 3d f4 9f 29 3f a0 a0 bb 3e 0b 4b 7e be
       0.084177166 0.66259694 0.36645985 -0.24833314
000280 fe ce 9b ba 46 72 2c be d5 da 0d 3e de ea 09 bf
       -0.001188725 -0.16840467 0.13853009 -0.53874004
000290 9f f4 7b be 69 f8 87 bf fc 7c ac 3f 27 d9 4d 3e
       -0.24605034 -1.0622684 1.3475642 0.20102368
0002a0 5e 5a 60 bf 22 50 e7 3d 07 4d 2f bf 57 1e 31 3c
       -0.8763789 0.11294581 -0.6847691 0.010810456
0002b0 0f e8 74 be e3 7d e2 be 0a 3c ff bd cf ee 83 bf
       -0.23916648 -0.4423667 -0.124626234 -1.0307254
0002c0 36 27 27 be dc 62 ce bd 16 4e c2 3d f2 ca 7e 3e
       -0.16323552 -0.1007745 0.0948755 0.24882105
0002d0 ff 3e 4e be 7d cb 28 bf 95 04 54 3d c5 e0 75 bf
       -0.20141219 -0.659355 0.051762182 -0.96046096
0002e0 8a 59 5a 3f e8 ad 05 3e cf cc 27 bf c6 9c 9a be
       0.85292876 0.13054621 -0.6554689 -0.30197734
0002f0 c1 34 4c 3f 07 1a 63 3d f5 e4 59 3e 5b 28 f4 be
       0.79767996 0.055444743 0.21278746 -0.4768704
000300 07 22 83 3d ce f0 86 bf b0 2b 59 bd a6 2c f2 3d
       0.064029746 -1.0542238 -0.05302018 0.11824922
000310 b5 67 34 3e 79 16 43 3e bc 9f bf 3c 1f 34 1a 3d
       0.17617686 0.19051541 0.023391597 0.037647363
000320 cf 34 71 3d d8 f0 ff bd 6d 39 28 3e 81 b3 11 3e
       0.058888253 -0.12497109 0.16428156 0.14228632
000330 65 a3 13 be 86 95 74 3d e7 5a 43 3d f9 e1 02 bd
       -0.14417799 0.05971291 0.047694113 -0.031953786
000340 b5 42 e5 3d e4 42 61 3e eb 56 90 bd c3 fe 37 be
       0.11194364 0.21998173 -0.07047828 -0.17968278
000350 85 01 ed 3d 9c 17 18 be b8 6f 09 be 2d 60 d0 3d
       0.115725555 -0.14852756 -0.13421524 0.10174594
000360 9d 87 92 bd cf 94 d9 bd 19 52 27 3e 15 e7 49 be
       -0.071547724 -0.10624086 0.16339912 -0.19717057
000370 f2 3a 44 bf ff 7b ae bd c0 be bf be 7e 14 30 3f
       -0.76652443 -0.08519744 -0.37450218 0.6878127
000380 28 a3 a3 c0 f3 f9 ae 3c 1b bd 42 be e8 19 19 bf
       -5.1136665 0.02135942 -0.1901745 -0.59805155
000390 6d fc 84 3d f7 eb 10 bf 52 92 9a 3c f0 16 ca 3f
       0.06493459 -0.56610054 0.0188686 1.578825
0003a0 05 94 8a be 53 73 10 3f f9 2b 48 be d7 1d 46 3f
       -0.27066055 0.5642597 -0.19548024 0.7738928
0003b0 e7 66 e7 3d 99 10 04 3f 61 ff 4d bf a0 7e aa 3c
       0.11298924 0.51587826 -0.804678 0.020812333
0003c0 09 e8 8d 3e be c4 df bd 3e 4c 66 3f 59 d3 a4 bd
       0.2771609 -0.109261975 0.89960086 -0.08048124
0003d0 d2 f0 af be 35 b1 16 3f 83 61 a7 bd 62 c6 1e 3f
       -0.3436342 0.58864146 -0.08172896 0.6202146
0003e0 e4 6f ee 3c 56 34 2e 3e 50 aa 07 3d d5 f7 5d 3f
       0.029106088 0.17012152 0.033121407 0.86706287
0003f0 97 95 0b be 6c d1 e6 be 99 81 a3 bc ab c7 66 bf
       -0.13631283 -0.4508165 -0.019959258 -0.9014842

fc1.bias f4 [64]
000000 93 dc 19 bd e8 7f 01 be a6 6c 89 bd a9 c0 a3 3f
       -0.03756387 -0.12646449 -0.06710176 1.279317
000010 3d 32 75 be 41 78 09 3d 89 bf 38 bf 97 87 1e 3d
       -0.23944946 0.03356195 -0.7216726 0.038703527
000020 ad 2f c0 bd dd c1 35 3f 52 85 23 3f 14 db 9e 3a
       -0.093840934 0.70998937 0.63875306 0.0012119734
000030 ca d2 1c 3e 39 ea c8 be c4 34 01 3f 1d aa 52 3f
       0.15314785 -0.39241198 0.5047114 0.8229082
000040 e3 b5 1c bf 1d d7 10 3e a6 89 f7 bd 81 14 0d 3f
       -0.6121504 0.14144559 -0.12086801 0.5510941
000050 df ff 4b be 7d 1e 46 be d9 6c d3 bd dc 58 be be
       -0.19921826 -0.19347568 -0.103234954 -0.3717717
000060 c3 06 f0 bc 47 97 80 3f 9f 0f 24 3f d8 11 32 3f
       -0.0293001 1.0046166 0.64086336 0.6955848
000070 1a 90 d0 be 6d ca 31 bf dd 8c 33 be 54 0b 9f 3c
       -0.4073494 -0.694495 -0.17534204 0.019414581
000080 a3 ce 24 bf f1 b7 5a 3e 3d c8 ee 3c aa d9 e6 3d
       -0.643778 0.2135923 0.029148215 0.11271985
000090 a4 1e 79 3e ee 5e 1d 3f c7 09 4d 3f aa 5f 36 bf
       0.24328095 0.61472976 0.80093044 -0.7123972
0000a0 02 11 1e 3d d1 79 8c be 12 73 90 3e e6 c3 94 bd
       0.03859044 -0.2743669 0.28212792 -0.07263927
0000b0 21 17 0d 3f a1 5b 7b be ec d7 d1 3e 94 83 63 be
       0.55113417 -0.24546672 0.40985048 -0.22218162
0000c0 e9 62 0b bf dd b5 b9 3d a9 00 42 3e 2c 94 ac bf
       -0.544478 0.09067891 0.18945564 -1.3482718
0000d0 18 e2 4f 3f c6 5f e5 be f6 b7 42 3f 52 95 31 be
       0.81204367 -0.44799632 0.7606195 -0.17342117
0000e0 d0 c4 46 3f 2d b7 0f be 97 7f 92 be 33 5f 3c 3e
       0.7764406 -0.1403472 -0.28612968 0.1839569
0000f0 d1 76 26 bf 13 2f 7e 3d b4 94 ec 3e 29 ed 65 3f
       -0.6502505 0.062056612 0.462072 0.89815

fc2.weight f4 [32, 64]
000000 02 82 e0 3a eb 2b 02 3e 80 d3 5f bd b8 6a 90 bf
       0.0017128589 0.12712066 -0.05464506 -1.1282568
000010 f6 ec b1 3d a1 4e 05 bc 5f b6 14 bc d3 6e 2a 3e
       0.08687775 -0.008136422 -0.009076684 0.16643839
000020 fe f0 a4 3d 6e 35 dd bd e3 90 b2 be 22 5b ab 3d
       0.08053778 -0.108012065 -0.34876165 0.083669916
000030 35 60 18 3e df 2e c5 3e 5f 2f 09 be 00 68 c5 be
       0.1488045 0.38512322 -0.13396977 -0.38555908
000040 71 e5 f0 3d c8 42 14 3f ad c4 24 3e ff 37 28 be
       0.117625125 0.579144 0.16090651 -0.16427611
000050 75 eb ff 3c fe d0 51 3e 89 8f 5b bd 69 dc 80 3e
       0.031240204 0.2048988 -0.053603683 0.2516816
000060 68 80 85 be 16 07 62 be 8c 58 4a be 53 16 b3 be
       -0.2607453 -0.22073016 -0.1976034 -0.3497797
000070 8b ff 8f 3e 31 ef 13 3f d8 3d e0 bd 90 89 64 3d
       0.2812465 0.5778685 -0.10949296 0.055795252
000080 44 e3 b8 3d e8 be 27 bc ab f9 0c be 08 1f 80 3e
       0.090277225 -0.010238387 -0.13767116 0.25023675
000090 81 c5 75 3b 61 d5 83 bd 4b 11 81 bd 2d 06 0a 3f
       0.0037501755 -0.06437183 -0.063021265 0.53915673
0000a0 01 2b 02 3e 33 7a 10 be 8e 7d 63 3e d6 0c 0e be
       0.12711717 -0.14109115 0.22215864 -0.13872084
0000b0 06 4e 34 bf 8d ad b9 3e f2 03 f9 bd 50 a5 93 be
       -0.70431554 0.3626522 -0.12158956 -0.2883706
0000c0 8e a5 f6 3e 40 d8 c3 3e 82 f8 ec bd f4 25 b3 3e
       0.48173183 0.38250923 -0.115708366 0.34989893
0000d0 22 b7 49 be fc 87 38 3e 21 a4 84 be 51 db f2 3d
       -0.19698766 0.18020624 -0.2590647 0.118582375
0000e0 a1 93 80 be 8a c7 f5 3e 72 6d f3 3c c1 1b 2d be
       -0.25112632 0.480038 0.029715274 -0.16905119
0000f0 62 27 c2 3e e4 61 6a bf 96 0c 6f 3d 2b db fa bd
       0.37920672 -0.9155562 0.058361612 -0.12248834
000100 e2 c4 34 3e c2 11 f5 bd 0a 6d fb bd 33 47 33 3e
       0.1765323 -0.11966278 -0.12276657 0.17507629
000110 90 fd 70 be ae 14 04 3e 08 cc 10 3e 19 78 64 be
       -0.23534226 0.12898514 0.14140332 -0.22311439
000120 76 69 0d 3e bc 92 45 3e b6 40 67 3d c8 03 59 3d
       0.13809761 0.19294256 0.056458198 0.05298212
000130 19 57 0b 3e c5 8d e6 be 41 f4 4f 3e 9e 52 08 bf
       0.13607444 -0.45030037 0.20308019 -0.53251064
000140 44 ef cc 3c 7f 5b 96 3d 23 de 01 be e0 1d 30 3e
       0.025016434 0.0734167 -0.12682395 0.17198896
000150 6c 7d 27 be ab 31 7e be ad 85 0d 3d 55 a9 96 bd
       -0.16356438 -0.24823634 0.03455131 -0.07356516
000160 b4 43 a7 3e 40 ba 2a 3e 39 0c 99 3e 17 49 8b 3e
       0.3266884 0.16672611 0.29892138 0.272042
000170 45 da 51 be 93 bd 10 bf 13 0f 37 3d e0 38 b2 bb
       -0.2049342 -0.5653927 0.04469211 -0.005438909
000180 f1 a2 24 3e ba e3 2f 3e 23 e0 66 be 49 fa 94 bc
       0.16077782 0.17176715 -0.22546439 -0.018185752
000190 76 b6 87 3c af 07 c9 3d 34 a0 92 bd b7 4c b6 be
       0.016566496 0.09815919 -0.071594626 -0.35605404
0001a0 e7 2f 2b bd 3d 60 6d bb 12 54 aa 3e 35 d2 da 3e
       -0.04179373 -0.0036220693 0.33267266 0.427385
0001b0 57 a7 ad 3e 52 ef ac be 11 c8 f7 3d 42 13 47 bf
       0.33916733 -0.33776337 0.120987065 -0.7776376
0001c0 ed d9 13 bf 28 f8 00 bf 05 be 3e 3e 8f 63 52 be
       -0.57754403 -0.50378656 0.18627174 -0.20545791
0001d0 f9 bc f0 3c 6d 10 31 bd ad 8a 55 3e 06 b7 ab bc
       0.029386984 -0.043228555 0.20853682 -0.020961296
0001e0 97 22 a0 3d 7b 53 c1 bd 1d 55 4b bf d5 26 37 c0
       0.078190975 -0.09439751 -0.7942675 -2.861745
0001f0 c3 79 31 bf 62 f3 ab bf f2 d0 b5 3d 0c ae 16 bc
       -0.6932642 -1.343365 0.08877744 -0.009196769
000200 f1 b7 47 3d 10 e8 dd 3c 08 78 a0 3d a4 28 de 3d
       0.048759405 0.027088195 0.07835394 0.10847595
000210 72 34 7e bd 98 40 37 3d f4 78 ac bc a7 ae 8c 3d
       -0.062061734 0.044739336 -0.021053769 0.0686925
000220 98 0a 70 3e c5 53 ea 3d 1f 35 1f 3e 42 6f de 3d
       0.23441541 0.11441759 0.15547608 0.108610645
000230 ee 20 ff bf 5f b4 37 be d1 29 23 bd 46 b9 c0 3c
       -1.9931924 -0.179399 -0.0398348 0.023525845
000240 7b 4d fa 3d 17 55 03 c0 c9 79 0a bc bc 19 33 3e
       0.122218095 -2.0520685 -0.008451887 0.17490286
000250 f7 aa 6f bc 07 47 ef be 4c e6 e2 3b ed 6d 77 be
       -0.014628164 -0.46733877 0.006924426 -0.24163027
000260 48 c1 eb be b2 3a 8f 3e 5f c6 f8 3d 5c 45 b5 3e
       -0.460459 0.27974468 0.12147211 0.3540448
000270 36 7d 3a be 94 7e 6a be c6 3e 5d bc cc 0a 56 bd
       -0.18211827 -0.22899848 -0.013503736 -0.05225639
000280 92 92 64 be fa f5 c1 bd 01 c0 7f 3d 1c 44 14 be
       -0.22321537 -0.094707444 0.06243897 -0.14479107
000290 6e d0 14 3e 83 2b 0f bd 2e e5 48 3e 33 b2 e6 be
       0.14532635 -0.034953605 0.19618675 -0.4505783
0002a0 ff 87 6b be 45 b2 a5 3d a2 2e 26 3e 62 94 83 bf
       -0.23001097 0.08090643 0.16228727 -1.0279658
0002b0 35 9c ac bd 6b e3 bb be ea 1f 77 3e 9d 5b 25 3f
       -0.084282316 -0.36696944 0.24133268 0.64592916
0002c0 5b 47 96 be fd ce fa bf 5f df d0 3d 59 2c c1 bd
       -0.29351315 -1.9594418 0.10198855 -0.09432287
0002d0 93 99 0b 3e 8d f5 09 be a7 53 55 3e 30 b4 76 3e
       0.13632803 -0.13472576 0.20832692 0.24092174
0002e0 79 80 01 3c d3 55 ec be de d2 05 3f 2f 96 78 3e
       0.007904165 -0.4615923 0.5227488 0.2427604
0002f0 7f e1 81 be 11 3d 15 bf 31 01 f6 3d f9 1c ef 3d
       -0.25367352 -0.58296305 0.12011946 0.11675448
000300 b8 a4 d1 3d 34 62 0b 3e 16 b8 be bd 3a 20 97 be
       0.10236496 0.1361168 -0.09312455 -0.29516774
000310 bb dc 9c 3d e2 57 d2 3d e6 6b 14 3d c2 d1 6b 3e
       0.076592885 0.102706686 0.036235712 0.23029235
000320 5d 2a 0b 3d b0 7e 27 be 41 22 9e be 24 92 4e 3d
       0.033975948 -0.16356921 -0.3088551 0.05043234
000330 10 95 64 3e f3 ca 03 3f fc 96 41 bd 5f 36 cf be
       0.22322488 0.5148155 -0.04726313 -0.4047117
000340 51 ef c4 bd 23 b6 9e 3e df da 62 bb 82 d0 02 be
       -0.096159585 0.30998334 -0.003461532 -0.12774852
000350 ff 4a 44 3e 7f d1 26 3e 67 05 cd 3d c4 cf fc 3d
       0.19169234 0.16290854 0.10010796 0.12344316
000360 59 26 a2 bc 58 aa 76 be cb 7b 30 be 16 6e 9f be
       -0.019793676 -0.24088418 -0.17234723 -0.31138676
000370 e8 4f 41 3e 9e 2f ed 3e ad 12 81 3d d4 83 5f bd
       0.18878138 0.46325392 0.0630239 -0.05456908
000380 47 2e 27 3e 28 ec 47 be 7a 97 8a bf c9 f1 18 3e
       0.16326247 -0.1952368 -1.0827477 0.14935984
000390 32 16 75 bb 97 f9 5c bd 01 58 ba bd df b4 e0 3e
       -0.0037397263 -0.053948965 -0.09098817 0.43887994
0003a0 c8 39 a3 3d b6 9d c2 bc 69 cf 12 be 1c 2e 04 bf
       0.07970005 -0.023756843 -0.14336933 -0.5163286
0003b0 0f 3d 54 be 7b 32 98 3d 1a 6b 48 be 08 82 99 bd
       -0.20726417 0.074315034 -0.19572106 -0.074955046
0003c0 aa 69 9d 3e e1 c6 27 3f 25 39 2e be 17 c0 84 3e
       0.30744678 0.6553784 -0.17013986 0.25927803
0003d0 75 26 a7 bd 61 bb 1c 3e 59 93 23 be d9 5e 72 bd
       -0.08161632 0.15305854 -0.15974177 -0.059172485
0003e0 88 8b 78 bd 04 43 c4 3e 87 d7 06 3d b7 9e 22 bf
       -0.060679942 0.3833238 0.032920387 -0.6352343
0003f0 d0 50 ef 3e 36 ca 18 be 18 e4 7c bc 4a 86 37 3c
       0.46741343 -0.14920887 -0.015435241 0.011201451

fc2.bias f4 [32]
000000 7c da 4a bf e1 78 0e 3f 78 c5 1a 3f b1 f9 29 bf
       -0.7923963 0.55653197 0.60457563 -0.66396624
000010 4c ac e1 be e1 2f 4f bf 57 45 fe be 61 9b d7 3e
       -0.44076765 -0.8093243 -0.49662277 0.42110732
000020 9e 83 0a 3f d0 46 33 bf d0 81 bf bc da 4a 34 bf
       0.5410708 -0.70029926 -0.02337733 -0.70426714
000030 47 20 05 bf 00 41 64 3c 0f 2a 35 3d b6 3c 01 bf
       -0.52002376 0.013931513 0.044229563 -0.5048326
000040 f9 dd 0d 3f c2 37 00 bf 86 74 03 3f 4b ee 4b 3d
       0.5541683 -0.5008508 0.51349676 0.0497878
000050 f9 86 b8 3e 79 d3 e9 3d ca ec ad 3e da 46 c3 3d
       0.36040476 0.11417288 0.33969718 0.09534998
000060 b5 b7 11 3f 98 47 1e bf 53 97 c1 be b4 0a 41 3e
       0.5692094 -0.61827993 -0.37810764 0.18851739
000070 2b f0 e6 be 07 58 8c 3e c5 d5 30 bf 85 76 f1 3e
       -0.4510511 0.2741091 -0.69076186 0.47160736

q.weight f4 [1, 32]
000000 cb 49 9d bf 48 43 06 3f 0c 96 35 3f 1b 1c 96 bf
       -1.2288145 0.52446413 0.7093208 -1.1727327
000010 7b 3d d8 be 10 11 e6 bf 90 f1 5e bf ae 8f 0d 3f
       -0.42234406 -1.7973957 -0.87087345 0.5529736
000020 b8 6b 20 3f 7f 7a 19 c0 73 0e fb 3d 44 6a 46 c0
       0.62664366 -2.3981016 0.12258615 -3.100236
000030 4c 92 10 c0 f7 d4 f5 3d 15 6c a6 3c bb b0 4c bf
       -2.2589293 0.120035104 0.02031521 -0.7995717
000040 a6 d2 81 3e eb e1 11 c0 f5 9f b2 3e 8e ca e4 bd
       0.25356025 -2.279414 0.34887663 -0.11171447
000050 87 30 b3 3e 4e 59 58 3d 46 92 bd 3e 12 a7 8c 3d
       0.3499796 0.052819543 0.3702566 0.06867804
000060 de 87 45 3f 66 d8 06 c0 2b d2 33 bf 48 23 ae bf
       0.7716044 -2.106958 -0.70242566 -1.3604517
000070 80 79 b0 bf bd 55 a9 bf 32 c1 75 bf 73 49 8c 3e
       -1.3787079 -1.322929 -0.9599792 0.27399787
